code/models/DQN/model140.pth (torch, 266187 bytes, 14 tensors)

_CNNDQN__conv1.weight f4 [16, 1, 5, 5]
00000000: 9a5a 71ba e5c0 a8b8 5a79 053c 61fc 3f3d
00000010: c8e4 b63e 02b4 c6bc 5350 a1bb 5f61 1ebc
00000020: 6e05 b93b 3f61 6fbc 8c1c e33a 621d ac3a
00000030: f42c 1d3a 6980 9a3c 7346 353c c9fd 073b
00000040: 5d80 84bc 3358 8ebb 2468 683b 06ec 27bc
00000050: fbe3 30bc 9936 27bc 5115 0b3c 91bb 0a3a
00000060: f92b 57bd f81a 7ebd 67f1 f33e c0ab 203c
00000070: 1a9a f23b a198 8fbb 059e 1a3b 17bc 1f3b
00000080: 6835 ff3a 7b29 98ba a88d 803b 2722 eeba
00000090: 0b70 163c c710 393c fa62 493c 06d8 c73a
000000a0: 5c74 323c b794 62bb ed4a 9439 5f7c 8f3b
000000b0: 3b52 993a 6a1e 48bb e1e5 583b 2f8d eaba
000000c0: a4a3 bebb 93e9 ce3a 455c c0bc 2a9c 233d
000000d0: 5490 403d 5d2e 853d b266 633e a017 063a
000000e0: 4b24 4f3c ae87 763b 8231 153d e61e 57bc
000000f0: e8a9 743c 375f b33b d6be 023d 7070 703c
00000100: 9f0b 223c 1d04 9d3c 16b1 163d 9c71 013d
00000110: 37f3 11ba 096b 193d 2bd9 f83c 8bbb 163b
00000120: cb07 753d 4f70 3e3c c16d cc3e 8a80 f03e
00000130: a15f d73d 640e 5f3c d07d 22bc ac0a c2bc
00000140: e0a1 6a3d 38a5 c3ba acdd d63c b869 ea3c
00000150: 38c1 ec3c cf0e f53c 1582 713d c2f2 9d3b
00000160: 58b1 563c fea5 93ba a3bc e43c f7ea ca3c
00000170: abe0 363c 683d 1e39 84d2 26bc e8dc 5b3c
00000180: 97bf a63c 0bb2 043d de19 cbbc 38b5 6c3d
00000190: 0c5e f73b 3553 a33a 71fc 3fbb 0dfe 00bc
000001a0: 60bf 323f e0a3 aa3b f433 1fbc ec80 33bb
000001b0: 1fe0 003c 6ded 2f3a 9e5b ffbb b89f f9bb
000001c0: 1a7b 743c fd72 183a 3e1d 963b 2c06 49bc
000001d0: e838 663c c484 de3b 839f 7ebb b1ef b13c
000001e0: 9855 c4bc f54f 433c df01 7b3b 2243 d63a
000001f0: 9940 d03c 2594 aebb 38ec 06bb beb0 9c3a
00000200: f465 aebb 629a bdba 7a5f a63b 9345 693b
00000210: 5eb8 683b 7903 15bc 1d22 ebba 1249 993c
00000220: 1b14 013c f088 04bb fdc6 25bb 0d99 d2bb
00000230: 3779 073d 154d 993c c54e bfbb a598 643b
00000240: 5e6b bfbb 5c71 333f 16e4 0abd 0c24 0a3c
00000250: 3bb9 903b ca30 fcb9 5623 9e3b 82e3 ea38
00000260: 5ea3 3a3c a045 03bc 5755 bf3a a3bd e639
00000270: 4023 26bb 84f1 77bc ea7d b33c 6c84 a23b
00000280: 5d3f 1b3c 8322 d73c da9b a2bc fc37 a33b
00000290: db9e 023c 2b74 0f3f e307 bbbe ead1 653c
000002a0: c8ec 4a3b 7af9 d3b9 ca75 05bd 3235 563c
000002b0: 00d2 8bbc 9d46 603c 3aeb 43bc 507d c93a
000002c0: ccb1 1d3c 4a81 6c3c 1f39 a7be 3873 1b3f
000002d0: cf96 153c 43bd 44ba 5995 00bc b22b 2a3c
000002e0: 853e 48bc 6ed8 25bc 0398 9d3b 1b6a 81bc
000002f0: 1e13 7e3c 5df1 42bc cd85 3bbb b29d cebb
00000300: ffab c639 0d08 4a3c 13c2 83bc 93b4 5438
00000310: 40f6 16bc a79b 2b3b decd 443c 5b8d 583b
00000320: 7e8e 983e 6f04 00be 33d6 23bb 884d 39bc
00000330: b34b 9bbc 7324 62bd f89a 50bc 2b37 95bb
00000340: 3b1b 813c fd0f 25bb 3123 8d3c 6f21 2bbc
00000350: fd60 0f3c 9f65 a6bb ecba 933c a72d bdba
00000360: c47a 9f3c 1cff bebb 8590 123d 3c26 b53d
00000370: ebee fc3b 6109 f3bb 837f e439 001e 873c
00000380: 0b4d 64be e762 60ba c7e1 3ebb 4799 a33c
00000390: b11f c4ba e294 34bb 25f3 1bbc eb44 0a3c
000003a0: 3cd6 cbbb a8c0 c3ba 0646 26bc 21d3 a53c
000003b0: 18d9 89bb aeea b43a 3160 693c 0010 1ab3
000003c0: 6587 b53b 6b31 acbb 0f05 76bc 142c 92bc
000003d0: 592b 823b f188 b8bb fc62 5d3a a8a4 a6bd
000003e0: f821 e03e 628a 68be 27fc 58bb 1d28 e2bb
000003f0: be9f b1bb 9fb3 52ba ee6c 743e b4e4 1fbd
-0.0009206921 -8.046794e-05 0.008146608 0.046871547 0.3572142 -0.024255756 -0.0049229055 -0.00966677
0.005646399 -0.014610588 0.0017327233 0.0013131315 0.0005995773 0.018860059 0.01106416 0.0020750633
-0.01617449 -0.0043440103 0.0035462463 -0.0102491435 -0.010796542 -0.010205888 0.008488969 0.0005292232
-0.05253217 -0.06203744 0.47645113 0.009806573 0.0074036242 -0.0043822085 0.0023592722 0.0024373585
0.0019470872 -0.0011609042 0.0039231367 -0.0018168137 0.009181987 0.011295504 0.012291664 0.0015246875
0.010892 -0.0034573504 0.00028284584 0.00437884 0.001169748 -0.0030535706 0.0033096003 -0.0017894859
-0.0058178473 0.0015786163 -0.023481498 0.03994385 0.047012642 0.06502984 0.22207144 0.0005115215
0.01264293 0.0037617492 0.036424167 -0.013129925 0.014933087 0.005473997 0.031920277 0.014675245
0.009890466 0.019167 0.036789976 0.031602487 -0.0005567553 0.037455592 0.030376991 0.0022999968
0.059821885 0.011623456 0.39927486 0.46973068 0.10516287 0.013614271 -0.009917691 -0.02368673
0.057283282 -0.0014926558 0.026228748 0.028614864 0.028900728 0.029914288 0.058961947 0.0048201988
0.0131038055 -0.001126468 0.02792198 0.024770243 0.011161963 0.0001509093 -0.010182027 0.013419367
0.020355029 0.032396358 -0.024792608 0.05779001 0.007549053 0.0012460711 -0.0029294754 -0.00787307
0.69823265 0.0052075237 -0.009716976 -0.0027390076 0.007865935 0.00067110994 -0.007792904 -0.007617917
0.014921928 0.00058154744 0.0045811227 -0.012269538 0.014051653 0.0067907292 -0.00388524 0.02172074
-0.023966596 0.011920919 0.0038300676 0.0016346911 0.025421428 -0.005327719 -0.0020587575 0.0011954529
-0.0053222124 -0.0014465565 0.0050772997 0.0035594448 0.0035510282 -0.009095066 -0.0017939244 0.0187116
0.007878329 -0.0020223223 -0.0025295608 -0.0064269365 0.033074584 0.018713513 -0.0058382475 0.0034881022
-0.0058416566 0.7009485 -0.033908926 0.008431446 0.0044166124 -0.00048101536 0.0048259897 0.00011200366
0.011391489 -0.008012205 0.0014597577 0.0004401031 -0.00253506 -0.015133265 0.021910626 0.0049596336
0.009475556 0.026261574 -0.019849706 0.004981039 0.007972444 0.56036633 -0.36529455 0.014027098
0.0030963887 -0.0004043093 -0.032583036 0.013074206 -0.01706791 0.0136887105 -0.011957938 0.0015372429
0.00962491 0.014435122 -0.32660767 0.60722685 0.009130194 -0.0007505009 -0.007848107 0.010386394
-0.012221937 -0.010122402 0.004809381 -0.015797665 0.015507488 -0.011898366 -0.0028613687 -0.00630542
0.0003789365 0.012331021 -0.016083753 5.071291e-05 -0.009213984 0.0026185305 0.012011973 0.0033043239
0.29796213 -0.12501691 -0.00249995 -0.011309989 -0.018956995 -0.055210542 -0.01273226 -0.0045536957
0.015760055 -0.0025186532 0.017228695 -0.010444983 0.008751151 -0.005078032 0.018033467 -0.0014433161
0.019467719 -0.0058287513 0.035782356 0.08845183 0.007718911 -0.0074168895 0.00043582552 0.016493797
-0.22295015 -0.00085596595 -0.0029126273 0.01997055 -0.0014963058 -0.0027554561 -0.009518419 0.008439283
-0.006220607 -0.0014934735 -0.010148531 0.020242276 -0.004206788 0.001380285 0.014244125 -3.587047e-08
0.005539822 -0.0052549145 -0.0150158545 -0.017843284 0.0039724526 -0.005631559 0.0008445231 -0.081368744
0.43775916 -0.22709039 -0.003310928 -0.0069017545 -0.005420654 -0.000803763 0.23869678 -0.039036468

_CNNDQN__conv1.bias f4 [16]
00000000: 91c3 81bd 19ce 01be 6a66 bbbc 79a9 36bd
00000010: 1e90 73be 5506 80be e6d3 96be 9675 a4be
00000020: dae4 8bbc f885 32be d6cd 86be 9a99 46be
00000030: 3228 80be 9e15 1ebe 4e4b 31be dd98 90be
-0.063361295 -0.12676276 -0.022875983 -0.044595215 -0.23785445 -0.2500483 -0.2945854 -0.3212096
-0.017076898 -0.17433918 -0.26328915 -0.19394532 -0.25030667 -0.15437934 -0.17313883 -0.28241625

_CNNDQN__conv2.weight f4 [32, 16, 3, 3]
00000000: 3e0e a4bd ed98 b8be 8bd9 d5be d470 4fbe
00000010: b2c8 503f 96be 09bf 209d 84bd 04f3 48be
00000020: 2992 d8bd 6d68 593e ed7f d13e 16b0 163e
00000030: edb8 0d3e bcda 133e f6b4 e13d 7728 453d
00000040: b2e9 653e 3179 fe3d 1f68 eebc e083 bcbd
00000050: 526f 713d 51ed 69bd ba66 c33d 1d86 91bd
00000060: 140c 5d3c a681 43bc 1767 233d 1430 d53c
00000070: 5bcb 233d 213a a4bd 58ce e5bc f545 b1bd
00000080: f91d 2cbc f59a 9bba 24a1 bd3d 7500 5f3c
00000090: 156d 2a3e d927 82bf ef8e 2e3d e161 01bf
000000a0: 00b1 3d3f f426 e9be f412 533d 3ef6 02bf
000000b0: 9cdd 793e 7646 043e a06d 703d 3df8 3039
000000c0: 82a5 8abe 79cf a43d f72b 86be 9a58 aa3e
000000d0: 5a31 ea3d 2d19 f73d fc47 bd3e f7d8 153e
000000e0: 8ecf 9f3e d1ca 723e 7f3a ef3d eb2f 2b3e
000000f0: 1cfa 243f edaa 963e c331 a53e 8492 043e
00000100: 12b3 af3f 7ca2 fd3e 039c 09bf 83e8 debe
00000110: d8d2 f73f eb75 a13e d349 803d 12b3 8c3e
00000120: 2909 5ebd 8da7 39be b098 d1bc 335b dd3d
00000130: 0aa1 fa3d cd4b be3c 87fd f33c ef40 43be
00000140: 1d71 00be dfc9 a13e de39 4b3e 20b5 033e
00000150: 61a2 593e 9f8c 283e cee8 e53e 6168 823e
00000160: f553 2f3e 9e94 123e 4632 8cbe bc42 8cbe
00000170: 9858 dfbd 5d95 c23d 7b0d 8c3e c6b0 6cbe
00000180: beb2 173e 6b31 873e bc13 533e c212 9abd
00000190: 6fb9 c0bb d3c2 763d 1053 56bd 0af4 e13c
000001a0: 42a0 2a3d 76da b13d ea99 1cbd cbb8 1fbd
000001b0: d15d 513d 0b97 1c3e eb58 4c3d 68de 383d
000001c0: 6630 a0bd 7cb8 e63d 42ae d13c e194 053c
000001d0: 72cd d83c 3d76 e63c b67e 7d3b fc03 98bd
000001e0: f463 d93d 750b 013d b766 db3d 2e45 27bb
000001f0: 75ba 5cbc b994 41bc 0fa8 99bd 6276 463d
00000200: 94e0 673d b02f b73d 6447 37bc ff1c 8f3e
00000210: 9a73 4a3f 9fc2 c83e 44b5 5a3d 00a0 203d
00000220: 6047 373d 5c55 f3bd 8c8f 88bc f035 32bc
00000230: 40c6 8bbc 34a7 d73c 368f 63bc 44ad 46bd
00000240: ea74 30be 5bdb 0fbe c2ac b43e ba4a 853e
00000250: e0c5 bebe 0ff8 b0be 09aa efbc c6e1 48bd
00000260: 6fad 4bbe ea8d 3e3e c17f 0b3e e0eb 01be
00000270: 8d93 e93d a132 07be 9eae 503d 9ed5 96be
00000280: cbcc 6c3d 96a9 bf3c 94ab 183e 76bc 0e3e
00000290: df1a 41bd 9b8c 71bd 26cf 9d3d 3480 60bd
000002a0: cbfa f4bd ded2 89be 001d 9d3d 1366 b03c
000002b0: a9c6 09bc e133 bfbc 34ba a03d cdeb b5bb
000002c0: 0dc3 313d 4556 51be 79b0 0cbe 746f b9bc
000002d0: b498 bbbe 3707 35be bf25 a23f eaff 3f3f
000002e0: 6053 493d 800d 20bd 9071 083b 4134 3d3e
000002f0: 6d95 f8bd 35ae eabd 0b00 073d 3be4 873f
00000300: 76b5 1dbd 1437 11be b986 eb3c 967c 8bbc
00000310: 2fdc 4eba 66e6 f23d cb38 fc3d 5ff9 47be
00000320: 0e59 14be 1e86 b9bd 6814 51be 3234 59bf
00000330: 0ed5 073e e4f1 923e e6bb a83e 8a07 23bf
00000340: 4d1a 053f 08aa 4dc0 d990 4dc0 39e6 843e
00000350: 57c1 603f 3aa2 263f bc81 953e 36f0 293e
00000360: 5243 40bb ec92 44be 5b51 abbd d28a 1fbe
00000370: 7486 40bd a16f 813d 841d d73e c7c5 c43e
00000380: 5f10 aebd 7b98 1d3e c6ac d33d 2176 693e
00000390: 7e89 373d 681c e2bf d8b4 91bf 0737 2fbc
000003a0: ad01 653f bbc7 a83f 5562 343f fbf0 063e
000003b0: 9186 07bf 0c75 89bf 3ea3 4abe 3226 8d3e
000003c0: 2525 f63d 2f6f 0fbd 580e cb3d 7cb5 bf3e
000003d0: 84cb 3c3f 7938 cc3d 3c6b 67bd ce15 7ebe
000003e0: 853e 4dbf ff5b e43d 1c8b fd3d c3fc c53b
000003f0: b112 3cbe 4d79 66be de5f 76bd 9f44 283f
-0.08010529 -0.36054173 -0.41767535 -0.20257884 0.81556237 -0.53806436 -0.06475282 -0.19623953
-0.10574753 0.21231242 0.40917912 0.14715609 0.13840075 0.1443891 0.11020844 0.048134293
0.22452429 0.12425459 -0.029102383 -0.09204841 0.058944054 -0.05711109 0.09541078 -0.07105658
0.013491649 -0.011932766 0.039893236 0.026023902 0.039988857 -0.080189 -0.028052494 -0.08655921
-0.010505193 -0.0011871742 0.09259251 0.013610949 0.16643174 -1.016841 0.04261678 -0.50539976
0.74098206 -0.4553753 0.051531747 -0.51156986 0.24400944 0.12917504 0.058698297 0.00016877144
-0.27079397 0.08047385 -0.26205418 0.33270723 0.11435194 0.12065349 0.36968982 0.14633547
0.3121304 0.23710181 0.11681079 0.16717498 0.64444137 0.2942728 0.32264528 0.12946516
1.3726523 0.49538028 -0.5375368 -0.43536767 1.936122 0.31535277 0.06264081 0.2748037
-0.054207955 -0.18130322 -0.025585502 0.108084105 0.12237747 0.023229504 0.029783977 -0.19067739
-0.1254315 0.31599328 0.19846293 0.12862062 0.21253349 0.16459893 0.44904178 0.2547026
0.17121871 0.14314505 -0.27382106 -0.27394664 -0.1090557 0.09501145 0.27354035 -0.23114309
0.14814278 0.2640489 0.20612997 -0.07523109 -0.0058814804 0.060244393 -0.05232531 0.027582187
0.04165674 0.08684246 -0.03823272 -0.03899459 0.05111486 0.15291993 0.049889486 0.045133978
-0.07821731 0.11265656 0.025595788 0.008153171 0.026465151 0.028132552 0.0038680262 -0.07422635
0.10614768 0.031505067 0.10712951 -0.0025523412 -0.013472189 -0.011815243 -0.07502758 0.048452742
0.05661066 0.089446425 -0.011186454 0.2795181 0.79082644 0.39210984 0.053395525 0.039215088
0.044745803 -0.118815154 -0.016670011 -0.0108771175 -0.017062306 0.026324846 -0.013889125 -0.048505083
-0.17232099 -0.14048521 0.35288054 0.26033574 -0.37260342 -0.34564254 -0.029255884 -0.04904344
-0.19890378 0.18608823 0.13622953 -0.12687635 0.11405096 -0.13202907 0.050947778 -0.29459852
0.057812493 0.023396295 0.14909202 0.1393908 -0.047144767 -0.058971982 0.07705526 -0.054809764
-0.119618975 -0.2691869 0.07671547 0.021533048 -0.008409181 -0.023340167 0.078480154 -0.0055517913
0.043398906 -0.20443065 -0.13739194 -0.022636153 -0.3663994 -0.17678533 1.2667769 0.7499987
0.04915178 -0.039075375 0.0020819642 0.18476965 -0.12137876 -0.114590086 0.032959025 1.0616525
-0.038503133 -0.14181167 0.028750764 -0.01702718 -0.0007891086 0.11860351 0.1231552 -0.19528721
-0.14487097 -0.09058784 -0.2041794 -0.8484527 0.13264868 0.28700173 0.32955855 -0.6368338
0.51993257 -3.213503 -3.2119658 0.25956896 0.87795013 0.6509129 0.29200542 0.1659554
-0.0029337 -0.19196671 -0.08365127 -0.155803 -0.047003224 0.0632012 0.42014706 0.38432142
-0.08499216 0.15390198 0.10335688 0.22798969 0.044808857 -1.7664919 -1.1383314 -0.010694272
0.8945568 1.3185953 0.7046254 0.13177864 -0.5293971 -1.0738845 -0.19788834 0.27568203
0.120188035 -0.035018142 0.09914845 0.3744315 0.7374804 0.09971709 -0.05649875 -0.24813005
-0.8017352 0.11150359 0.12380049 0.0060420944 -0.18366505 -0.2250721 -0.06015002 0.6572971

_CNNDQN__conv2.bias f4 [32]
00000000: 9534 10be f243 03be 184b 24be d68b 78bd
00000010: 8e6c 86bd 0627 01be 744c eabd 758c 66bf
00000020: ae58 20bd fbc8 97be 61ea b8bd e82e c7be
00000030: 167d 25be e5d1 c2bd b2b2 eabd a1cd ecbc
00000040: 8540 90bd d8ff 73bd af40 6cbe f795 edbd
00000050: 9e44 62bd f617 19bd 9aca 3e3e a59d 59be
00000060: fd58 8ebf 7e30 8bbe 65d0 77be fce8 5fbe
00000070: cb77 23be 2e09 ffbd 516e 47be bfab 2dbe
-0.14082558 -0.12818888 -0.16044271 -0.060680233 -0.06563674 -0.12612543 -0.114403635 -0.9005807
-0.03914707 -0.29645523 -0.09029079 -0.38902974 -0.16160998 -0.095126905 -0.11459865 -0.028906645
-0.07043556 -0.059570163 -0.2307155 -0.11600869 -0.05524122 -0.037376367 0.18631974 -0.21251543
-1.1120907 -0.27185434 -0.2420059 -0.2186622 -0.15963666 -0.12452923 -0.19475676 -0.16960047

_CNNDQN__conv3.weight f4 [64, 32, 3, 3]
00000000: 2a73 b0bd afc7 013c 5f2b 99bd 45f1 0c3d
00000010: b683 5fbd c52c afbc 9f59 3ebd 1939 29bd
00000020: 1b1b 4abd 2e2e 23bd 4916 3dbd b1ee ebbc
00000030: 5e24 603d 7541 083d c2ff 423d b04f 073d
00000040: a713 d93c 1c6b 373d 9c3f dd3b 8264 723d
00000050: c38b 98bd 539b cc3c d7be 04bd 406e 493c
00000060: 08d6 29bc fba3 6c3d a3cd b93c e0bf 30bd
00000070: 4c8f ce3b 1a46 a0bc 25fb 11bd 8510 843c
00000080: d616 283c cb98 83bd 7419 42bd 9baf a7bd
00000090: 7d52 f8bb 5de9 3abd 0914 2dbb 3af7 68bd
000000a0: 79d5 f03a 6bb3 ff3c e4e9 86bd ba37 77bd
000000b0: 0a3a 5e3c 3463 37bd 0e57 d13c 378b 873c
000000c0: 1ef8 edbc 618f afbd a83a 023d f9d9 993c
000000d0: 2e31 3f3a 2d20 48bd a1e7 46bd c715 19bd
000000e0: 5441 523b bf8b 6dbd aa8e c83b 8e45 8ebc
000000f0: 8902 78bd e8df 843d b4ad ed3c 5637 f43b
00000100: 0d01 283c 7100 01bd 710a 113d 28f4 3d3d
00000110: b45e a43c 53b0 1dbd d1ed d43b 054d 2a3d
00000120: b6ef 243d 3649 1cbc 7405 02bd 6dd7 7ebd
00000130: b0b1 6abd 7ec1 07bd 54a8 dc3c ae03 6fbd
00000140: 1bd6 cd3c e371 2fbd ea0e 5dbd a091 b1bb
00000150: 9220 a0bc 9445 a1bc 4e05 3bbc dffc 05bd
00000160: 401b 1d3d 9a33 c6bc 700b 213c a989 39bd
00000170: caf9 49bd 44df 85bd a434 96bd 25de 94bd
00000180: 2fc6 55bd 32ca 24bd d5f0 0e3d 9da7 d7bc
00000190: b1bc 8cbb bb50 c1bc ab80 7f3a 53c0 71bd
000001a0: 628b 80bd c94f febc a8e3 3b3c bd7d 483b
000001b0: f58d 6fbd 58e5 88bc c6d8 e23c 4661 89bd
000001c0: 9057 c83c 054d 59bd a277 05bd eb1c 61bd
000001d0: 08e7 d9ba 9cc8 bf3c f052 aebd e5b6 4bbd
000001e0: 063a 2ebb 5642 ee3c 12ff 29bd 21c0 5bbd
000001f0: d05f a8bc 6dfd 633d 0aec 233d 53e8 883c
00000200: 35b2 de3b 7b75 313c dbcc b03d 3e9e 25bd
00000210: 5779 21bb 53c2 4cbd c229 41bd 029b f0bc
00000220: a666 a4bd dc67 78bd 35a3 c53c 4122 81bd
00000230: 189c 1a3d 4a29 ce3c b1f6 b6bc 84f2 7cbd
00000240: ac99 86bd 56ea 83bd 7c56 e13c f416 30bd
00000250: 4b59 563d 978f 75bd 276c 3ebb a9eb 52bd
00000260: 2716 a0bc 719d 223d eca1 8fbd 7c2f 373c
00000270: 0bb9 65bd dbf7 2e3c 12b1 45bd 5289 ffbc
00000280: e3ce 93bd 2033 783c 2eb6 233a 2209 6fbd
00000290: e000 93bd 96fe 2cbc 7ca9 96bd 16fc 6bbd
000002a0: 4da9 cabc 82b9 b23c 607b 6f3b dcea 8bbd
000002b0: 09b1 d7bc 7b5a 673b 4559 e83c 6c02 a1bd
000002c0: 47dc f0bc 6eea 283d 3845 00bd 440c 8ebd
000002d0: 5784 673b 779b 8fbd 3c3c 993c 7211 00bd
000002e0: 1dc1 aa3b ff94 763c 6934 3d3d eba0 4a3c
000002f0: ddbb b3bd 8c7a 7abd 9640 09bd 734c 38bd
00000300: 74f0 fabc 2503 59bd 1768 a1bc 5b2e 8c3c
00000310: 0be9 a63c da93 1ebc 589c c5bd dcdd b7bd
00000320: ccce 25bd 7290 f4bd 23fd c83c ccab 0cbd
00000330: 9bb2 8dbb 70ea 88bc e488 1b3d 7648 51bd
00000340: 5a19 703d 47c2 aabd 412d 953d 9212 7d3d
00000350: f60d bcbb ef81 29bd cc02 36bc 1bc7 5bbd
00000360: d379 22bd 54af 473c 42ef 963c d700 23bd
00000370: 31a9 c73c 8bf5 c33c 709b e7bc 60d5 0dbc
00000380: a69c 503c 8cb5 e33b 30ec 8cbd e278 59bc
00000390: f7a9 86bd 9946 06bd a8e4 173d babb 963c
000003a0: 7c6f 7cba 4fe8 14bd dd3c e8bc 78f9 893c
000003b0: f32c ebb8 05bd 003d 48fa 6bbc b7d3 3bbd
000003c0: a027 2abc eb7d 0a3c 3ab6 babb dc22 ebb9
000003d0: 9f4f 7cbd fc40 d3bc f157 06bd dd78 20bd
000003e0: 4a05 1c3d 039b 273c 898d 3ebd 44fb a73c
000003f0: 3118 0dbc 26d0 ddbc 539a 073d 99ce 2abd
-0.08615716 0.007921143 -0.074789755 0.03440978 -0.05456897 -0.021383652 -0.046472188 -0.04131422
-0.049342256 -0.039838962 -0.04616383 -0.02880034 0.054722182 0.03326555 0.04760719 0.03303498
0.026498629 0.04477988 0.0067519676 0.059177883 -0.074485324 0.024976408 -0.03240856 0.012294352
-0.01036597 0.05777357 0.022681063 -0.043151736 0.0063037034 -0.019564677 -0.0356399 0.016121158
0.010259351 -0.06425627 -0.047387555 -0.08187791 -0.0075781927 -0.04563271 -0.0026409647 -0.0568764
0.0018374167 0.031213483 -0.0658758 -0.06035588 0.013563642 -0.04477234 0.025554206 0.016545875
-0.029048976 -0.08572269 0.03179422 0.018780695 0.00072934 -0.04885881 -0.048560742 -0.037374284
0.0032082396 -0.0579946 0.0061205225 -0.01736715 -0.060549293 0.06488019 0.029013492 0.0074528856
0.010254157 -0.03149456 0.03541035 0.046375424 0.02006469 -0.038498234 0.0064980765 0.041577358
0.04026767 -0.009538939 -0.03174348 -0.062217165 -0.057298362 -0.033143513 0.026935734 -0.05835312
0.025126508 -0.04283322 -0.0539693 -0.005418971 -0.01954678 -0.019686498 -0.011414839 -0.03271186
0.038356066 -0.024194527 0.009829387 -0.0452973 -0.049310483 -0.06536725 -0.07334259 -0.07268933
-0.052190956 -0.04023189 0.034897644 -0.026325041 -0.0042949547 -0.023598066 0.0009746651 -0.059021305
-0.06276585 -0.031043904 0.011467852 0.0030592524 -0.05848499 -0.016710922 0.027691256 -0.067080066
0.024455816 -0.053051967 -0.032584794 -0.05495922 -0.0016624639 0.023411088 -0.08511913 -0.04973497
-0.0026584878 0.029084366 -0.04150302 -0.053650025 -0.0205535 0.055661608 0.040020026 0.016712343
0.0067961463 0.010831232 0.08632823 -0.040434115 -0.0024638975 -0.04999001 -0.047158964 -0.029370788
-0.08027391 -0.060645923 0.024125675 -0.063053615 0.03774652 0.025166173 -0.022334429 -0.06175472
-0.06572279 -0.064411804 0.02750706 -0.04299064 0.05233125 -0.05995139 -0.0029056163 -0.051494274
-0.019541813 0.03970093 -0.07013306 0.011180755 -0.056084674 0.010679211 -0.04826457 -0.03119341
-0.07217195 0.015148908 0.00062451034 -0.05835832 -0.07177901 -0.010558745 -0.07356545 -0.057613455
-0.024738932 0.021816973 0.0036542043 -0.06831905 -0.026329534 0.0035301733 0.02836288 -0.0786179
-0.029401911 0.041239195 -0.031316012 -0.06935933 0.0035326683 -0.070120744 0.01870548 -0.031266637
0.005211009 0.015050172 0.04619256 0.012367467 -0.087760665 -0.061152026 -0.03350886 -0.044994783
-0.030632235 -0.052981514 -0.019702954 0.017111948 0.020374795 -0.009678805 -0.09648961 -0.08977863
-0.04048042 -0.11941613 0.024534767 -0.034343526 -0.00432427 -0.016713351 0.037972346 -0.051094495
0.058617927 -0.08337837 0.07284022 0.06178529 -0.005738969 -0.04138368 -0.011109065 -0.05365668
-0.039666962 0.012187798 0.018424634 -0.039795723 0.024372669 0.023920795 -0.02827236 -0.00865683
0.01273266 0.0069491323 -0.06880987 -0.01327345 -0.06575387 -0.03278217 0.037083298 0.018400062
-0.00096296496 -0.03635436 -0.028349334 0.016842589 -0.00011214046 0.031430263 -0.014402933 -0.045856204
-0.010385424 0.008452873 -0.0056979926 -0.00044848665 -0.06159937 -0.025787823 -0.03279871 -0.039177764
0.03809098 0.010229829 -0.046521697 0.020505555 -0.008611725 -0.027076792 0.03310616 -0.041700933

_CNNDQN__conv3.bias f4 [64]
00000000: 956a 98bd d508 483d d7c9 3a3f 03af 103e
00000010: 8494 993f 5ada f13e 64da f13e f9d2 43bc
00000020: a734 c3bf 9309 c9be cd3a 303f c483 06bd
00000030: 3429 58bf 18d0 cd3d d4cd 32bd c833 65bf
00000040: fd65 ad3e 007a 8ebf 0e2c 2c3f 3a30 d3be
00000050: 7d6d 403f da62 d43e d78e 92be 4bc7 c1bf
00000060: 0e2e aebf 671b 943e 8523 923e dbff af3f
00000070: 45b9 b6bf e6a5 98be 42f8 62bd ca69 a1bf
00000080: 18fd 903f cba6 a2be c704 583e c371 913d
00000090: b309 23be 33cb e7bd 859b 20be e226 24be
000000a0: 2ce0 debd 615c 483f d0b0 c2be 9adb c63e
000000b0: e691 b03d 3f18 9bbf ef24 68be 0706 3cbc
000000c0: 2c4d 6abf d601 8e3d d29d 44bf cc51 973f
000000d0: d5fc dbbe 37d2 1ac0 7725 d23f b23f 52bf
000000e0: 572c 373d 598f f93e 1877 90be 9d08 93be
000000f0: 3aa9 30bc 1c87 973e 3cde 64bf 9e22 d23e
-0.07442204 0.048836548 0.72964233 0.14129262 1.1998448 0.47236902 0.4723693 -0.011952155
-1.5250443 -0.39265117 0.6883972 -0.032840505 -0.8443787 0.10049456 -0.043653324 -0.89532137
0.33866873 -1.1130981 0.6725472 -0.4124773 0.75167066 0.41481668 -0.28624603 -1.5138944
-1.3607805 0.28927156 0.28542724 1.3749956 -1.427529 -0.2981407 -0.05541254 -1.2610409
1.1327238 -0.31767878 0.21095572 0.071017765 -0.15921669 -0.11318054 -0.15684326 -0.16030458
-0.10882601 0.7826596 -0.38025522 0.38839418 0.08621578 -1.2116774 -0.22670339 -0.011476046
-0.91524005 0.06933944 -0.76803315 1.1821837 -0.42966333 -2.4190805 1.6417683 -0.8212844
0.04472002 0.48742178 -0.2821586 -0.2871751 -0.010782534 0.29595268 -0.894016 0.41042036

_CNNDQN__fc1.weight f4 [128, 64]
00000000: ced7 693d 8377 17be ff4a 60bd c241 f3bd
00000010: 527c 8dbe a4a3 acbd d030 cabe 9d4a 923e
00000020: 47d3 26be 853a 9c3f 15ef 143f e338 cabe
00000030: d86c 28be e449 08bf 559f 8a3c 134d 823e
00000040: d7a5 8d3e 42c9 86be 3fbe a0be 38ae 863e
00000050: bd1f 8bbe bd7d d7bd 36e8 673e 4c24 22be
00000060: ff78 a5be f538 4ebe 3e98 463f 1eac 363e
00000070: b5bf aabd bce6 abbd c6df 133e 8efe 743e
00000080: 7dd1 ef3e f305 083e 5238 853e e03c 533e
00000090: 358c 343f 303c 353e d4f9 893d 3ae1 8a3e
000000a0: ebb2 64be 291b 4b3e 8773 683d b887 263f
000000b0: 0e5d d8bc 0f66 c7bd e214 8fbe 67e6 45bd
000000c0: b9a1 8ebd d538 953f fea0 d3bc 68dc b0bd
000000d0: ebf7 18be 0e19 543d 4a53 a1bd 3293 2b3d
000000e0: 9519 c1be 0887 03bf 8b04 413e 5835 933c
000000f0: 2aae e63d fa8d 21be cf5e 76bd 248b 83be
00000100: 70cc a2bd 8b0b e73e acd7 0dbf 60ed 8abe
00000110: f726 96bb 6a02 5a3e 316d 66be 4ced e03e
00000120: 3adb a2bd 6330 cbbe c35f 2cbf 9ee4 10bf
00000130: 9773 dbbd c9de a6be 8900 cfbd 401a d6be
00000140: 969a 96be e061 92be 9718 fa3e 6caf 9cbe
00000150: fa86 083e c8b8 543e 2d0c 07be f7d9 983d
00000160: 6643 053b e06d 38bf 0b96 a4be e56e ab3d
00000170: 025d 9bbe 63e0 9dbe 553f 593c a413 89be
00000180: 3982 b43e df41 9f3d 9ec8 1abe fc45 d4bc
00000190: 25a4 41bf d84e 5b3c 9583 b0bf 0dbf 613b
000001a0: b519 54bf 341e 04bf e12b d8be f14e 5dbe
000001b0: cc70 263f 3444 703c 3bda b8be 86eb 29bf
000001c0: c06d 02bd c0e7 ca3d b7b1 753e a428 173f
000001d0: 824e 83be 7856 02bf a893 8b3d 1d23 623e
000001e0: a0ec 54be a3c3 c93e 745e bf3e eabf 633d
000001f0: bd07 eb3e 2bbd d3be 8760 c53c 424b cebd
00000200: 1a4d 973d bb2b 0e3f 917b 273d 9625 80bd
00000210: b135 aa3e 2247 e83d 219a 14be 49f0 a93e
00000220: 1bf5 8c3e 0869 103f f84d fabd a600 333f
00000230: 25c9 dd3e 7125 a23e 8e25 d0bd f2f7 973e
00000240: f24e b6be 00bb ae3e edc0 463f 45fb bcbe
00000250: 5c5a b7be ef53 203f 7137 52be 4ae9 af3e
00000260: bc85 c63d a7f4 1ebf f29a 123e 24a8 11bf
00000270: 52e3 383f 3a02 8f3e abb1 cc3c 303d 57bf
00000280: 8a32 f83d 6465 943e 6ff9 78be d702 1fbf
00000290: 9046 a33d af1a d5bc ddb4 fc3e c8a5 6c3e
000002a0: 7095 fbbe 5a3f 6a3e 0d0c 56bd d93e 893d
000002b0: 6686 c8bc 135d a33e d0c9 b5be c380 cfbd
000002c0: d41a 07bd 7e06 d23e fa13 cd3d 39b8 27be
000002d0: 41d7 bf3e 194e 763d c243 743e a488 cd3e
000002e0: 0752 8a3f 8cb8 773e 9f98 91be 387b 173e
000002f0: c2a6 383e e760 07bf a0ed a13e c99f 2bbe
00000300: c0b2 b2bd 2ebd f53e 086f 99be a9d5 373d
00000310: aa23 a03d 3329 973d 30e6 de3e 89d4 8cbe
00000320: fcaa c13e 4a7d da3e ff22 5cbf 6516 e23e
00000330: 99d5 7b3c 7bcf c4be a402 74bd cebc ef3e
00000340: 3bac d7bd 695b e63e af37 12bf ca82 083d
00000350: 010c 4a3e 5866 4cbe b8f6 babd 1b02 9d3e
00000360: 56e1 843e 6358 dbbe 5757 dabe 01e2 9cbe
00000370: 6ad1 34be 7ca3 683e facf be3d 612b 96bd
00000380: 5f37 cf3e 6a6a 6c3e b33b debe ab91 11bf
00000390: a6b9 c23d 4b14 903d 2a35 533e 4b7b f43e
000003a0: f20f 80be d343 86bd e559 003e 0543 c03c
000003b0: ea47 5cbd 293c 1a3f 74bc 9cbe f418 8b3e
000003c0: 8a95 58bc 0e76 883e cbf9 aebe 6f1c d53d
000003d0: 10f9 e33e ff45 b93d 4daf 923e e24b fe3e
000003e0: cb71 da3e fb4a 243e a1f3 b23e 0c6b 65be
000003f0: 72f0 b23d c5df 57be 4b1f 523e 7744 18bf
0.057090573 -0.14791684 -0.05475902 -0.11877777 -0.2763391 -0.084296495 -0.39490366 0.2857255
-0.16291533 1.2205359 0.5817731 -0.39496526 -0.1644777 -0.5323775 0.016921679 0.25449428
0.27665588 -0.26325423 -0.31395146 0.26304793 -0.27172652 -0.105220295 0.22647175 -0.15834159
-0.32318875 -0.20138915 0.77576053 0.17839095 -0.083373465 -0.083936185 0.14440832 0.2392523
0.46839514 0.1328352 0.2601953 0.2062869 0.7052644 0.17698741 0.06737104 0.2712496
-0.22333877 0.1983458 0.0567508 0.6505084 -0.02641156 -0.09736263 -0.2794562 -0.048315432
-0.0696444 1.1657969 -0.025833603 -0.08635789 -0.14938323 0.051781707 -0.07877214 0.041888423
-0.3771483 -0.51377916 0.1884939 0.017969772 0.11263688 -0.15776816 -0.06014901 -0.25692093
-0.079491496 0.45125994 -0.55407214 -0.27134228 -0.0045822817 0.21289983 -0.2250259 0.43931043
-0.079519704 -0.39685354 -0.6733362 -0.5659884 -0.107154064 -0.32591847 -0.10107524 -0.41816902
-0.29414815 -0.28590298 0.48846886 -0.30602586 0.1333274 0.20773613 -0.13188238 0.074634485
0.0020334362 -0.72042656 -0.32145724 0.08370761 -0.30344397 -0.30835256 0.013259728 -0.26772797
0.35255602 0.07776236 -0.15115592 -0.025912277 -0.7564109 0.013385497 -1.3790156 0.003444615
-0.82851726 -0.51608586 -0.42220977 -0.21612145 0.65015864 0.014664698 -0.36103997 -0.66375005
-0.031842947 0.09907484 0.23993574 0.5904639 -0.25645834 -0.5091319 0.068152726 0.22083707
-0.2079339 0.3940707 0.3737675 0.055602945 0.4590434 -0.4135526 0.02409388 -0.10072948
0.07387753 0.5553548 0.040889326 -0.06257169 0.33244088 0.113416925 -0.1451192 0.33191136
0.2753075 0.56410265 -0.122219026 0.69922864 0.43317524 0.3166919 -0.10163413 0.29681355
-0.35607105 0.34127045 0.7763813 -0.36910453 -0.35811126 0.6262807 -0.20528962 0.34357673
0.096934766 -0.6209206 0.1431692 -0.5689719 0.72221863 0.27931386 0.024987062 -0.8407774
0.121190146 0.28983605 -0.24313901 -0.6211371 0.07972443 -0.0260137 0.49356738 0.23110116
-0.4913745 0.22875729 -0.052257586 0.0670144 -0.024478149 0.31906947 -0.35505533 -0.10131981
-0.03298457 0.41020578 0.10013576 -0.16378869 0.37468913 0.060133073 0.23853973 0.4014331
1.0806283 0.24191493 -0.28436753 0.14793098 0.18032363 -0.52882236 0.31626606 -0.16760172
-0.087255 0.47995895 -0.29967523 0.044881497 0.078193024 0.07380905 0.43534994 -0.275059
0.37825763 0.42673713 -0.859909 0.4415771 0.01537075 -0.38439545 -0.05957283 0.46823734
-0.10530897 0.44991615 -0.57116216 0.033327855 0.19731142 -0.19960916 -0.09129089 0.3066567
0.25953168 -0.4284087 -0.4264476 -0.30641177 -0.1765801 0.22718614 0.09317012 -0.073324926
0.40471932 0.23087469 -0.43404922 -0.56862897 0.09508066 0.070351206 0.20625749 0.47750315
-0.25012165 -0.06555905 0.12534292 0.023469457 -0.05377952 0.6024805 -0.30612528 0.27167475
-0.013219247 0.2665257 -0.34174952 0.10405814 0.44525957 0.09046554 0.2864937 0.4966727
0.42664942 0.16044228 0.349515 -0.22404116 0.087372676 -0.21081455 0.2051975 -0.5947947

_CNNDQN__fc1.bias f4 [128]
00000000: a77e 3f3e d9e6 113e ef3d 6fbe 0860 c6be
00000010: b574 5dbe 22ef 4bbf d105 67bf 06b2 453e
00000020: f307 b53e 2030 423e 526a cd3f 4099 a2bd
00000030: bf13 06be a953 64bf 0249 6fbd 6eb8 1dbe
00000040: a28b f43d bf3b cfbe 46eb 3a3c e2f8 6ebe
00000050: 4945 84be af0c acbd 4586 51be 4680 b23c
00000060: c764 b8be d2b0 be3d 129b 1ebf 87a4 5f3e
00000070: e1f8 d8be fd56 ac3d 1ad8 4d3e 74fd 50bf
00000080: 84fc 2fbf 300b 453e 5d09 193e 6ea3 233d
00000090: 234a bb3e 9f52 d33e 501f b23c 47a4 bdbe
000000a0: 593f 053e e3c8 b7be bd2e ce3e 5b2c dcbe
000000b0: 093d aabe 009e 17be a5a9 dabe e130 4d3e
000000c0: 9eb0 5a3e 938e 493e f6f3 29bf e65b f83c
000000d0: 6b2d 6bbe 90ea 99be 745f 03bf dafb 29bf
000000e0: d05a b03e d126 21be b692 8abe 0e20 083f
000000f0: e5b7 94be 3122 9abe 5867 bcbe dfd5 2cbe
00000100: 9f4f fd3a 7dcf 853e 0460 123e 4fff ecbd
00000110: 0a35 913d a63d dabd 4a98 62be a6f6 75be
00000120: bfb0 c53e d340 90bd 0b30 0fbf b06c 13bf
00000130: 183b 7abf afdd d93e 49b5 16be 654a d5be
00000140: 0611 8abd 826b c83d 9fa6 453e 4e70 66be
00000150: e638 51bf abe6 633e be21 93be 45bf 02be
00000160: 82cb e53e 1da0 dc3c bef0 cd3c 1471 89bd
00000170: d4d9 00bf 506b ce3c 6037 c53e 6b4d 22bd
00000180: 7bad 13bf 8a6c 04be d001 b5bd d991 99be
00000190: 5d51 5cbe aa47 1bbd bb07 e0bc 72f6 62be
000001a0: 0abf 863d db4a 33bf abda b7bb 6912 76bc
000001b0: 4e12 8a3d 9cea 41bf cd6c b4be 8c5f 30be
000001c0: ba07 9f3d 5b5d d8be f3eb 92be 70de 7d3e
000001d0: 5feb 073f 17d7 b4be 2821 dbb8 2df6 75be
000001e0: 5990 1fbf a93e 4bbd 46a7 29bf 1939 0abe
000001f0: 053a 42bf 1ce9 dbbd 16e2 70bd be9b 5cbe
0.18700658 0.14248218 -0.2336347 -0.3874514 -0.21626551 -0.7966176 -0.9024325 0.19306192
0.35357627 0.1896367 1.6048071 -0.07939386 -0.1309347 -0.89190155 -0.058419235 -0.15402386
0.11940695 -0.4047527 0.011408633 -0.23337129 -0.2583411 -0.08400857 -0.20461376 0.021789681
-0.36014387 0.093110695 -0.6195537 0.21840106 -0.4237738 0.08415029 0.20101967 -0.8163674
-0.68744683 0.19242549 0.14944978 0.03995078 0.3658 0.41273972 0.021743447 -0.37039396
0.13012446 -0.35895452 0.40270033 -0.4300259 -0.3324969 -0.14806366 -0.42707554 0.20038177
0.21356437 0.19683294 -0.6638788 0.030317258 -0.22966544 -0.3006177 -0.51317525 -0.6639992
0.34444284 -0.15737464 -0.27065057 0.5317391 -0.2904655 -0.3010421 -0.36797595 -0.1687846
0.0019326097 0.26134863 0.1429444 -0.11572134 0.070901945 -0.1065629 -0.22128406 -0.2401987
0.3861141 -0.07043614 -0.5593268 -0.5758772 -0.9774642 0.42551944 -0.14717592 -0.4165832
-0.06741528 0.097861305 0.19301842 -0.22503778 -0.81727445 0.22255962 -0.2873668 -0.12768276
0.44881827 0.026931817 0.025139209 -0.06711021 -0.5033238 0.025197655 0.3851881 -0.039624613
-0.57686585 -0.1293203 -0.08838236 -0.29994085 -0.21515413 -0.03791014 -0.027347436 -0.22164324
0.065794066 -0.70036095 -0.005610784 -0.015019038 0.067417726 -0.7574861 -0.35239258 -0.17223948
0.077651456 -0.42258725 -0.2869564 0.24791884 0.5309352 -0.3532035 -0.000104489096 -0.2401969
-0.6232963 -0.049620304 -0.66270864 -0.13498344 -0.7586978 -0.107378215 -0.058809362 -0.21543786

_CNNDQN__fc2.weight f4 [128, 128]
00000000: 7361 3f3f c127 773f 008b cbbe 1367 80bd
00000010: 13ce 893f 0324 523e a718 0cbf 4b39 d03e
00000020: 9efe af3e 5591 8e3f 59f4 57be 8d3c 94be
00000030: ef42 f13e ea4d 603e e5b4 c43c 1e5d 3a3e
00000040: a156 f53e 1259 05be ca76 a3bd 33a9 d13f
00000050: 510b 7a3e a2ce cc3f ff81 233f 380d f03e
00000060: be10 563f d56b 2e3e 02a3 373e 06dd 77be
00000070: a847 213d fc96 e83e 89f7 2abf 8af2 e3be
00000080: 278f 0fbf 87af 8d3f 6924 313f 76a5 2dbf
00000090: 21eb dcbe ea40 703e 19b2 9b3e f0e0 083f
000000a0: 3391 fabd ab8a 1bbf 6e18 a03f 81c5 17bf
000000b0: 4ca5 9e3f 675a 363e 896f b63d e915 5d3f
000000c0: 9de6 3fbc 2bfd ed3e 5d5d 133f 6283 6a3f
000000d0: 9e98 0ebf dd67 a2be 2ec3 183d a7fe b33e
000000e0: 3221 f43e b4fe a0bf 6190 6b3d 7bde 8c3b
000000f0: d233 84be 34b7 e93d fab4 ff3e 7f2d 913f
00000100: 5442 ba3d 6855 693f 3fee e73f b65a 743e
00000110: 2d41 693f c7cd 63bf 7b55 e4be 4b29 1fbe
00000120: 79a1 473e 85e8 813e 8bc4 9c3d 33f5 ce3d
00000130: e410 f03d b7e0 823e 1ebf a03e f397 eebb
00000140: 8b10 1a3f e625 1b3f 9a95 173f 7895 273f
00000150: 0978 503e d6ec 613f 9bd5 f3be 99c3 a2be
00000160: 9bde d4bf 8bfe 5d3f 367d 1bbe 61d6 92bd
00000170: 9d73 083c a087 403f cf14 2d3f 850e b03f
00000180: e6ce 423e da9a 0a3f 1070 f6bb 73d4 aebe
00000190: fa0d 193f 3ed2 4c3f f390 c23e 768e c23f
000001a0: 6a8c 03bf 9f0f 90be fc48 b03f cf3d 083d
000001b0: bc01 6fbf 3eb9 b53e 6f21 41be 1c5e 543d
000001c0: 664c 283f 8a78 003e 583f 17be d98d 363d
000001d0: e9d2 c3bc 6dbb be3e 4e9d 0f3f ba34 b4be
000001e0: bc10 823f f0eb 01bf 5a91 75bc 2d5d 093d
000001f0: cd8a 273f 7a8f c33c 5967 bf3e bfdd d2bc
00000200: aec4 553e 8f97 d63e dd28 183f 3df4 293f
00000210: 7c11 2fbe 1b65 6e3f 89d9 f13e be4b bbbe
00000220: 7387 6a3d e23b 3e3e fb5c 46bd 8716 213e
00000230: 0c2e 533f 16a1 153f 68ff 7bbc 4c64 46bd
00000240: 23ba 013f 4185 893e 0fc2 723d b2a8 053f
00000250: 5e9d 313f 287a 273f 10b2 cc3d e7f1 21bf
00000260: 3055 183d f20c 32be c5ae 3ebe cf3d f7bc
00000270: 0200 9b3e d573 253f 83a9 ccbd c7ef 903e
00000280: b4a1 be3e 0614 30be 90d2 1abf 5a4d 4b3e
00000290: ab20 0a3f 27b3 81be 67a5 a13d 5303 3dbe
000002a0: 517d 14bf 3fb1 183f 7ce5 83be 5140 7e3d
000002b0: ae1f 33be 1ab5 793e 4fb4 d13e 8bef 14bf
000002c0: 64a8 fabe fa70 063e 4c98 703f e9f8 f63e
000002d0: 138d 143f 411d 143e aaf2 adbd e157 da3d
000002e0: b681 973d 2d50 3c3f 8a46 443e 5ca8 193f
000002f0: e8ae 083e 9337 a0be ae54 51be 483b 023f
00000300: ca25 203f dc2b 0a3f 7c10 ffbb 7e3f e43e
00000310: 5937 dc3e f1fc 173c 89ea e23e 360b 8d3f
00000320: f972 a9be bdc0 f5be a6b4 dfbd f1fd 953e
00000330: e9f1 ac3d e94b 283e e021 9c3d e871 92be
00000340: d1d5 763f 8478 e1be 476f 923e 2967 893e
00000350: dd76 b33d 6785 123e c303 fe3e a609 1a3e
00000360: 4739 fabd 6ce8 8b3e ba44 b63d 6368 23bd
00000370: 11ba e73e 6cbf ad3e 4234 18bf b433 183f
00000380: 61f6 153e 31de 86bd f694 203f 3823 2cbe
00000390: f604 bd3e bc92 9b3e bc55 8d3f d530 ba3e
000003a0: f231 4d3f 80a7 8fbe 91ca e43c 3d1f 963f
000003b0: caba 3b3e f1c3 bd3d ecb5 d43e 069c 463e
000003c0: 8e79 4a3c b5e6 f2bc 09a3 823e 8826 e6bd
000003d0: 2ba4 febd 2f17 fa3e f279 0cbe b411 503f
000003e0: eb26 bf3d b18a 253f fd52 00bf 4dab 4f3d
000003f0: 89dd bb3e 45ae 973a b089 fa3e 84cc 493f
0.7475807 0.96545035 -0.39754486 -0.0626966 1.0766014 0.2052155 -0.54725116 0.4066871
0.34373945 1.1138102 -0.21089305 -0.28952447 0.4712138 0.21904722 0.024012038 0.18199584
0.47917655 -0.13022259 -0.079816416 1.637976 0.2441838 1.6000559 0.63870233 0.46885085
0.83619297 0.17033322 0.17933276 -0.24205408 0.039374977 0.45427692 -0.6678396 -0.4452098
-0.5607781 1.1069192 0.6919618 -0.678306 -0.4314814 0.23462263 0.30409315 0.5346823
-0.12234726 -0.60758466 1.2507455 -0.5928574 1.2394195 0.17807923 0.089079924 0.8636156
-0.011712697 0.46482214 0.57564336 0.91606724 -0.55701625 -0.31719866 0.037295513 0.35155222
0.47681576 -1.2577729 0.057510737 0.0042989827 -0.25820786 0.11411896 0.49942762 1.1342009
0.09094682 0.91145945 1.8119582 0.23862728 0.91115075 -0.88985866 -0.44596466 -0.15543096
0.1949519 0.2537271 0.07654675 0.10105362 0.11721972 0.2556207 0.3139581 -0.0072812974
0.6018149 0.60604703 0.5921265 0.65462446 0.2035829 0.8825201 -0.47623906 -0.31789854
-1.6630434 0.86716527 -0.15184483 -0.07169796 0.008328346 0.7520695 0.67609876 1.3754431
0.19024238 0.54142535 -0.007520683 -0.3414646 0.5978695 0.80008304 0.38001212 1.5199726
-0.5138613 -0.28136918 1.3772273 0.03326207 -0.9336202 0.3549289 -0.1886041 0.051847562
0.65741575 0.12545982 -0.14770257 0.04456887 -0.02390428 0.3725237 0.560994 -0.35196477
1.0161357 -0.5075064 -0.014988268 0.033536125 0.6544617 0.023872126 0.37383536 -0.025740502
0.20875809 0.41912505 0.5943735 0.66388303 -0.17096514 0.93123025 0.4723628 -0.36581224
0.05725808 0.18577531 -0.048428517 0.1573125 0.82492137 0.5844892 -0.015380718 -0.048435494
0.5067465 0.26859477 0.0592671 0.52210534 0.6938075 0.6542077 0.099949 -0.6325974
0.037190616 -0.1738775 -0.18621357 -0.03018084 0.30273443 0.6462987 -0.09993269 0.28307936
0.37232745 -0.17195138 -0.6047754 0.19853726 0.539561 -0.25331995 0.07892876 -0.184583
-0.5800372 0.59645456 -0.2576102 0.062073056 -0.17492554 0.24385491 0.40957877 -0.58178014
-0.48956597 0.13129035 0.93982387 0.48236778 0.5802776 0.14464284 -0.0849355 0.10661293
0.07397787 0.7355984 0.19167534 0.6002252 0.13347971 -0.312924 -0.20442459 0.50871706
0.6255766 0.53973174 -0.0077839475 0.4457969 0.43010977 0.0092766145 0.4431956 1.1019046
-0.3309553 -0.4799861 -0.10923128 0.29295304 0.08444578 0.16435207 0.07623649 -0.2860253
0.9642001 -0.4403726 0.28600523 0.26836517 0.08762906 0.14308701 0.49612245 0.15042743
-0.12217956 0.2732576 0.08899827 -0.039894473 0.45259145 0.33935106 -0.5945474 0.5945389
0.14644767 -0.065853484 0.62727296 -0.1681031 0.36917847 0.30385387 1.1041789 0.3636538
0.80154335 -0.2805748 0.027928622 1.1728283 0.18332973 0.092658885 0.41545045 0.19395456
0.012358082 -0.029651025 0.2551501 -0.11237818 -0.12433656 0.48845813 -0.13718393 0.8127701
0.09333595 0.6466475 -0.5012663 0.050700475 0.36692455 0.0011572322 0.48933172 0.7882769

_CNNDQN__fc2.bias f4 [128]
00000000: 6c63 633e 44eb ec3d 37a8 ec3d 5d2b 4d3e
00000010: f7a8 8c3f 4938 c73e 8a30 0e3f 4a46 37bd
00000020: 2b32 dc3e 6b90 bd3d 68a1 933b 271a 183e
00000030: 5ba4 c7be bca1 adbe de69 bb3e 5ed7 c13d
00000040: ee94 e13b 3556 30be 1112 ab3d 9e71 5a3e
00000050: 96c3 96be ba82 90be ef19 d83e 7938 163e
00000060: 2457 c83e ee6a 0c3f bc35 f0bd 86f7 5ebf
00000070: 1be2 0c3e fef1 8e3e 9f44 8f3e dabd 323e
00000080: c486 3cbe dad4 ddbe c091 803d c8b1 9bbc
00000090: 7e28 80be 51c6 6f3e 42a7 8a3d c47d 903e
000000a0: 83ec 663e e375 9abe 8d50 3ebf 90de 3f3e
000000b0: 2903 a4be 30dc f9be 7b2b 583e d801 debe
000000c0: f9f2 f13e cb65 1d3e 620b 3e3e 21a1 1e3e
000000d0: b1a0 23be f9a2 35be 475b bdbe 64ea 10be
000000e0: 690e 50bd 59dd 453e 9f5e 92be a0f5 dfbd
000000f0: 0ef3 183f aeb3 87bc 5f73 793d 2d4b 0bbe
00000100: 7d34 29be 1f6d a83d 7273 c13e 0b59 adbe
00000110: f4b8 b53e 17bc 893d 6b3c 523e 6959 b53d
00000120: 9b19 3cbe 426a 133d ee0e 8e3d c120 51be
00000130: 34c1 57bf 7512 da3c f935 cc3e 25c0 b7bc
00000140: 57fe 62be 194b 36bc 93a0 453e 51ba c43e
00000150: 8775 c53d ca0c b4bc 213d 493f 6183 963d
00000160: d3f4 063e b192 acbd 6c63 8fbf 452e a13f
00000170: d578 753e d2e2 9c3e 184a 79be f7b4 903c
00000180: e79f 123c b037 53bd 0dee 2bbe 0c3e 76be
00000190: a930 05bf 740c 9b3f fb15 a9be 1adb 59be
000001a0: 9e2e 21bf a8fa 5c3e 7aea a63e 1823 103f
000001b0: 23d8 fa3d ae18 b6be ae03 d73c 332f 9f3d
000001c0: b445 d73d 35ca 253d 132c 2d3f 1677 243e
000001d0: d4d7 a0bd 9fe0 9c3d f605 833f 0c48 3fbf
000001e0: d36f ca3e 98b4 13bf 53ce 263e 9b72 c33e
000001f0: da0c fcbe e7d5 203e 4d83 9f3b fb36 e2be
0.22205895 0.11568311 0.11555522 0.20036073 1.0989064 0.3891013 0.55542815 -0.044744767
0.43007025 0.09256061 0.004505325 0.14853726 -0.3899258 -0.33912456 0.36604208 0.09464906
0.006884209 -0.17220385 0.08353055 0.21332404 -0.29446095 -0.28224736 0.42207286 0.1466998
0.39128983 0.5485066 -0.11728999 -0.8709644 0.13758127 0.27919 0.2798204 0.17455235
-0.18410784 -0.43326455 0.062777996 -0.019005671 -0.25030893 0.23415495 0.06770183 0.28220952
0.2255116 -0.30168065 -0.7434166 0.18737245 -0.3203366 -0.48800802 0.21110336 -0.43360782
0.47255686 0.15370862 0.1855903 0.15491153 -0.15979268 -0.1773795 -0.36983702 -0.14151913
-0.050794993 0.19322719 -0.28587815 -0.10935521 0.5974587 -0.01656517 0.060901042 -0.13602896
-0.16523929 0.08223938 0.3778339 -0.33856997 0.3549267 0.067253284 0.2053086 0.08854944
-0.18369143 0.035990007 0.06936441 -0.20422651 -0.8427918 0.02662013 0.39884928 -0.022430489
-0.22167335 -0.011126303 0.19299535 0.38423398 0.09641557 -0.021978755 0.786089 0.07349277
0.1317933 -0.08426417 -1.1202216 1.2592245 0.23971875 0.306418 -0.24344671 0.017664416
0.0089492565 -0.05156678 -0.16790028 -0.24047107 -0.52027375 1.2113175 -0.33024582 -0.21274987
-0.6296176 0.21579993 0.32600766 0.5630355 0.12248256 -0.35565704 0.026246872 0.077726744
0.10511342 0.040476043 0.67645377 0.16061053 -0.07853666 0.076600306 1.0236194 -0.7471931
0.3953844 -0.5769744 0.16289644 0.38173375 -0.49228555 0.15706597 0.004867947 -0.44182572

_CNNDQN__fc3.weight f4 [128, 128]
00000000: 536e b2bd 2a08 81bd 2615 a9be 4dc2 d9bc
00000010: 0baf 203e 1904 883e 8e93 283e 718c 66bf
00000020: cf51 8a3e f47f bcbd 001c 253f 9f9e 86be
00000030: bd85 643e c066 a73e 18b6 643e f230 903e
00000040: f8a9 81bd f43f ae3d 251a f73e 58a0 11be
00000050: b07e 213f 7846 d13e 21eb 4cbc 4500 0f3e
00000060: 7b44 36be 1574 2ebd 1f51 973e fd36 34be
00000070: 81eb b63e bc27 c6be e719 0f3e 4457 ac3d
00000080: 6ff9 cc3e 1781 2fbe bb1b 9a3e d67b 19be
00000090: 6c5b 92bd 2be3 45be 2bbe 373e 5c62 423d
000000a0: e055 543e 8c85 debd a0ec 5d3e dda9 e23d
000000b0: 47b3 db3e 1cef d83e 32f6 06be 88ce 2dbe
000000c0: ac46 dc3e 28cf 0dbd d7bb 20bf 1cb4 a03d
000000d0: 38e0 b73d 1d8a eb3e 4f8d cfbc 14bc 43be
000000e0: 3e1e 17bc 2afb 51be 516e 7c3e 2af3 a4be
000000f0: c5e2 8e3d 4a38 44be bca7 b9bc bf6f febe
00000100: 3af9 35be 4220 273e f00a d4bd 6990 8bbf
00000110: 7898 60be f595 753e 2ddf 8cbe 3e2d 36be
00000120: 7f89 8ebe 100a 2abe 1874 543d 3b30 7a3e
00000130: b7f8 933d a2d1 f43d bf1e 873e a0d7 a3bd
00000140: d210 d43e 062d 58bf d880 033e dbe8 643e
00000150: 54cf e6be e254 03be 6355 e8be 92fb 293e
00000160: 42f3 f6bd 4197 ddbe 6c98 a03d 77a5 a1bc
00000170: 409f 20be 4a38 6fbf f33e 6cbe 9733 c53e
00000180: 8bc8 7dbf 5494 26be af01 923d 621e 163f
00000190: b696 54bd 580b b53a f22b ccbe 6749 983e
000001a0: 95e9 41be 72c9 bb3e e5af 53be 4f4c 38bf
000001b0: 7425 a93d c106 1bbf 1163 2bbe b97e d4be
000001c0: 4c04 973d 299d f2be ae47 6fbc 09b6 09bf
000001d0: 5dac 8abd 00bb fabd d7d6 473e d299 05bd
000001e0: a11b ed3d a642 86bc f5d3 76bb a98a fabc
000001f0: bf21 93be 0a5b ccbe ad79 19bf 3d6b babe
00000200: a3e1 023e abc7 9ebe 4528 3fbf 9a88 80be
00000210: 4acb 92be d7e9 cf3e 29ad ae3e 7b7d 97be
00000220: 3e9c 62bf a027 8d3c 08f3 12bf aeca 063d
00000230: bdc6 32be 6787 eebe 5bde 73bf 9007 70be
00000240: 7c7b e0be 455d 2abb dd9d 6dbe e80c 0a3c
00000250: 7f12 6dbf b3a7 5a3d d419 853f f6c5 ebbe
00000260: a8bc cebd dbb2 b4bd 36cd b8be 2b92 82be
00000270: 0a3c 2cbe 02cd 4ebf bda6 c4bf 05cf edbd
00000280: 28c6 3ebe e5b4 cdbd d6bd 263e b4c1 0bbc
00000290: 5283 70be 79c3 c33d d411 c1bf ab2b 36bf
000002a0: 95b5 dcbe e0dc 35be b940 b6be 227f 2e3f
000002b0: f591 00bf e2e7 93bf 7005 cb3d bd8e 883d
000002c0: 7728 ec3a 2997 46bf 7c48 1d3e 42c8 1abe
000002d0: 7d9e bfbf c426 adbe 164f 3fbf 411d b3bd
000002e0: 03ec 383d 6195 3b3e fa8b 2c3f 5aab e3be
000002f0: 0914 cebd 2ba2 f73c 9e6a 0f3f 1b4a 68bf
00000300: adec d5be 9939 acbd 61ef 31bf 3b45 eabe
00000310: 8b16 613e bfc7 f93e a7bb a53e 5c69 aebf
00000320: d0cc 90bf 93a6 d43b c04b 33bf 14e6 a93c
00000330: 78be 08bf b0ca ddbe 37c2 54be bc3a a83e
00000340: a2d6 91be bc2b 19c0 acd7 1bbe d747 c73e
00000350: c678 02bf 9228 583d a973 7abe 7bdf 5ebd
00000360: 1906 883e 5360 963d 0eb0 f0bc bb4d 003e
00000370: 5f49 c93e d242 93bf eb80 46bf 5935 05bf
00000380: ea6c 1ac0 c90d e03e 56da fa3d 701b a53d
00000390: d2a8 18bf 77fd b0be b1a5 53bf e5d1 98bf
000003a0: 9129 d8be ec3c 353e 63cf 523f 6077 cfbe
000003b0: 664b 38bf f5eb 9dbf 017a e8bd 995b c83d
000003c0: 6f15 20bf 7e65 61bf e70d 2bbd 9fb8 1cbf
000003d0: 24af b7be 08da a6bc 64ce b9bd c83f abbe
000003e0: 599c de3e ac59 afbe 8c60 6fbe 7878 7cbe
000003f0: 0ff5 8abf 769f d0be bb35 e0be 19d1 ad3d
-0.08712449 -0.06300385 -0.33023947 -0.026581908 0.15691774 0.26565626 0.16462538 -0.90058047
0.2701554 -0.092040926 0.6449585 -0.26292893 0.22316642 0.3269558 0.22335088 0.28162342
-0.06331247 0.08508292 0.48262134 -0.14221323 0.63083935 0.40874076 -0.012507231 0.13964947
-0.1779956 -0.042591173 0.29554078 -0.17599101 0.3572655 -0.3870219 0.13974725 0.08415082
0.40034053 -0.17139088 0.30099282 -0.14988646 -0.071463436 -0.19324939 0.17943637 0.047457084
0.20735884 -0.10865316 0.21672297 0.11067555 0.42910215 0.42369926 -0.13179854 -0.16973317
0.43022668 -0.034621388 -0.6278662 0.07846853 0.08978313 0.4600381 -0.025335936 -0.19114715
-0.009223519 -0.20505968 0.24651457 -0.3221677 0.069768466 -0.19162098 -0.02266299 -0.4969463
-0.17770854 0.16320899 -0.10353649 -1.0903445 -0.21933162 0.23982985 -0.2751402 -0.17790696
-0.27839276 -0.16605401 0.051868528 0.24432461 0.07225173 0.11954047 0.26390645 -0.080001116
0.41419083 -0.844437 0.12842119 0.22354452 -0.45080054 -0.12825349 -0.45377645 0.16599873
-0.120581165 -0.4327946 0.07841572 -0.01973222 -0.15685749 -0.93445265 -0.23070888 0.38515922
-0.9913413 -0.1626752 0.07129227 0.5864011 -0.05190154 0.0013812585 -0.39877278 0.29743502
-0.1893676 0.36677128 -0.20672567 -0.7199144 0.08259097 -0.6055718 -0.1673701 -0.41502932
0.073738664 -0.4738553 -0.014604492 -0.5379339 -0.06771157 -0.12242699 0.19515549 -0.032617398
0.115775354 -0.016389202 -0.0037662957 -0.030583696 -0.28736684 -0.39913207 -0.5995129 -0.3640994
0.12781386 -0.3101171 -0.7467082 -0.2510422 -0.28670722 0.40608093 0.34116486 -0.29587922
-0.88519657 0.017230809 -0.57402086 0.032908134 -0.17458625 -0.4658768 -0.9526116 -0.23440385
-0.4384421 -0.0025995534 -0.23204751 0.008425929 -0.9260635 0.053382587 1.0398507 -0.4604947
-0.10094577 -0.088231765 -0.36094064 -0.25502142 -0.16819778 -0.8078157 -1.5363384 -0.116117515
-0.18630278 -0.100442685 0.16283354 -0.008530069 -0.23487595 0.09558768 -1.5083566 -0.7116038
-0.43107286 -0.17760038 -0.35596254 0.6816274 -0.5022271 -1.155514 0.099131465 0.0666785
0.001801743 -0.775744 0.15359682 -0.15115455 -1.4970242 -0.33818638 -0.7473005 -0.08745814
0.045146953 0.18318702 0.6740109 -0.44466668 -0.10062415 0.030228695 0.5602206 -0.90738076
-0.41782132 -0.084094234 -0.6950589 -0.45755944 0.21981256 0.48785207 0.3236973 -1.3625903
-1.1312504 0.0064895838 -0.7003746 0.020739593 -0.5341563 -0.433187 -0.20777212 0.3285731
-0.28484064 -2.3932943 -0.15218991 0.38921997 -0.50965536 0.052773066 -0.24458183 -0.054412346
0.26567152 0.07342591 -0.029380824 0.12529652 0.3931379 -1.1504767 -0.77540463 -0.5203453
-2.4128976 0.43760517 0.122486755 0.08061874 -0.596326 -0.34568378 -0.826747 -1.1939055
-0.42219213 0.17699021 0.82347697 -0.40520763 -0.7199005 -1.2337633 -0.113513954 0.09783096
-0.62532705 -0.8804549 -0.041761305 -0.6121921 -0.3587581 -0.020367637 -0.09072569 -0.334471
0.4347866 -0.34248102 -0.23376673 -0.2465533 -1.0856036 -0.4074666 -0.43790993 0.08487148

_CNNDQN__fc3.bias f4 [128]
00000000: 807b 37bd 77ad 543e 20e6 9ebd 4301 a1be
00000010: dded 863e f1cf d13d 417f ee3e dc1b 5b3d
00000020: ce8a b5bd fd2c fdbe 06eb 593e f402 a03b
00000030: 9596 683d fdf4 29be 361a e5bc c2a9 babd
00000040: 2d1d fe3f b443 abbf f9c2 de3e 5d1b 443e
00000050: 78d3 ac3e dd5a 1f3e 7105 293e a931 e23e
00000060: 9f7a 5b3e 82db c83e 5d86 0d3e 8140 32bf
00000070: e978 083e 7757 3dbd 1120 c8be 92b7 64bf
00000080: d1e8 e43e d93a 273f faac bc3d 1bc0 85bd
00000090: a147 083e 7f5c ce3f 99e4 333e 1fb2 83bf
000000a0: 841f 3f3e 4e9e f8be b2be 123f 2562 f23e
000000b0: 00a1 31bd 7933 dc3e a1fe 60be c85b 123f
000000c0: e91d 08be 6d03 3fbe cf04 6fbe b155 9bbd
000000d0: 7be6 153f cf5c 9cbd fefb 463f 24cf bf3f
000000e0: 8ae6 22be 11dc 3a3d e9c4 8d3e b51a 973e
000000f0: bf57 423d cba0 013f 6ed0 023e 1d95 1040
00000100: 78eb 133e 03a3 26be 4ab1 7a3e 519f c93e
00000110: 8667 55be c930 a43f 3d7b 153f c5cc 8f3d
00000120: a3bd 19be 84b6 aa3f e03d 71bd fe5b 2bbf
00000130: 47ab 213f 50f2 b1bd 19e0 dbbe a857 41be
00000140: 098e 3a3f 0056 333e 7099 a03e fdfb 37be
00000150: e763 fb3d cedd 29be 961c 51bd 584f 3fbe
00000160: 621f 573d 1a6d 9abe 18d5 313f 14f2 0bbd
00000170: 2765 f63b 9fef fc3f 12c7 8bbd f70b f5bf
00000180: c66c b03c 89af cbbe f231 7dbe 6c54 043f
00000190: ddb5 1d3f 5bba 023f 26c2 393e 5dcd 1b40
000001a0: 780b 0e3f 730f 193e 948c 2fbf 89e3 cc3e
000001b0: 1f36 5bbb f837 4ebe 6784 9f3e cc75 78be
000001c0: 6d0e 363e 5472 f6bd da31 d63e e1dd 52bd
000001d0: d906 c1bb 3591 5dbe 83a1 a43f 5225 cd3d
000001e0: 8a41 b1be f7e6 c23e 559d a43f 0807 113e
000001f0: ab51 14be f583 0cbe b2a8 3bbf 30e0 833f
-0.044795513 0.20769297 -0.077587366 -0.31446275 0.2635335 0.1024474 0.46581462 0.053493366
-0.088643655 -0.49448386 0.2128106 0.0048831645 0.05678423 -0.16597362 -0.0279666 -0.0911441
1.9852654 -1.3380036 0.43508127 0.19151063 0.33755088 0.15562005 0.16505982 0.44178513
0.21433495 0.3922997 0.13820787 -0.69629675 0.13327374 -0.04622599 -0.39086965 -0.89342606
0.44708875 0.6532417 0.0921268 -0.06530782 0.13308574 1.6121978 0.17567672 -1.0288733
0.18664366 -0.48558277 0.5732223 0.47340503 -0.043366432 0.4300802 -0.21972133 0.571713
-0.1329266 -0.1865365 -0.23341678 -0.07584704 0.5855481 -0.07634889 0.7772826 1.4985089
-0.15908256 0.045620028 0.27689293 0.29512563 0.047446962 0.50635976 0.12774822 2.2591012
0.14445293 -0.16273122 0.24481693 0.3937936 -0.20840272 1.2827388 0.5839117 0.070214786
-0.15013747 1.3336949 -0.0588969 -0.66937244 0.63151973 -0.086887956 -0.4294441 -0.18881094
0.7287298 0.17513275 0.31367064 -0.1796722 0.12274914 -0.16588518 -0.051052652 -0.18682611
0.052520163 -0.30161363 0.6946578 -0.03416641 0.0075193825 1.9760627 -0.06825079 -1.9144276
0.021536242 -0.3978236 -0.24726084 0.5169132 0.61605626 0.51065606 0.18140468 2.4344094
0.5548625 0.149473 -0.6857388 0.40017346 -0.0033449007 -0.20138538 0.31155702 -0.24263686
0.1777894 -0.12033525 0.4183491 -0.05148113 -0.005890709 -0.21637423 1.286179 0.10016884
-0.34620315 0.38066837 1.2860514 0.14162838 -0.14484279 -0.13722213 -0.73304284 1.0302792
