code/models/DQN/model180.pth (torch, 266187 bytes, 14 tensors)

_CNNDQN__conv1.weight f4 [16, 1, 5, 5]
0	0xbb6f47d4	-0.0036511319
1	0xbaabc716	-0.0013105597
2	0x3ceac386	0.028657686
3	0x3d8d2a26	0.06892805
4	0x3f307346	0.68925893
5	0x3c188307	0.009308583
6	0xbb5eb88d	-0.0033984513
7	0x3ce3ccc9	0.02780761
8	0xbc26c2c1	-0.010178269
9	0x3cb2633b	0.021775832
10	0xbc3f7808	-0.0116863325
11	0xbbfae171	-0.0076562692
12	0xbb9ae629	-0.0047271443
13	0x3ce07d9d	0.027403647
14	0x3b4f5184	0.003163428
15	0xbc5c8793	-0.013460058
16	0x3bac1781	0.0052518253
17	0xbc1195e8	-0.008885838
18	0xbb0f95b7	-0.0021909305
19	0x3b47c1ae	0.0030480432
20	0x3bda2962	0.0066577652
21	0x3bf63fb9	0.0075149206
22	0x3c6cfd48	0.014464684
23	0xbb043d0b	-0.0020177986
24	0xbce33f6c	-0.027740203
25	0xbddd5e37	-0.10808986
26	0x3e8afdac	0.2714666
27	0xbd97a167	-0.07403832
28	0x3b15dd3a	0.0022867457
29	0x3bf8fed8	0.007598739
30	0xbb4078c0	-0.0029368848
31	0xbc53fc5a	-0.012938583
32	0xbc40d1b9	-0.011768752
33	0x3bb32e4b	0.005468165
34	0xba580a9e	-0.0008241328
35	0x3bae40a8	0.005317766
36	0xbc238b74	-0.009981979
37	0xbb81c33e	-0.0039600423
38	0xbbc6ba3c	-0.0060646813
39	0x3ba9adaf	0.0051781754
40	0xbb13e67b	-0.0022567797
41	0x3c4a8b3a	0.012362296
42	0xbbd325c0	-0.006443709
43	0xbb9a4f6d	-0.0047091753
44	0xbb45c505	-0.0030177247
45	0xbb55a92a	-0.003260205
46	0x3b9a252c	0.0047041383
47	0x3c997210	0.018731147
48	0x3bd1e2f4	0.0064052287
49	0x3a6406bc	0.0008698513
50	0x3b99fc18	0.0046992414
51	0x3cc31b4c	0.023816727
52	0x3c565e68	0.013084032
53	0x3c9cc3fe	0.019136425
54	0x3d98f1c7	0.0746799
55	0x3ca0a453	0.019609606
56	0x3c77a28d	0.015114439
57	0x3c0e7361	0.008694501
58	0x3ca50607	0.020144476
59	0x3becc860	0.007226035
60	0x3aacd8c9	0.0013187166
61	0x3cb6a82b	0.022296986
62	0x3d069798	0.032859415
63	0x3d063f57	0.03277525
64	0x3b33a577	0.0027411857
65	0x3c8e07f2	0.017337773
66	0x3cf27413	0.029596364
67	0x3ca0911b	0.019600442
68	0x3bddc2e7	0.006767619
69	0x3a89f71c	0.0010525915
70	0x3cdb630a	0.026780624
71	0x3cb0571d	0.021525914
72	0x3d1493bb	0.0362737
73	0xbc843a6c	-0.016141139
74	0x3eab6b5c	0.33480346
75	0x3f115342	0.56767666
76	0x3db95c5f	0.090508215
77	0x3cbf3527	0.023340775
78	0xbb8c40f6	-0.004280205
79	0xbc3b1f3b	-0.01142102
80	0x3d51c54b	0.051213544
81	0xbb19f8fb	-0.0023494351
82	0x3cda3b7a	0.026639689
83	0x3c40a72c	0.011758607
84	0xbd04124e	-0.03224402
85	0x3c4bb870	0.01243411
86	0x3d226c03	0.03965379
87	0x3b895a3e	0.004191666
88	0xbbc6991f	-0.006060734
89	0x3bd762a0	0.0065730363
90	0x3cfa09ba	0.030522216
91	0x3b3003c8	0.0026857723
92	0x3c7621d3	0.015022713
93	0xbbf45ca3	-0.007457332
94	0xbbffecf6	-0.0078102304
95	0xbbbda0f5	-0.00578701
96	0xbcdd3a23	-0.02700526
97	0x3b83d667	0.0040233615
98	0xbcb57d55	-0.02215449
99	0xbcc96404	-0.024583824
100	0xbbfeaa2e	-0.007771752
101	0x3bb15fb2	0.005413019
102	0xbbf5e1f2	-0.0075037414
103	0x3c1d0e41	0.009585918
104	0x3f005f89	0.50145775
105	0xb9fa1473	-0.00047698952
106	0xbb05f33d	-0.002043917
107	0xbc69137d	-0.014225838
108	0x3a880922	0.0010378698
109	0xbc36338e	-0.01112069
110	0xba00b5c1	-0.0004909896
111	0xbb726d9d	-0.0036991604
112	0x3b321010	0.0027170219
113	0xbc311cfc	-0.010810133
114	0x3a3c2b1e	0.0007178056
115	0x3b0098b8	0.0019622277
116	0xbb9336a7	-0.004492599
117	0xbb4a772f	-0.0030893793
118	0xbbf60bf0	-0.0075087473
119	0x3b98039d	0.0046391026
120	0xbae81d71	-0.001770897
121	0xbaba4a70	-0.0014212858
122	0xbbcad38d	-0.0061897696
123	0x38f192c5	0.000115191135
124	0x3b943777	0.0045232135
125	0xbc6993e3	-0.01425645
126	0x39ef2d44	0.00045619358
127	0xbb846aaf	-0.004041038
128	0xbaf53bf4	-0.0018709884
129	0x3c53734f	0.01290591
130	0xbc116bf1	-0.008875833
131	0xbbce1add	-0.0062898234
132	0xbb094d20	-0.002095051
133	0x3b939a1c	0.0045044553
134	0x3c2c1544	0.010503117
135	0x3adf3935	0.0017030599
136	0xbb527119	-0.0032110868
137	0xbb1bfa7d	-0.0023800426
138	0x3bec1678	0.007204827
139	0xbae20142	-0.0017242806
140	0x3c273ae8	0.010206915
141	0x3b97298a	0.004613106
142	0xbc11dbe0	-0.00890252
143	0x3b55d58c	0.0032628505
144	0x3c343686	0.0109993275
145	0x3f0a0df5	0.53927547
146	0xbd1495d7	-0.03627571
147	0xbb2eca0b	-0.002667072
148	0x3b874393	0.0041279285
149	0xbb365269	-0.0027820116
150	0x3c87cb29	0.016576366
151	0xbb02aafb	-0.0019938338
152	0x3c201c9a	0.009772444
153	0x3c4e3f20	0.012588292
154	0xbb8adb73	-0.004237586
155	0x3c32affc	0.010906216
156	0x3b4f76f9	0.0031656607
157	0xbc2f5b62	-0.01070294
158	0xba76d66d	-0.0009416107
159	0xbbe5641a	-0.0070004584
160	0x3bff889b	0.007798267
161	0xbc28c8e9	-0.010301807
162	0xbc47cb6a	-0.012194494
163	0x3b4b6ab0	0.0031038933
164	0xbaf2881a	-0.0018503696
165	0x3eea842b	0.4580396
166	0xbe6a0d8d	-0.22856732
167	0x3c132c61	0.008982749
168	0x3c06ecf7	0.008235208
169	0x3b826211	0.0039789756
170	0x3be8727e	0.0070937267
171	0x3ace767a	0.0015751862
172	0xbc8cc44a	-0.017183442
173	0xbc43370e	-0.0119149815
174	0x3b7f41f2	0.0038949219
175	0x3c1fdfb8	0.009757929
176	0x3b10c4ec	0.002209003
177	0xba00751f	-0.0004900265
178	0xbe31545b	-0.17317335
179	0x3f09e6aa	0.5386759
180	0x3b5baf29	0.0033521152
181	0xba9c6130	-0.001193082
182	0xbc4d4d0e	-0.012530578
183	0xbc74727c	-0.014919873
184	0x3d2173aa	0.039416946
185	0xbb2155a0	-0.0024617687
186	0x398f838c	0.00027373096
187	0x3be81576	0.0070826365
188	0x3b0b78de	0.002128176
189	0xbc5dc246	-0.013535088
190	0x3c4a866f	0.012361153
191	0x3b90cc7f	0.004418909
192	0xb9d24051	-0.0004010224
193	0x3c1c6ee8	0.0095479265
194	0xbb4b4f10	-0.0031022467
195	0x3badffe7	0.005310047
196	0x3acea5a4	0.0015765917
197	0x3ba16604	0.0049254913
198	0xbb6b5588	-0.0035909135
199	0xbb3d7359	-0.0028907864
200	0x3e825888	0.2545817
201	0xbdd8e73a	-0.10590978
202	0x3c9887c6	0.01861943
203	0x3c174d06	0.009234672
204	0xbd02551c	-0.031819448
205	0xbce9c02c	-0.028534018
206	0xbcf09f6d	-0.029372895
207	0xbbec1c24	-0.007205503
208	0x3a7e724e	0.0009706364
209	0xbc6b8eb7	-0.014377288
210	0x3bc40e7d	0.0059831725
211	0x3a6a54b0	0.0008939011
212	0x3c602571	0.013680802
213	0x3ba99c08	0.005176071
214	0x3bed1561	0.0072352146
215	0xbc081f24	-0.008308206
216	0x3bbfd775	0.005854542
217	0x3c31bd54	0.010848362
218	0x3ca2a114	0.019852199
219	0x3a749787	0.00093304407
220	0xbc7fbc0c	-0.015608799
221	0xbae11509	-0.0017172407
222	0xbc97acf8	-0.018515095
223	0xbb910a68	-0.0044262893
224	0x3bde2190	0.0067789033
225	0x3b1ab75d	0.0023607828
226	0x3a0acf31	0.0005295156
227	0x3bd4de24	0.006496208
228	0x3c5e1755	0.0135553675
229	0x3b93fbf8	0.004516121
230	0xbb60e07e	-0.0034313495
231	0x3a4018b1	0.0007327898
232	0xbbdec022	-0.0067978064
233	0x3bf3a1b2	0.007435047
234	0xbb929ebc	-0.004474489
235	0xbb72cc07	-0.003704788
236	0xbbaeed1b	-0.005338324
237	0x3c446a8e	0.011988295
238	0xbc42cc87	-0.011889583
239	0x3b84746f	0.0040422003
240	0x3bfbbc09	0.0076823276
241	0xbb95d9f9	-0.0045731035
242	0xbc9cc1e2	-0.01913542
243	0x3cfc6e20	0.03081423
244	0xbc3699d1	-0.011145071
245	0xbbce75a6	-0.006300646
246	0xbb451fa4	-0.0030078674
247	0xbd7cfd4d	-0.061765004
248	0x3eb604cf	0.35550544
249	0xbe1cdeca	-0.15319362
250	0xbbdf409a	-0.006813121
251	0x39f25fcd	0.00046229214
252	0x3b71fa87	0.0036923008
253	0x3b8a0e1b	0.0042131073
254	0x3e80e7f1	0.25176957
255	0xbcddb3d2	-0.027063284

_CNNDQN__conv1.bias f4 [16]
0	0xbe3b4607	-0.18288432
1	0xbdc264e9	-0.09491903
2	0xbcb4c05c	-0.02206438
3	0xbe0434bd	-0.12910743
4	0xbe3748be	-0.17898843
5	0xbe3f40d9	-0.18677081
6	0xbe78fcda	-0.24315205
7	0xbe9f687f	-0.31134412
8	0xbccac94e	-0.024754193
9	0xbe2dba42	-0.16965583
10	0xbe8ab384	-0.27090085
11	0xbe53311e	-0.20624205
12	0xbe5e6885	-0.21719559
13	0xbe0f74bf	-0.14009379
14	0xbe28070c	-0.16408938
15	0xbe93f459	-0.2889736

_CNNDQN__conv2.weight f4 [32, 16, 3, 3]
0	0xbe863206	-0.2621004
1	0x3e7de70a	0.24795166
2	0xbf33745a	-0.70099413
3	0xbedc9eb4	-0.4308983
4	0x3f774496	0.9658903
5	0xbf5b6625	-0.85702735
6	0xbdb628c1	-0.08894492
7	0xbe360dbb	-0.17778675
8	0xbcbfc370	-0.023408622
9	0x3eac76d7	0.33684418
10	0x3eb6b0e4	0.35681832
11	0x3ee065d7	0.43827698
12	0x3ebadc73	0.36496314
13	0x3d1d03dc	0.03833376
14	0x3f16b169	0.58864456
15	0x3e6e33dc	0.2326197
16	0x3e7861cd	0.24256058
17	0x3f0471b7	0.51736015
18	0x3b9141bd	0.0044328854
19	0xbc79e40b	-0.015252124
20	0x3da603f3	0.08106222
21	0x3c4dc1d6	0.012558421
22	0x3d40635f	0.046969768
23	0xbd8e18fe	-0.06938361
24	0x3c40b536	0.011761954
25	0xbc92114c	-0.017830513
26	0x3cb8ed19	0.022573994
27	0x3cae7803	0.02129746
28	0xbb6aa0b2	-0.0035801348
29	0xbda85526	-0.08219366
30	0xbc4613d1	-0.012089686
31	0xbc1b2274	-0.0094686635
32	0x3cba15dd	0.022715503
33	0xbd8e5dac	-0.0695146
34	0x3d067176	0.03282305
35	0x3cb1aabe	0.021687862
36	0x3ef1e235	0.47242895
37	0xbfebbadc	-1.84164
38	0x3f695f3c	0.9116094
39	0xbf7428b8	-0.9537463
40	0x3f4514ed	0.76985055
41	0x3d0335e3	0.032033812
42	0x3bd1f151	0.006406941
43	0xbf5b1291	-0.85575205
44	0x3ea6b365	0.32558742
45	0xbcc734dc	-0.024317198
46	0x3e8557a0	0.26043415
47	0x3e2513b5	0.16120799
48	0xbe0a3602	-0.13497165
49	0x3caf9c4a	0.02143683
50	0xbe9f773f	-0.31145665
51	0x3e9ba611	0.30400136
52	0x3dcfc1a7	0.10144358
53	0x3dd97598	0.10618132
54	0x3e832938	0.25617385
55	0x3f021af1	0.5082236
56	0x3f0b99b5	0.54531413
57	0x3e9746f2	0.29546314
58	0x3d8d2b41	0.06893016
59	0x3db07ce2	0.086175695
60	0x3f28b4c2	0.65900815
61	0x3e5d6a6d	0.2162263
62	0x3f3eb18f	0.7448968
63	0x3d7e2ebb	0.062056284
64	0x3fcc47f1	1.5959455
65	0x3f0a0058	0.53906775
66	0xbf15e3b6	-0.58550584
67	0xbf77a1de	-0.96731365
68	0x401ffd21	2.4998248
69	0x3ee9b76d	0.45647755
70	0x3e8c2e41	0.2737904
71	0x3ee1c73f	0.44097325
72	0xbceae686	-0.028674375
73	0x3d8037f8	0.06260675
74	0x3dddeae4	0.108358175
75	0x3e2167fd	0.15762325
76	0x3da295f7	0.0793876
77	0xbd406f5d	-0.046981204
78	0x3e08ce48	0.1335994
79	0xbd72dfee	-0.059295587
80	0xbc52288c	-0.01282705
81	0x3f215e9c	0.6303499
82	0x3f19b8aa	0.600474
83	0x3e61579a	0.22006074
84	0x3f0a5b71	0.5404578
85	0x3e962d50	0.29331446
86	0x3ef9a682	0.48759848
87	0x3ed278ea	0.41107875
88	0x3f0cce56	0.55002344
89	0x3ef99ef9	0.487541
90	0x3dd08972	0.101824656
91	0xbf0080e2	-0.5019666
92	0x3e47a0a1	0.19494869
93	0x3e393ef7	0.18090425
94	0x3eea9fdc	0.45825088
95	0xbebe022c	-0.37111032
96	0x3e36a496	0.17836222
97	0x3ea9e3ed	0.33181706
98	0x3e4e46a3	0.20144133
99	0xbafa9a62	-0.0019119496
100	0xbd66e2fe	-0.05636882
101	0x3a6b8a61	0.00089851586
102	0xbd8dcb79	-0.06923575
103	0x3ceb93b7	0.02875696
104	0xbcf7c081	-0.03024316
105	0xbccfe79c	-0.025378995
106	0xbd086490	-0.03329903
107	0x3d871fb1	0.065978415
108	0xbd878fa0	-0.06619191
109	0x3d906359	0.07050199
110	0x3dfd76d8	0.12376183
111	0xbb81f4e4	-0.003965961
112	0xbd8e9963	-0.0696285
113	0x3e617adf	0.22019528
114	0xbde28d1d	-0.110620715
115	0x3cc50ddf	0.024054466
116	0x3e2a605a	0.16638318
117	0x3e92ad98	0.28648067
118	0x3e3903ca	0.18067852
119	0x3dee83ad	0.11646209
120	0x3e7273da	0.23677006
121	0x3e3f5fcb	0.18688886
122	0x3e82652c	0.25467813
123	0x3ed03016	0.40661687
124	0x3e676cbd	0.22600074
125	0x3e99bb35	0.3002564
126	0xbced42e9	-0.02896257
127	0x3e30622d	0.17224951
128	0x3da399aa	0.079882935
129	0x3e9835ae	0.29728454
130	0x3e2bc40c	0.16774005
131	0x3ec6fa76	0.38862962
132	0x3edbc695	0.42924944
133	0x3ea39c4b	0.3195518
134	0x3e68ad35	0.22722323
135	0x3e236c9e	0.15959403
136	0x3d5a4e87	0.053297546
137	0xbd8a1f5d	-0.06744263
138	0xbd5fa9d2	-0.054605313
139	0x3dcc088e	0.09962569
140	0x3e126c2f	0.14299081
141	0xbe2984e0	-0.16554594
142	0x3d8e3ad6	0.06944816
143	0xbd2e784d	-0.042595197
144	0xbe159149	-0.14606203
145	0x3d48b152	0.04899723
146	0x3e772ae6	0.24137458
147	0x3e222de1	0.15837814
148	0xbe894788	-0.26812387
149	0xbdbf2fe3	-0.093353055
150	0x3d0986f5	0.03357597
151	0x3d5efa90	0.054438174
152	0xbd94de43	-0.072689556
153	0x3e67f2eb	0.2265126
154	0x3d36a07d	0.044586647
155	0x3d5f2b9d	0.054484952
156	0x3e8db2b7	0.2767541
157	0x3e32e723	0.17470984
158	0x3deb7057	0.114960365
159	0xbe26934d	-0.16267128
160	0x3c904a79	0.017613636
161	0x3e23c1ee	0.15991947
162	0x3d3caa7e	0.04606103
163	0xbd6c5972	-0.05770249
164	0x3e34f099	0.17669906
165	0x3cc3c048	0.023895398
166	0x3e7fef43	0.24993615
167	0xbdb31a05	-0.08745197
168	0xbd9ee5cb	-0.07758673
169	0xbe988aa8	-0.29793286
170	0xbd3d88c2	-0.046273
171	0x3ceb88df	0.028751789
172	0xbca2de30	-0.019881338
173	0x3df140bd	0.11779926
174	0x3ca8581d	0.020549828
175	0xbc02d7fa	-0.007986063
176	0xbe0d6a9a	-0.13810197
177	0xbcb703c0	-0.022340655
178	0xbde3f942	-0.111315265
179	0x3d00a194	0.031404093
180	0xbf34fe15	-0.707002
181	0xbe29f04e	-0.16595575
182	0x3fc21e1b	1.5165437
183	0x3f6950b9	0.911388
184	0x3dca0379	0.098639436
185	0x3e5dfb78	0.21677959
186	0x3e88a6a3	0.26689634
187	0x3ddea3a5	0.108710565
188	0xbe7ea8c5	-0.24869068
189	0xbcf9592d	-0.03043803
190	0x3e307b2c	0.17234486
191	0x3fbdffe4	1.4843717
192	0xbd5c4bfe	-0.05378341
193	0x3da7b5bb	0.08188959
194	0x3e987a66	0.29780883
195	0xbd2bb630	-0.041921794
196	0x3e3a85fd	0.18215175
197	0x3e1c09e2	0.15238145
198	0x3d1f44af	0.03888386
199	0x3d061c7e	0.032742016
200	0x3d47b6ab	0.04875819
201	0xbec0ae20	-0.37632847
202	0xbf788357	-0.9707541
203	0xbfd1669e	-1.6359441
204	0x3e8b5a58	0.27217364
205	0x3f13ea90	0.5777979
206	0x3f1790af	0.59205145
207	0xbf13317d	-0.5749739
208	0x3e75360b	0.23946397
209	0xc05b514d	-3.4268372
210	0xc0363828	-2.8471775
211	0x3e9a1b5e	0.30099005
212	0x3fa1876e	1.2619455
213	0x3f935b59	1.1512252
214	0x3e27f5a8	0.16402304
215	0x3e8fbdd3	0.28074512
216	0x3d943b49	0.0723787
217	0x3a9aa165	0.0011797367
218	0xbb0b5f9f	-0.0021266711
219	0xbdf967ff	-0.12178039
220	0x3db5849a	0.08863182
221	0x3e09f7e9	0.13473476
222	0x3e2cb3c0	0.16865444
223	0x3dbd0289	0.09228999
224	0xbc7bf4b3	-0.015378165
225	0x3e325cdd	0.17418237
226	0x3e76b73d	0.24093337
227	0x3f094aff	0.5363006
228	0x3e6eed64	0.23332745
229	0xbfd7074e	-1.6799104
230	0xc01b15e8	-2.423212
231	0x3d5458ab	0.051842373
232	0x3f7c8c93	0.98652
233	0x400c23f9	2.1896956
234	0x3f095e04	0.5365908
235	0x3e0566c1	0.13027479
236	0xbf9e0ab6	-1.2347019
237	0xbfd3321a	-1.6499665
238	0xbe4e8693	-0.20168523
239	0x3e8348b6	0.25641412
240	0x3d7ee8b4	0.06223364
241	0xbad2967e	-0.0016066579
242	0x3de06f2c	0.10958704
243	0x3e33fe86	0.17577562
244	0x3ef04ece	0.46935123
245	0xbdbe16c2	-0.092816845
246	0xbd8bba38	-0.06822628
247	0xbec94a17	-0.3931434
248	0xbf704f02	-0.93870556
249	0x3da4c75b	0.080458365
250	0x3c5d1452	0.013493614
251	0xbcb47dce	-0.022032645
252	0xbe1a1f6d	-0.1505105
253	0xbed63f74	-0.41845286
254	0xbe13cb56	-0.14433035
255	0x3f11cdc2	0.56954587

_CNNDQN__conv2.bias f4 [32]
0	0xbe39f3dd	-0.18159433
1	0xbd957277	-0.07297223
2	0xbe25f9aa	-0.1620852
3	0xbd88d0c1	-0.06680442
4	0xbd8c4363	-0.068487905
5	0xbdd3ba56	-0.10338275
6	0xbde22c8f	-0.11043655
7	0xbf81477f	-1.0099944
8	0xbcf8f5d2	-0.030390654
9	0xbeb3080e	-0.34967083
10	0xbdc9f28e	-0.09860717
11	0xbea0e5e3	-0.3142539
12	0xbe1884f6	-0.1489447
13	0xbe227967	-0.15866624
14	0xbe1d782c	-0.15377873
15	0xbcdc85a2	-0.02691919
16	0xbd224796	-0.03961905
17	0xbdf58401	-0.11988068
18	0xbe42bda4	-0.19017655
19	0xbda61ff4	-0.08111563
20	0xbd17c376	-0.03705164
21	0xbcf7f2fb	-0.03026723
22	0x3e9ab54a	0.30216438
23	0xbe68191b	-0.22665827
24	0xbf9e459a	-1.2364991
25	0xbe7085db	-0.23488562
26	0xbe4cca50	-0.19999051
27	0xbe4b2964	-0.19840008
28	0xbe43c2a7	-0.19117223
29	0xbdb69235	-0.089146055
30	0xbe1b58e0	-0.15170622
31	0xbe1ce0ac	-0.1532008

_CNNDQN__conv3.weight f4 [64, 32, 3, 3]
0	0xbdb0732a	-0.08615716
1	0x3c01c7af	0.007921143
2	0xbd992b5f	-0.074789755
3	0x3d0cf145	0.03440978
4	0xbd5f83b6	-0.05456897
5	0xbcaf2cc5	-0.021383652
6	0xbd3e599f	-0.046472188
7	0xbd293919	-0.04131422
8	0xbd4a1b1b	-0.049342256
9	0xbd232e2e	-0.039838962
10	0xbd3d1649	-0.04616383
11	0xbcebeeb1	-0.02880034
12	0x3d60245e	0.054722182
13	0x3d084175	0.03326555
14	0x3d42ffc2	0.04760719
15	0x3d074fb0	0.03303498
16	0x3cd913a7	0.026498629
17	0x3d376b1c	0.04477988
18	0x3bdd3f9c	0.0067519676
19	0x3d726482	0.059177883
20	0xbd988bc3	-0.074485324
21	0x3ccc9b53	0.024976408
22	0xbd04bed7	-0.03240856
23	0x3c496e40	0.012294352
24	0xbc29d608	-0.01036597
25	0x3d6ca3fb	0.05777357
26	0x3cb9cda3	0.022681063
27	0xbd30bfe0	-0.043151736
28	0x3bce8f4c	0.0063037034
29	0xbca0461a	-0.019564677
30	0xbd11fb25	-0.0356399
31	0x3c841085	0.016121158
32	0x3c2816d6	0.010259351
33	0xbd8398cb	-0.06425627
34	0xbd421974	-0.047387555
35	0xbda7af9b	-0.08187791
36	0xbbf8527d	-0.0075781927
37	0xbd3ae95d	-0.04563271
38	0xbb2d1409	-0.0026409647
39	0xbd68f73a	-0.0568764
40	0x3af0d579	0.0018374167
41	0x3cffb36b	0.031213483
42	0xbd86e9e4	-0.0658758
43	0xbd7737ba	-0.06035588
44	0x3c5e3a0a	0.013563642
45	0xbd376334	-0.04477234
46	0x3cd1570e	0.025554206
47	0x3c878b37	0.016545875
48	0xbcedf81e	-0.029048976
49	0xbdaf8f61	-0.08572269
50	0x3d023aa8	0.03179422
51	0x3c99d9f9	0.018780695
52	0x3a3f312e	0.00072934
53	0xbd48202d	-0.04885881
54	0xbd46e7a1	-0.048560742
55	0xbd1915c7	-0.037374284
56	0x3b524154	0.0032082396
57	0xbd6d8bbf	-0.0579946
58	0x3bc88eaa	0.0061205225
59	0xbc8e458e	-0.01736715
60	0xbd780289	-0.060549293
61	0x3d84dfe8	0.06488019
62	0x3cedadb4	0.029013492
63	0x3bf43756	0.0074528856
64	0x3c28010d	0.010254157
65	0xbd010071	-0.03149456
66	0x3d110a71	0.03541035
67	0x3d3df428	0.046375424
68	0x3ca45eb4	0.02006469
69	0xbd1db053	-0.038498234
70	0x3bd4edd1	0.0064980765
71	0x3d2a4d05	0.041577358
72	0x3d24efb6	0.04026767
73	0xbc1c4936	-0.009538939
74	0xbd020574	-0.03174348
75	0xbd7ed76d	-0.062217165
76	0xbd6ab1b0	-0.057298362
77	0xbd07c17e	-0.033143513
78	0x3cdca854	0.026935734
79	0xbd6f03ae	-0.05835312
80	0x3ccdd61b	0.025126508
81	0xbd2f71e3	-0.04283322
82	0xbd5d0eea	-0.0539693
83	0xbbb191a0	-0.005418971
84	0xbca02092	-0.01954678
85	0xbca14594	-0.019686498
86	0xbc3b054e	-0.011414839
87	0xbd05fcdf	-0.03271186
88	0x3d1d1b40	0.038356066
89	0xbcc6339a	-0.024194527
90	0x3c210b70	0.009829387
91	0xbd3989a9	-0.0452973
92	0xbd49f9ca	-0.049310483
93	0xbd85df44	-0.06536725
94	0xbd9634a4	-0.07334259
95	0xbd94de25	-0.07268933
96	0xbd55c62f	-0.052190956
97	0xbd24ca32	-0.04023189
98	0x3d0ef0d5	0.034897644
99	0xbcd7a79d	-0.026325041
100	0xbb8cbcb1	-0.0042949547
101	0xbcc150bb	-0.023598066
102	0x3a7f80ab	0.0009746651
103	0xbd71c053	-0.059021305
104	0xbd808b62	-0.06276585
105	0xbcfe4fc9	-0.031043904
106	0x3c3be3a8	0.011467852
107	0x3b487dbd	0.0030592524
108	0xbd6f8df5	-0.05848499
109	0xbc88e558	-0.016710922
110	0x3ce2d8c6	0.027691256
111	0xbd896146	-0.067080066
112	0x3cc85790	0.024455816
113	0xbd594d05	-0.053051967
114	0xbd0577a2	-0.032584794
115	0xbd611ceb	-0.05495922
116	0xbad9e708	-0.0016624639
117	0x3cbfc89c	0.023411088
118	0xbdae52f0	-0.08511913
119	0xbd4bb6e5	-0.04973497
120	0xbb2e3a06	-0.0026584878
121	0x3cee4256	0.029084366
122	0xbd29ff12	-0.04150302
123	0xbd5bc021	-0.053650025
124	0xbca85fd0	-0.0205535
125	0x3d63fd6d	0.055661608
126	0x3d23ec0a	0.040020026
127	0x3c88e853	0.016712343
128	0x3bdeb235	0.0067961463
129	0x3c31757b	0.010831232
130	0x3db0ccdb	0.08632823
131	0xbd259e3e	-0.040434115
132	0xbb217957	-0.0024638975
133	0xbd4cc253	-0.04999001
134	0xbd4129c2	-0.047158964
135	0xbcf09b02	-0.029370788
136	0xbda466a6	-0.08027391
137	0xbd7867dc	-0.060645923
138	0x3cc5a335	0.024125675
139	0xbd812241	-0.063053615
140	0x3d1a9c18	0.03774652
141	0x3cce294a	0.025166173
142	0xbcb6f6b1	-0.022334429
143	0xbd7cf284	-0.06175472
144	0xbd8699ac	-0.06572279
145	0xbd83ea56	-0.064411804
146	0x3ce1567c	0.02750706
147	0xbd3016f4	-0.04299064
148	0x3d56594b	0.05233125
149	0xbd758f97	-0.05995139
150	0xbb3e6c27	-0.0029056163
151	0xbd52eba9	-0.051494274
152	0xbca01627	-0.019541813
153	0x3d229d71	0.03970093
154	0xbd8fa1ec	-0.07013306
155	0x3c372f7c	0.011180755
156	0xbd65b90b	-0.056084674
157	0x3c2ef7db	0.010679211
158	0xbd45b112	-0.04826457
159	0xbcff8952	-0.03119341
160	0xbd93cee3	-0.07217195
161	0x3c783320	0.015148908
162	0x3a23b62e	0.00062451034
163	0xbd6f0922	-0.05835832
164	0xbd9300e0	-0.07177901
165	0xbc2cfe96	-0.010558745
166	0xbd96a97c	-0.07356545
167	0xbd6bfc16	-0.057613455
168	0xbccaa94d	-0.024738932
169	0x3cb2b982	0.021816973
170	0x3b6f7b60	0.0036542043
171	0xbd8beadc	-0.06831905
172	0xbcd7b109	-0.026329534
173	0x3b675a7b	0.0035301733
174	0x3ce85945	0.02836288
175	0xbda1026c	-0.0786179
176	0xbcf0dc47	-0.029401911
177	0x3d28ea6e	0.041239195
178	0xbd004538	-0.031316012
179	0xbd8e0c44	-0.06935933
180	0x3b678457	0.0035326683
181	0xbd8f9b77	-0.070120744
182	0x3c993c3c	0.01870548
183	0xbd001172	-0.031266637
184	0x3baac11d	0.005211009
185	0x3c7694ff	0.015050172
186	0x3d3d3469	0.04619256
187	0x3c4aa0eb	0.012367467
188	0xbdb3bbdd	-0.087760665
189	0xbd7a7a8c	-0.061152026
190	0xbd094096	-0.03350886
191	0xbd384c73	-0.044994783
192	0xbcfaf074	-0.030632235
193	0xbd590325	-0.052981514
194	0xbca16817	-0.019702954
195	0x3c8c2e5b	0.017111948
196	0x3ca6e90b	0.020374795
197	0xbc1e93da	-0.009678805
198	0xbdc59c58	-0.09648961
199	0xbdb7dddc	-0.08977863
200	0xbd25cecc	-0.04048042
201	0xbdf49072	-0.11941613
202	0x3cc8fd23	0.024534767
203	0xbd0cabcc	-0.034343526
204	0xbb8db29b	-0.00432427
205	0xbc88ea70	-0.016713351
206	0x3d1b88e4	0.037972346
207	0xbd514876	-0.051094495
208	0x3d70195a	0.058617927
209	0xbdaac247	-0.08337837
210	0x3d952d41	0.07284022
211	0x3d7d1292	0.06178529
212	0xbbbc0df6	-0.005738969
213	0xbd2981ef	-0.04138368
214	0xbc3602cc	-0.011109065
215	0xbd5bc71b	-0.05365668
216	0xbd2279d3	-0.039666962
217	0x3c47af54	0.012187798
218	0x3c96ef42	0.018424634
219	0xbd2300d7	-0.039795723
220	0x3cc7a931	0.024372669
221	0x3cc3f58b	0.023920795
222	0xbce79b70	-0.02827236
223	0xbc0dd560	-0.00865683
224	0x3c509ca6	0.01273266
225	0x3be3b58c	0.0069491323
226	0xbd8cec30	-0.06880987
227	0xbc5978e2	-0.01327345
228	0xbd86a9f7	-0.06575387
229	0xbd064699	-0.03278217
230	0x3d17e4a8	0.037083298
231	0x3c96bbba	0.018400062
232	0xba7c6f7c	-0.00096296496
233	0xbd14e84f	-0.03635436
234	0xbce83cdd	-0.028349334
235	0x3c89f978	0.016842589
236	0xb8eb2cf3	-0.00011214046
237	0x3d00bd05	0.031430263
238	0xbc6bfa48	-0.014402933
239	0xbd3bd3b7	-0.045856204
240	0xbc2a27a0	-0.010385424
241	0x3c0a7deb	0.008452873
242	0xbbbab63a	-0.0056979926
243	0xb9eb22dc	-0.00044848665
244	0xbd7c4f9f	-0.06159937
245	0xbcd340fc	-0.025787823
246	0xbd0657f1	-0.03279871
247	0xbd2078dd	-0.039177764
248	0x3d1c054a	0.03809098
249	0x3c279b03	0.010229829
250	0xbd3e8d89	-0.046521697
251	0x3ca7fb44	0.020505555
252	0xbc0d1831	-0.008611725
253	0xbcddd026	-0.027076792
254	0x3d079a53	0.03310616
255	0xbd2ace99	-0.041700933

_CNNDQN__conv3.bias f4 [64]
0	0xbd986a95	-0.07442204
1	0xbd8c6936	-0.06856005
2	0x3febaba0	1.8411751
3	0x3ebc9a7a	0.36836606
4	0x3f63e110	0.89015293
5	0x3e6877ec	0.22701997
6	0x3ebeae31	0.37242272
7	0xbebb8812	-0.3662725
8	0xc018e644	-2.3890543
9	0xbf3c35fb	-0.7351987
10	0x3bb455d1	0.005503394
11	0xbe5683c5	-0.20948704
12	0xbf63f443	-0.8904459
13	0x3ed2c6b3	0.4116722
14	0xbd32cdd4	-0.043653324
15	0xbf77a4ae	-0.96735656
16	0x3f1701d1	0.58987147
17	0xbfccf490	-1.6012135
18	0x3ef25380	0.4732933
19	0xbe7fcb40	-0.24979877
20	0x3e7ae8ba	0.2450284
21	0x3e99e50b	0.30057558
22	0xbe34dab4	-0.17661554
23	0xbfc57aab	-1.542806
24	0xbfff4e9b	-1.9945863
25	0x3ea6caa8	0.3257649
26	0xbc940aa6	-0.018071484
27	0x4055ff4d	3.3437073
28	0xc005c1bd	-2.0899498
29	0xbf52f1e2	-0.82400334
30	0xbd62f842	-0.05541254
31	0xbfd2982f	-1.6452693
32	0x3f781da5	0.96920234
33	0xbf23a0f9	-0.639175
34	0x3f08f693	0.5350124
35	0xbf123f76	-0.57128084
36	0xbdc32c5a	-0.09529944
37	0x3c4c7c2d	0.012480778
38	0xbe927d8d	-0.28611413
39	0xbf20e035	-0.6284211
40	0x3da319b1	0.079638846
41	0x3f5b300e	0.856202
42	0xbf37f88c	-0.7186363
43	0xbddf395d	-0.10899613
44	0xbe1fd142	-0.1560717
45	0xc00e02cd	-2.218921
46	0xbe5899d6	-0.21152434
47	0xbebbda49	-0.36689976
48	0xbfb5405f	-1.416027
49	0xbe88a5a2	-0.26688868
50	0xbf880db2	-1.062918
51	0x3f51abec	0.81902957
52	0xbebe73f7	-0.3719785
53	0xc0356b64	-2.8346796
54	0x3fbf8732	1.4963133
55	0xbf9c08af	-1.219015
56	0xbe9d3802	-0.30706793
57	0x3e0bf353	0.1366704
58	0xbf162b76	-0.58660066
59	0xbf661f74	-0.89891744
60	0xbe6434a1	-0.22285701
61	0x3fc9f234	1.577704
62	0xbfbad8e4	-1.459744
63	0x3eebf605	0.46086136

_CNNDQN__fc1.weight f4 [128, 64]
0	0x3d69d7ce	0.057090573
1	0xbdb61982	-0.08891584
2	0xbd4a79a8	-0.049432427
3	0xbe821f44	-0.2541448
4	0xbd9043f8	-0.07044214
5	0x3dd567d7	0.104201965
6	0xbf4841a3	-0.78225154
7	0x3e4d06e9	0.20022167
8	0xbc249b34	-0.010046769
9	0x3fa8da63	1.3191646
10	0x3f57b652	0.84262574
11	0xbe97310c	-0.29529607
12	0xbd7c7e30	-0.06164378
13	0xbec3ea88	-0.3826487
14	0x3c8a9f55	0.016921679
15	0x3ad24a38	0.0016043847
16	0xbe29a47c	-0.16566652
17	0xbe31db25	-0.17368753
18	0xbeee2d71	-0.46519044
19	0x3cc131fc	0.023583405
20	0xbf295603	-0.6614687
21	0x3e1017e3	0.14071612
22	0xbcb82e9c	-0.022483163
23	0x3bb0f812	0.005400666
24	0xbe3d64b7	-0.18495451
25	0xbed7e84e	-0.42169422
26	0x3eecca13	0.4624792
27	0x3e197171	0.1498468
28	0xbebd3e31	-0.3696151
29	0xbdbaf6ee	-0.09129129
30	0x3e13dfc6	0.14440832
31	0x3d96d9bc	0.07365748
32	0x3f04b3f4	0.51837087
33	0x3e6dd99d	0.23227544
34	0x3e0d773e	0.13815019
35	0x3f0b6adc	0.5445993
36	0x3f1a861c	0.60360885
37	0x3e9a57d9	0.30145147
38	0x3e102a97	0.14078747
39	0x3e7a6bc1	0.24455167
40	0xbedea2a7	-0.4348347
41	0x3e1c17fa	0.15243521
42	0xbe2e1eb4	-0.170039
43	0x3f12c5f2	0.5733329
44	0xbd6d098a	-0.057870425
45	0xbd97ab90	-0.0740577
46	0xbe56fe9b	-0.20995562
47	0xbe93427d	-0.28761664
48	0xbdb32abf	-0.087483875
49	0x3f9ada30	1.2097836
50	0x3cf9bb47	0.030484809
51	0x3d836561	0.06415821
52	0xbe0731f0	-0.13202643
53	0x3cc2fa3a	0.023800958
54	0x3d474a08	0.048654586
55	0x3cda373d	0.026637668
56	0xbe6ffddb	-0.23436682
57	0xbf4efa53	-0.80850714
58	0x3f0b41ac	0.5439708
59	0x3bbb1a06	0.0057098893
60	0xbcaab3e3	-0.02083773
61	0xbea70685	-0.32622162
62	0xbe049181	-0.1294613
63	0xbeb27773	-0.34856758
64	0xbda2cc70	-0.079491496
65	0x3f46602f	0.77490515
66	0xbec72fc4	-0.3890363
67	0xbeb8b327	-0.36074182
68	0x3f0b614c	0.5444534
69	0x3dc6a4df	0.096994154
70	0xbd14e32e	-0.036349468
71	0x3e517265	0.20453794
72	0x3f06b66b	0.526221
73	0x3e88f1c8	0.26746964
74	0xbec969f1	-0.3933864
75	0xbf7b750d	-0.9822548
76	0xbe19494d	-0.14969368
77	0xbeec555c	-0.46158874
78	0xbdcf0089	-0.10107524
79	0xbf768d50	-0.96309376
80	0x3e812606	0.25224322
81	0xbe8fc175	-0.28077284
82	0x3f2e9b83	0.6820604
83	0xbece0476	-0.40237778
84	0x3e246484	0.16053969
85	0x3e55a417	0.20863377
86	0xbeb57e26	-0.35447806
87	0xbecff22b	-0.40614447
88	0x3e6c4fc4	0.23077303
89	0xbfccbbc3	-1.59948
90	0x3e35c53f	0.17751025
91	0xbcb44289	-0.022004383
92	0xbf40b570	-0.7527685
93	0xbf2738eb	-0.65321225
94	0x3c593f55	0.013259728
95	0xbeb59da0	-0.3547182
96	0x3eddc778	0.43316245
97	0x3e5cc491	0.21559359
98	0xbdb979a7	-0.090564065
99	0xbf91ad96	-1.1381099
100	0xbf1f9852	-0.623418
101	0x3e37f68a	0.17965141
102	0xbf00eab3	-0.5035812
103	0xbe1d1222	-0.15338948
104	0xbf53f45f	-0.82794756
105	0xbe4e995f	-0.20175694
106	0x3cece52a	0.028917868
107	0xbe59e110	-0.21277261
108	0x3f723dc5	0.946255
109	0x3f01efcd	0.5075653
110	0xbb750d41	-0.0037391933
111	0xbe6f80b6	-0.23388943
112	0x3e8387cb	0.2568954
113	0x3ea34fde	0.3189687
114	0x3e86e075	0.26343122
115	0x3f1a52aa	0.60282385
116	0xbe93d7c8	-0.28875566
117	0xbf5da49c	-0.865793
118	0x3ee00a7a	0.43757993
119	0x3f64da07	0.89395183
120	0xbf650cc0	-0.8947258
121	0x3f3cb7bc	0.73717856
122	0x3ee7487f	0.45172498
123	0xbe32e0ec	-0.17468613
124	0x3e496675	0.1966799
125	0xbef488d6	-0.47760648
126	0x3f09b3ea	0.5379015
127	0xbe0cba7e	-0.13743016
128	0x3d974d1a	0.07387753
129	0x3f6782d1	0.90433985
130	0x3e1d6360	0.1536994
131	0x3e05ecdb	0.13078634
132	0x3f89731e	1.0738256
133	0x3e80bb27	0.25142786
134	0xbe0d7417	-0.13813816
135	0x3ecba93a	0.39777547
136	0x3e8b4179	0.2719839
137	0x3f0e318c	0.5554435
138	0x3e41d28a	0.1892797
139	0x3f4059c2	0.7513696
140	0x3f14ca5a	0.58121264
141	0x3ec73de8	0.38914418
142	0xbdd0258e	-0.10163413
143	0x3f4c65f2	0.79843056
144	0x3e8f6cd9	0.28012732
145	0x3e52a25b	0.20569746
146	0x3f7932dd	0.97343236
147	0xbf82d814	-1.0222192
148	0xbeb98dd9	-0.36241034
149	0x3fa24cb8	1.2679663
150	0xbe8c8bab	-0.27450308
151	0x3d29a7de	0.041419856
152	0x3df706e4	0.12061861
153	0xbf9ce713	-1.2258018
154	0x3ec7d84d	0.39032212
155	0xbf1bf243	-0.6091654
156	0x3e3961b5	0.18103679
157	0x3ebde474	0.37088358
158	0x3cccb1ab	0.024987062
159	0xbf9502d5	-1.1641489
160	0x3ed372dd	0.4129857
161	0x3ef9b320	0.48769474
162	0xbe020934	-0.12698823
163	0xbfd588b5	-1.6682345
164	0x3ea9e729	0.33184174
165	0x3e0db925	0.13840158
166	0x3f104245	0.5635112
167	0xbec24709	-0.3794482
168	0xbe81c6dd	-0.25347033
169	0x3e92a1ab	0.28638968
170	0xbd668bc0	-0.05628562
171	0x3d495587	0.04915383
172	0x3f0f3d1b	0.55952615
173	0xbb4aedfb	-0.0030964601
174	0xbf145336	-0.5793947
175	0xbe69b948	-0.22824585
176	0x3e159edb	0.1461138
177	0x3e0230b2	0.12713888
178	0x3ed46ead	0.4149069
179	0xbd5ccc31	-0.05390567
180	0x3f18ff7a	0.59764826
181	0x3e791b88	0.24326909
182	0x3f470b1b	0.7775132
183	0x3f465f37	0.77489036
184	0x3f9de0c2	1.2334216
185	0x3f154767	0.58312076
186	0x3e22ace7	0.1588627
187	0xbd5f9f11	-0.054595057
188	0x3ef2d862	0.47430712
189	0xbed63dbe	-0.4184398
190	0x3f17f843	0.5936319
191	0xbe511034	-0.20416337
192	0xbdb2b2c0	-0.087255
193	0x3fcf522a	1.619695
194	0xbe181263	-0.14850764
195	0x3e468444	0.19386393
196	0x3eea6fd2	0.45788437
197	0x3e89dd84	0.26926816
198	0x3f5b0944	0.85561013
199	0xbf2c0d86	-0.67208135
200	0x3ec2230e	0.3791737
201	0x3f26c171	0.6513892
202	0xbf591f2d	-0.84813195
203	0x3f652134	0.8950379
204	0x3e84f485	0.25967804
205	0xbe7698a0	-0.2408166
206	0xbd7402a4	-0.05957283
207	0x3f0547dd	0.5206278
208	0xbdeb6d75	-0.11495487
209	0x3f0a3e5b	0.54001397
210	0xbf26673b	-0.6500127
211	0xbeb68fee	-0.35656685
212	0x3eb881e7	0.36036608
213	0xbe4c010a	-0.19922271
214	0xbcea3b2a	-0.028592665
215	0x3ed84ea5	0.422475
216	0x3e179a59	0.14804973
217	0xbea60970	-0.32429075
218	0xbf10077c	-0.5626142
219	0xbeb3a9f7	-0.3509061
220	0xbe6355ff	-0.22200774
221	0x3f06f8ac	0.52723193
222	0x3dbecffa	0.09317012
223	0xbda4b22d	-0.08041797
224	0x3eb7e995	0.35920396
225	0x3e739572	0.23787478
226	0xbf03621d	-0.51321584
227	0xbfa45e5e	-1.2841299
228	0x3eb7f669	0.35930184
229	0x3d0c5b88	0.03426698
230	0x3e9c8420	0.30569553
231	0x3d9a3788	0.07530123
232	0x3f5bf53a	0.8592106
233	0x3ea3b06b	0.31970534
234	0x3e895370	0.2682147
235	0x3e8c761a	0.27433854
236	0x3cc357b3	0.02384553
237	0x3f35c8ca	0.71009505
238	0xbf02fe77	-0.5116953
239	0x3f84fe66	1.0390136
240	0xc00b2fa0	-2.1747818
241	0x3da4ff57	0.08056515
242	0xbe12ed78	-0.143484
243	0x3ea3d018	0.319947
244	0x3f03c0eb	0.51466244
245	0x3e2ba053	0.16760378
246	0x3f2a0136	0.664081
247	0x3f3ec6b1	0.7452193
248	0x3f17f8fa	0.59364283
249	0x3d51ef56	0.05125364
250	0x3f99f6ce	1.2028444
251	0xbe8e842b	-0.2783521
252	0x3e615d49	0.22008242
253	0xbe978164	-0.29590905
254	0x3ebfa361	0.37429336
255	0xbf556e35	-0.8337129

_CNNDQN__fc1.bias f4 [128]
0	0x3e2a4b76	0.16630349
1	0x3e0040f5	0.12524779
2	0xbe7f57d3	-0.24935846
3	0xbf094a4a	-0.5362898
4	0xbe776759	-0.24160518
5	0xbf30dadd	-0.6908396
6	0xbf67c3f5	-0.9053338
7	0x3ec0c2b8	0.3764856
8	0x3f0374ee	0.51350296
9	0x3e9696a1	0.29411796
10	0x3facc99a	1.3499024
11	0xbd620cbf	-0.055187937
12	0xbdf54239	-0.119755216
13	0xbf4ea89d	-0.80726033
14	0xbd6f4902	-0.058419235
15	0xbe4fb65e	-0.20284411
16	0x3e73c181	0.23804285
17	0xbeea2bac	-0.45736444
18	0x3c3aeb46	0.011408633
19	0xbe696ac8	-0.2279464
20	0xbe63ef68	-0.22259295
21	0xbde81483	-0.11332037
22	0xbe2c51f9	-0.16828145
23	0x3eb51087	0.35364172
24	0xbf1cdb52	-0.61272156
25	0x3dcb43a7	0.09925013
26	0xbf566682	-0.83750165
27	0x3ea98c5a	0.33114892
28	0xbf089bda	-0.5336281
29	0xbcb77bdd	-0.02239793
30	0x3e7b4eb8	0.24541748
31	0xbf81a888	-1.0129557
32	0xbf49686a	-0.7867495
33	0x3ea454f3	0.3209606
34	0x3e41afa2	0.18914655
35	0x3dbc7fe0	0.09204078
36	0x3e8ba4e7	0.27274248
37	0x3ee9814f	0.45606467
38	0x3e0bd2ef	0.13654684
39	0xbeebbdde	-0.46043295
40	0x3f4d2c33	0.8014557
41	0xbe81cfae	-0.2535376
42	0x3f10e89b	0.5660493
43	0xbef7731b	-0.48330006
44	0xbec248b9	-0.37946108
45	0xbd63cb50	-0.055613816
46	0xbf10f772	-0.5662757
47	0x3eae79dc	0.34077346
48	0x3ebe24e3	0.37137517
49	0x3d34bdeb	0.044126432
50	0xbf439e58	-0.7641349
51	0xbc64e530	-0.013970658
52	0xbe97aac1	-0.29622462
53	0xbece8bf3	-0.40341148
54	0xbeea220c	-0.457291
55	0xbf4de033	-0.80420226
56	0x3f0cb1aa	0.54958594
57	0xbd8b26ad	-0.06794486
58	0xbe8e687a	-0.27814084
59	0x3f39fc0e	0.7265023
60	0xbebe68bf	-0.3718929
61	0xbebd5697	-0.36980125
62	0xbefb6f78	-0.4910848
63	0xbede9f68	-0.43480992
64	0x3e77d5bf	0.24202631
65	0x3e8b2160	0.271739
66	0x3e10efa3	0.14153914
67	0x3d6b454d	0.057439137
68	0x3e1b2b38	0.15153205
69	0xbd17ecd1	-0.03709108
70	0xbe0764f4	-0.13222104
71	0xbe7330ec	-0.23749131
72	0x3f12341b	0.57110757
73	0xbe84b2e0	-0.2591772
74	0xbe2ccc28	-0.16874754
75	0xbf18d979	-0.59706837
76	0xbf8c264c	-1.0949187
77	0x3ee62eed	0.44957677
78	0x3cbb2fec	0.02285
79	0xbe47d3fb	-0.19514458
80	0xbc0ba08c	-0.008522164
81	0x3e58bd43	0.21165948
82	0x3e815230	0.25258017
83	0xbe0c4b62	-0.13700631
84	0xbf825c3a	-1.0184395
85	0x3ed02f55	0.4066111
86	0xbebc4e1e	-0.3677835
87	0xbe1e487f	-0.15457343
88	0x3f1255af	0.5716199
89	0x3d96c224	0.07361248
90	0x3ccdf0be	0.025139209
91	0xbd897114	-0.06711021
92	0xbea74bab	-0.32674918
93	0x3e4ffb63	0.2031074
94	0x3f2e3538	0.68049955
95	0x3d6362f9	0.05551431
96	0xbf3210b8	-0.6955676
97	0x3c4f8cb6	0.012667825
98	0xbddf781f	-0.10911583
99	0xbe9509f2	-0.2910915
100	0xbe94e6fe	-0.29082483
101	0xbec13b71	-0.37740663
102	0xbcd1eab1	-0.025624605
103	0xbece92b9	-0.40346316
104	0x3e4dbbfe	0.20091245
105	0xbf6e037f	-0.92974085
106	0xbe0e11ec	-0.13874024
107	0x3e881083	0.26575097
108	0x3ed3f8c1	0.41400722
109	0xbf530c91	-0.8244105
110	0xbf030469	-0.51178604
111	0xbe71187d	-0.23544498
112	0x3e1dfdea	0.15428892
113	0xbec58d7d	-0.3858451
114	0xbe5d30be	-0.21600625
115	0x3eee03fb	0.46487412
116	0x3fd6cf2d	1.6781975
117	0xbe821a2e	-0.254106
118	0x3d995e7a	0.07488723
119	0xbecb3f00	-0.39696503
120	0xbf57477d	-0.8409346
121	0xbcdf3ad1	-0.027249726
122	0xbf46e54a	-0.7769362
123	0xbe0a3919	-0.13498344
124	0xbf746f55	-0.9548238
125	0xbddbe91c	-0.107378215
126	0x3d94ebe5	0.07271556
127	0xbe412709	-0.18862547

_CNNDQN__fc2.weight f4 [128, 128]
0	0x40067374	2.1007967
1	0x3fe0a3d6	1.7549999
2	0xbf83107c	-1.0239406
3	0xbc7afba3	-0.015318784
4	0x3f8b3abf	1.0877303
5	0x3f551aea	0.8324419
6	0xbe5267ed	-0.20547457
7	0x3f9845c8	1.1896296
8	0x400d8928	2.2114964
9	0x403aae63	2.9168937
10	0xbe9631ae	-0.29334778
11	0x3f11a3e6	0.56890714
12	0x3f5e4658	0.86826086
13	0x3f56d592	0.8391963
14	0x3cc4b4e5	0.024012038
15	0xbeef9d19	-0.46799543
16	0x3f865efe	1.0497739
17	0xbf8bed03	-1.0931705
18	0xbda376ca	-0.079816416
19	0x3ffcca2c	1.9749198
20	0x3f579a9b	0.84220284
21	0x3fd8859b	1.6915773
22	0x3f9b4e3d	1.2133251
23	0x4049f6cc	3.1556883
24	0x3fba2592	1.4542716
25	0x3e5e5e47	0.21715651
26	0xbe333ab0	-0.17502856
27	0xbe32a7d8	-0.1744684
28	0xbecaf1ea	-0.3963769
29	0x3f952e35	1.1654726
30	0xbe80a149	-0.2512305
31	0xbe702bff	-0.23454283
32	0xbe8e669f	-0.2781267
33	0x40381a29	2.8765967
34	0x40266f36	2.6005378
35	0xbf802cc4	-1.0013661
36	0x3f09d738	0.5384402
37	0x3ff7b7c0	1.9352951
38	0x3fda22a7	1.7041825
39	0xbe8cb88f	-0.27484557
40	0xbeadd7c0	-0.33953667
41	0xbf647bd9	-0.89251477
42	0x405123b3	3.267804
43	0x3ece663f	0.40312383
44	0x3fe90683	1.8205112
45	0x3f35a99b	0.7096192
46	0xbd0271fc	-0.031846985
47	0x3fa6f418	1.3043242
48	0xbed3fbb1	-0.41402963
49	0x400efa6d	2.2340348
50	0x3f796f0b	0.97435063
51	0x3f85f465	1.0465208
52	0xbebc9eb9	-0.36839846
53	0x3f56fb98	0.8397765
54	0x3fb24ea0	1.3930244
55	0x3e81a1e4	0.25318825
56	0xbd94ef5e	-0.07272218
57	0xc045c5f6	-3.0902076
58	0xbdac3253	-0.08408036
59	0xbf593c61	-0.84857756
60	0x3edddd8d	0.43333092
61	0x3fca91d4	1.5825753
62	0x3f1d0847	0.61340755
63	0x4019ea53	2.404927
64	0x3ea92f20	0.33043766
65	0x3f19a791	0.6002131
66	0x404eca88	3.2311115
67	0x3f2f94d0	0.68586445
68	0x401aa98d	2.4165986
69	0x3dd034bf	0.101663105
70	0xbf9c1148	-1.2192774
71	0xbfa4e255	-1.2881571
72	0x3f8f60d5	1.1201426
73	0x3fa87853	1.316172
74	0xbe0c331c	-0.13691372
75	0x3f59d725	0.8509391
76	0xbf057b01	-0.52140814
77	0xbe9555c7	-0.29167005
78	0xbec4df9a	-0.38451844
79	0x3fc7c818	1.5607939
80	0x3faabbaf	1.3338526
81	0x402a993f	2.6656034
82	0x3f14b907	0.5809483
83	0x3fb4ff26	1.4140365
84	0xbe2a7c5d	-0.16649003
85	0x3fa4b5b7	1.2867955
86	0xbf6c62c7	-0.9233822
87	0xbf0e74db	-0.5564706
88	0xc00b6a60	-2.1783676
89	0x403e7d15	2.9763844
90	0xbe1b7d36	-0.15184483
91	0xbd92d661	-0.07169796
92	0x3e69c95d	0.2283072
93	0x3fdc7fa4	1.7226453
94	0x4002b02a	2.0420022
95	0x401aeccc	2.420703
96	0x3f815b24	1.0105939
97	0x3e9ec095	0.31006303
98	0x3ed2ba83	0.41157922
99	0x3ff3aaff	1.9036559
100	0x403abf12	2.917912
101	0x3fd1f8a5	1.6404005
102	0x3f41edc0	0.757534
103	0x4068a45f	3.6350324
104	0xbf83373f	-1.0251235
105	0x3f9af8bf	1.2107161
106	0x3ff85f88	1.9404154
107	0x3fef6bc2	1.870476
108	0xbea025c7	-0.31278822
109	0x3ec6a615	0.38798586
110	0xbf85a012	-1.0439475
111	0x3f8084ce	1.0040529
112	0x3f3788ec	0.716933
113	0xbe57ce29	-0.21074738
114	0x3f713213	0.9421703
115	0x3f193187	0.598412
116	0xbdf82b5e	-0.12117647
117	0x40001845	2.0014813
118	0x3fc32dd8	1.5248365
119	0x3ca9338b	0.02065446
120	0x40104862	2.254418
121	0x3f4e8577	0.806724
122	0x3f08e66e	0.5347661
123	0x3d095d2d	0.033536125
124	0x3e32f1a0	0.17474985
125	0x3cc38f7a	0.023872126
126	0x3f0d030f	0.5508279
127	0xbf62c859	-0.88586956
128	0x3ef7a544	0.48368275
129	0x3fa00fed	1.250486
130	0x3f1a8385	0.6035693
131	0x3f607485	0.87677795
132	0xbdce15dd	-0.10062764
133	0x3fe9e216	1.8272121
134	0x3ec023e4	0.37527382
135	0xbfd98d49	-1.6996242
136	0x3e040cfe	0.12895581
137	0x3f44c5ff	0.7686462
138	0x3cf6efdd	0.030143673
139	0x3f529228	0.82254267
140	0x3f56fd6b	0.83980435
141	0x3f86a20d	1.0518204
142	0xbc7bff68	-0.015380718
143	0x3ed11cfe	0.40842432
144	0x3f40d3ba	0.7532307
145	0x3da9394c	0.08262882
146	0x3d72c20f	0.0592671
147	0x3fb3003a	1.3984444
148	0x3f6b3a05	0.91885406
149	0x3e9c4672	0.30522496
150	0x3d5560c9	0.052094255
151	0xbf3cc2e9	-0.7373491
152	0x3ee2ca4e	0.4429497
153	0x3e51c0d8	0.2048372
154	0x3bbb55af	0.0057170014
155	0x3f157f1d	0.58397084
156	0x3ee8f592	0.45499855
157	0x3dd726cd	0.105054475
158	0x3f9f1b6d	1.2430245
159	0x3e7df967	0.2480217
160	0x3e9f400c	0.3110355
161	0xbee31561	-0.44352248
162	0x3dd32412	0.10309614
163	0x3e9a9e71	0.30199006
164	0x3ee55601	0.44792178
165	0xbea55ba2	-0.32296473
166	0x3f2c7ac9	0.67374855
167	0x3e9b8ed8	0.3038242
168	0xbe7b2654	-0.2452634
169	0x3f4baa3b	0.79556626
170	0xbe3e6019	-0.18591346
171	0xbe05fea8	-0.13085425
172	0xbf82bbec	-1.0213599
173	0x3e8c3f1c	0.273919
174	0x3f639049	0.88892037
175	0xbe0c85cd	-0.13722916
176	0xbe360f7d	-0.17779346
177	0x3f101407	0.5628056
178	0x4000a241	2.0099032
179	0x3f4706df	0.7774486
180	0x3f97bf6f	1.1855296
181	0x3f16f9ad	0.58974725
182	0xbf0f7c40	-0.56048965
183	0x3e80a661	0.25126937
184	0xbddae230	-0.10687673
185	0x3fcc1e7f	1.5946807
186	0x3eee47d9	0.4653919
187	0x3f8d12cd	1.1021363
188	0x3daba605	0.08381275
189	0xbd795b2d	-0.060877968
190	0xbdf1d729	-0.11808617
191	0x3ea82114	0.32837737
192	0x3feb17d0	1.8366642
193	0x3e106a99	0.14103164
194	0x3e40f477	0.18843256
195	0x3fcbcbb4	1.592154
196	0x3f9f2d8b	1.2435774
197	0xbd88c858	-0.066788375
198	0x3e91a65c	0.28447235
199	0x3fdb4e6a	1.7133305
200	0xbfae350a	-1.3609936
201	0x3d613a41	0.054987196
202	0xbe2b1a1a	-0.16709176
203	0x3e05425a	0.13013592
204	0xbdf01f61	-0.11724735
205	0x3f0890c1	0.53345877
206	0x3e141bfd	0.14463802
207	0x3e198ce9	0.14995159
208	0x3f7ec938	0.99525785
209	0xbe782a97	-0.24234997
210	0x3ea95b5e	0.3307752
211	0x3f28a6cc	0.6587951
212	0x3ee05b48	0.43819642
213	0x3e9e1703	0.30876932
214	0x3f7401e0	0.9531536
215	0x3d0b3664	0.033987418
216	0xbe845a8c	-0.25850332
217	0x3d86892d	0.06569133
218	0x3db644ba	0.08899827
219	0xbd236863	-0.039894473
220	0x3f1b805b	0.6074273
221	0x3e1b97d7	0.15194641
222	0x3ce90bd9	0.028448032
223	0x3f0e8d5e	0.5568446
224	0x3e9259ac	0.2858404
225	0x3e4ed5e3	0.20198779
226	0x3f81982f	1.0124568
227	0xbe0c84c2	-0.13722518
228	0x3f511556	0.8167318
229	0x3e60ef7c	0.21966356
230	0x3f6d43a9	0.92681366
231	0x3ee12156	0.43970746
232	0x3fe31bd7	1.7742871
233	0xbdeed7b2	-0.11662234
234	0x3cacad79	0.021078812
235	0x4029728e	2.6476169
236	0x3ded1aa4	0.11577347
237	0x3dc3e351	0.095648415
238	0x3f731a17	0.94961685
239	0x3f59fe31	0.8515349
240	0x3e077938	0.13229835
241	0x3e5e17ef	0.21688817
242	0x3eb597da	0.35467416
243	0x3de137f7	0.109970026
244	0xbdce0280	-0.100590706
245	0x3e9c5de4	0.30540383
246	0x3da84fab	0.082183205
247	0x3e80309d	0.2503709
248	0x3e891598	0.26774287
249	0x3f12a1f6	0.5727838
250	0xbf1fdeb8	-0.62449217
251	0x3d4fab4d	0.050700475
252	0x3f9798ab	1.1843466
253	0x3a97ae45	0.0011572322
254	0xbe193fca	-0.1496574
255	0x3f4e75c7	0.80648464

_CNNDQN__fc2.bias f4 [128]
0	0x3e171339	0.14753427
1	0x3f347f36	0.7050661
2	0x3eb44198	0.35206294
3	0xbe69f2df	-0.22846554
4	0x3fdd2977	1.7278279
5	0x3eb2a20c	0.34889257
6	0x3f8a09c3	1.0784229
7	0xbe50c417	-0.20387302
8	0x3f382dc2	0.7194482
9	0x3dbd906b	0.09256061
10	0x3ceb6922	0.028736655
11	0x3e7bfd77	0.24608408
12	0xbe8ca94f	-0.27472922
13	0xbed5c80f	-0.41754195
14	0x3e9cb337	0.3060548
15	0x3e3b05ef	0.18263982
16	0x3e857a05	0.26069656
17	0x3db51adb	0.08843013
18	0x3e1a2e03	0.15056615
19	0xbd66e144	-0.056367174
20	0xbed70dba	-0.4200266
21	0xbe636688	-0.22207081
22	0x3f70eb53	0.94109076
23	0x3dba55af	0.09098374
24	0x3f35ec9f	0.7106418
25	0x3f7c5403	0.9856569
26	0xbf48524d	-0.7825058
27	0xbfb96a8f	-1.4485644
28	0x3e2ef898	0.17087018
29	0x3e6e9566	0.23299178
30	0x3ee810b9	0.45325258
31	0x3e32bdda	0.17455235
32	0xbdf42a5d	-0.11922143
33	0xbed1af5a	-0.40954095
34	0x3d8091c0	0.062777996
35	0x3e96b1e1	0.29432586
36	0x3d9e7209	0.07736594
37	0x3f1c7706	0.61119115
38	0x3e90c7eb	0.28277525
39	0x3ec2fd24	0.38083756
40	0x3f05a53c	0.5220525
41	0xbeb11ce1	-0.34592345
42	0xbf83f15e	-1.0308034
43	0x3ec93dc4	0.39304936
44	0xbe64e412	-0.22352627
45	0xbf5d42e5	-0.864302
46	0x3e8acf75	0.27111402
47	0xbf1582f5	-0.5840295
48	0x3ef1f2f9	0.47255686
49	0x3eff5628	0.4987042
50	0x3ea31f3b	0.31859764
51	0x3e2bac8d	0.16765042
52	0xbe8c7da8	-0.27439618
53	0x3c1a984d	0.009435725
54	0xbdbacd1b	-0.09121152
55	0xbea26864	-0.3172027
56	0xbaef9ef7	-0.0018281628
57	0x3e8a9081	0.27063373
58	0xbcd791ea	-0.026314694
59	0xbddff5a0	-0.10935521
60	0x3f4b9c31	0.79535204
61	0x3d9b5bee	0.075858936
62	0x3e2a87c1	0.16653349
63	0xbe58daab	-0.21177165
64	0xbe3755e2	-0.17903855
65	0x3d01401f	0.03155529
66	0x3f52d2a8	0.82352686
67	0xbe9c28e7	-0.30499956
68	0x3f03333c	0.5125005
69	0x3ca5c4a8	0.020235375
70	0x3ec06e36	0.37584084
71	0x3ea582b6	0.32326287
72	0x3e560cf6	0.20903382
73	0x3ef7d9ab	0.48408255
74	0x3eef722a	0.46766788
75	0xbe82a02d	-0.2551283
76	0xbf21638e	-0.63042533
77	0x3e1f690f	0.1556742
78	0x3f19a111	0.6001139
79	0x3e6efe03	0.23339085
80	0xbe62fe57	-0.22167335
81	0xbe1b434b	-0.15162389
82	0x3ec2af13	0.38024196
83	0x3ec4ba51	0.38423398
84	0x3d87c2b7	0.06628936
85	0x3e28e7d3	0.16494684
86	0x3f876545	1.057778
87	0x3e07c285	0.13257797
88	0x3eb9533c	0.36196315
89	0xbd9474a3	-0.07248809
90	0xbfacd977	-1.3503865
91	0x3fbdd870	1.4831676
92	0x3f2a8133	0.6660339
93	0x3f02afc6	0.5104946
94	0xbda4e45e	-0.0805137
95	0x3e4b36b9	0.19845094
96	0xbd56fa75	-0.05248495
97	0xbe3cfc99	-0.18455733
98	0xbe31f206	-0.17377481
99	0xbe763e0c	-0.24047107
100	0xbf4ba64d	-0.7955063
101	0x3fece6e6	1.8507965
102	0xbe143b7d	-0.14475818
103	0x3d9d0be0	0.076682806
104	0xbf0959e3	-0.5365278
105	0x3f2c373e	0.6727179
106	0x3f16bb22	0.5887929
107	0x3f6e18f6	0.9300684
108	0x3ede3931	0.4340301
109	0xbe378442	-0.17921546
110	0x3ea15054	0.31506598
111	0x3f049f22	0.5180532
112	0x3c92e5ad	0.017931784
113	0x3d2ad0db	0.041703086
114	0x3f89f1a5	1.0776869
115	0x3e247716	0.16061053
116	0xbe01193c	-0.12607282
117	0x3e7e05a2	0.24806836
118	0x3fd64602	1.6740115
119	0xbf6e1f64	-0.9301665
120	0x3ef5258f	0.47880217
121	0xbf3fce57	-0.74924225
122	0x3ead453a	0.33841878
123	0x3f2317df	0.637083
124	0xbe881a8c	-0.26582754
125	0x3f338c7d	0.70136243
126	0x3ead14a7	0.3380482
127	0xbe9e2f72	-0.30895573

_CNNDQN__fc3.weight f4 [128, 128]
0	0xbe6398f8	-0.22226322
1	0xbde0ba9f	-0.10973095
2	0xbf122570	-0.57088375
3	0x3f09c19d	0.53811055
4	0x3e2b17bf	0.16708277
5	0x3eef4b12	0.46736962
6	0xbdc8d4cf	-0.09806215
7	0xbebeb99c	-0.37250984
8	0x3e3bc7a5	0.18337877
9	0xbdbc7ff4	-0.092040926
10	0x3f208d61	0.6271573
11	0xbf146e33	-0.5798065
12	0xbd5e0f30	-0.054213703
13	0x3e90b493	0.28262767
14	0x3edd80b5	0.43262258
15	0x3e4d0e78	0.2002505
16	0xbe1eb2d7	-0.1549791
17	0xbe7c0834	-0.24612504
18	0xbf19908b	-0.5998618
19	0xbcafe276	-0.02147029
20	0x3f3220d6	0.69581354
21	0x3e9257c4	0.28582585
22	0x3d25715e	0.04039132
23	0x3e410f65	0.18853529
24	0xbef0d92a	-0.47040683
25	0xbda67a0e	-0.08128749
26	0x3eb53790	0.35393953
27	0x3d0e3960	0.034722686
28	0x3ec9e698	0.39433742
29	0xbefeb553	-0.49747714
30	0x3cc93e61	0.024565877
31	0x3dac5744	0.08415082
32	0x3e8a89dd	0.27058306
33	0x3d97d1d5	0.07413069
34	0x3e9a1bbb	0.30099282
35	0x3d10077e	0.035163395
36	0xbe9155b6	-0.28385705
37	0xbe327334	-0.17426759
38	0x3c158250	0.009125307
39	0xbe305006	-0.17218027
40	0x3ec3afd8	0.38220096
41	0xbd156c7f	-0.036480423
42	0x3e2a1b52	0.16611984
43	0xbec39457	-0.38199112
44	0x3f07f456	0.531072
45	0x3ea83b2a	0.3285764
46	0xbe1a3b56	-0.15061697
47	0xbe86bb40	-0.26314735
48	0x3edc46ac	0.43022668
49	0x3d9e9489	0.077431746
50	0x3d6137f3	0.054984998
51	0xbe4f4f61	-0.20245124
52	0x3ed751d9	0.42054632
53	0x3f4bed16	0.7965864
54	0x3e423735	0.18966372
55	0xbdff466e	-0.12464605
56	0xbe03adfb	-0.12859337
57	0xbeb74c29	-0.35800293
58	0x3e32cd77	0.17461191
59	0xbea4f32a	-0.3221677
60	0x3ebc31f2	0.36756855
61	0x3d58506e	0.05281108
62	0x3ce4b5b9	0.027918683
63	0x3dd2c00e	0.10290538
64	0xbd5e8dc7	-0.05433443
65	0xbd502f5b	-0.05082641
66	0xbeee9c55	-0.46603647
67	0xbfa0b51f	-1.2555274
68	0x3d4db611	0.05022246
69	0x3c909ea4	0.01765377
70	0xbf24d9a1	-0.64394575
71	0xbe21f5f7	-0.15816484
72	0xbe6670e4	-0.22504002
73	0x3e4f9602	0.20272067
74	0xbe51d80d	-0.20492573
75	0x3eb04244	0.34425557
76	0x3e4ef60c	0.20211047
77	0x3dc3c666	0.09559326
78	0x3e9260cf	0.28589484
79	0x3dcc50c8	0.09976345
80	0x3ed410d2	0.41419083
81	0xbf733360	-0.9500027
82	0xbe87021b	-0.26368794
83	0x3e64e8db	0.22354452
84	0xbee81ddc	-0.4533528
85	0xbe28f4fd	-0.16499706
86	0xbe585af1	-0.21128441
87	0xbd631489	-0.055439506
88	0xbe248ca5	-0.16069277
89	0xbf4c2b9c	-0.7975404
90	0x3eacd5a6	0.3375675
91	0xbde978c8	-0.1139999
92	0xbf186a10	-0.5953684
93	0xbf1524c6	-0.58259237
94	0xbd63e266	-0.055635832
95	0x3e13f25d	0.14447923
96	0xbf98c4ae	-1.1935022
97	0xbeb43cb7	-0.35202572
98	0x3f4c4854	0.79797864
99	0x3f161e62	0.5864011
100	0x3e856e65	0.26060787
101	0x3e29d0f1	0.16583611
102	0xbed30af1	-0.41219285
103	0x3f3056e5	0.6888259
104	0xbeeb571f	-0.45964906
105	0x3e9ae214	0.3025061
106	0xbddc7180	-0.10763836
107	0xbf557d65	-0.8339446
108	0x3cc02073	0.023452973
109	0xbddb7d47	-0.10717254
110	0xbeabac4c	-0.3352989
111	0xbd83a413	-0.06427779
112	0xbf03c538	-0.51472807
113	0xbe113c5d	-0.14183183
114	0x3cdd127c	0.026986353
115	0xbf09b609	-0.5379339
116	0x3dfb5dc2	0.12273742
117	0xbe879a3a	-0.26484853
118	0x3d79bc75	0.060970742
119	0xbecbb661	-0.39787582
120	0x3ea5340e	0.32266277
121	0x3e223abd	0.1584272
122	0xbc12c813	-0.008958834
123	0xbd1d1a96	-0.038355432
124	0xbf4f36f1	-0.8094321
125	0xbf25aacf	-0.6471376
126	0xbe8e2fc6	-0.27770823
127	0xbe9b8a48	-0.30378938
128	0xbe99e6a0	-0.30058765
129	0x3e147722	0.1449857
130	0xbf89ce83	-1.0766147
131	0xbf142628	-0.5787072
132	0xbf1343b2	-0.5752517
133	0x3e78ff5c	0.24316162
134	0x3e22e066	0.15905914
135	0x3d9fbb59	0.077994056
136	0xbf9e15e6	-1.2350433
137	0x3c8d27a0	0.017230809
138	0xbf4a251c	-0.78962874
139	0x3ee8d1a6	0.4547245
140	0xbe9fd1b3	-0.31214675
141	0xbf4a516b	-0.79030484
142	0xbe936785	-0.28789917
143	0xbf2f5668	-0.6849122
144	0xbdaef0a6	-0.08541994
145	0x3e9f3c64	0.31100762
146	0x3e022519	0.12709464
147	0xbec47cf9	-0.38376597
148	0xbfcd21b2	-1.6025908
149	0x3e38bbd4	0.180404
150	0x3fac849c	1.3477969
151	0xbfa7cf0b	-1.311006
152	0xbeaa4dfa	-0.33262616
153	0x3e8e5a2d	0.27803174
154	0xbedf4694	-0.43608534
155	0xbdd6baf6	-0.10484879
156	0xbec1e64f	-0.37871024
157	0xbf374681	-0.71591955
158	0xbf9c3ef7	-1.2206715
159	0xbdedcf05	-0.116117515
160	0xbe891702	-0.26775366
161	0x3f194b5b	0.5988061
162	0x3e26bdd6	0.16283354
163	0x3f5a4ebc	0.8527639
164	0xbf3b5def	-0.73190206
165	0xbc8136bb	-0.015773168
166	0xbfc4bd42	-1.5370257
167	0xbee0e1ec	-0.43922365
168	0xbe85a36e	-0.2610125
169	0xbe2a134e	-0.16608927
170	0xbf42305b	-0.75855035
171	0x3f5ef676	0.8709482
172	0xc00a6de3	-2.162957
173	0xbf88edca	-1.0697567
174	0xbd6501c7	-0.055909898
175	0xbf59cd27	-0.8507866
176	0x3aec2877	0.001801743
177	0xbfc00161	-1.5000421
178	0xbdb2d1ea	-0.08731444
179	0x3d749412	0.059711523
180	0xbfe03cf5	-1.7518603
181	0xbf7f36c5	-0.99692947
182	0xbf466870	-0.7750311
183	0xbf237fac	-0.63866687
184	0xbe762d36	-0.24040684
185	0xbec5a74a	-0.38604194
186	0x3ee3ee1c	0.445176
187	0xbee3ab5a	-0.44466668
188	0xbf5a9f44	-0.8539927
189	0x3e1c1434	0.15242082
190	0x3f09edc9	0.53878456
191	0xbf999bfc	-1.2000728
192	0xbf124c7f	-0.57147974
193	0x3d53798e	0.051629595
194	0xbf54c93d	-0.83119565
195	0xbf7d28ae	-0.988902
196	0xbf421ae6	-0.75822294
197	0x3df849a7	0.12123423
198	0xbf89abac	-1.0755515
199	0xbfcac03e	-1.5839918
200	0xbe9f1c91	-0.31076482
201	0x3ea47c2f	0.32125995
202	0xbf2ee134	-0.6831238
203	0xbfa120b1	-1.2588102
204	0xbf822c49	-1.0169765
205	0xbe15c74b	-0.14626805
206	0xbdf3fa7a	-0.11913009
207	0x3f69006c	0.9101627
208	0xbe91d6a2	-0.28484064
209	0xc0259958	-2.5874844
210	0xbf52d5e6	-0.82357633
211	0x3ec747d7	0.38921997
212	0xbf007333	-0.5017578
213	0xbf4fe32b	-0.81206006
214	0xbe0a96bc	-0.13534063
215	0x3e4e13c3	0.20124726
216	0x3f09ad6d	0.5378025
217	0x3e24f9b8	0.16110885
218	0xbf4b49b6	-0.7940935
219	0x3dbb31a6	0.09140329
220	0xbd2a546b	-0.041584413
221	0xbf45578e	-0.7708672
222	0xbf8d2b57	-1.1028851
223	0xbeefa807	-0.46807882
224	0xc043335e	-3.0500102
225	0xbf2ed074	-0.68286824
226	0xbeeb5a2b	-0.4596723
227	0x3da51b70	0.08061874
228	0xbf8d2778	-1.102767
229	0xbeebc001	-0.46044925
230	0xbf8b67fa	-1.0891106
231	0xc00a6a04	-2.1627207
232	0x3eac0d01	0.3360367
233	0x3f600259	0.8750358
234	0x3f9adcf4	1.209868
235	0xbe03dcf5	-0.12877257
236	0xbf2ff0c3	-0.6872675
237	0xbf4e1164	-0.80495286
238	0xbeaecf0e	-0.34142345
239	0x3e9adbd4	0.3024584
240	0xbe6debc0	-0.23234463
241	0xc01af5fc	-2.4212637
242	0xbe5bb46a	-0.21455541
243	0xbf1cb89f	-0.6121921
244	0xbe90acb1	-0.28256753
245	0x3e0c78a6	0.13717899
246	0xbf847bf4	-1.0350327
247	0xbf3aa99f	-0.7291507
248	0x3ecabf69	0.3959916
249	0x3d624be7	0.055248167
250	0xbf2ab9c8	-0.6668973
251	0x3d01223e	0.031526797
252	0xbfb210eb	-1.3911413
253	0xbead3445	-0.3382894
254	0xbf005ef4	-0.50144887
255	0x3e241317	0.16022907
