code/models/DuelingDQN/model180.pth (torch, 434555 bytes, 21 tensors)

_CNNDDQN__conv1.weight f4 [16, 1, 5, 5]
0	0x3c1349ee	0.008989794
1	0x3b19eab7	0.0023485848
2	0x3be818ec	0.007083049
3	0xbbafabe6	-0.005361068
4	0x3bc2830e	0.005936033
5	0xbba39cbe	-0.0049930504
6	0x3b1b1f79	0.0023669882
7	0x3b304c51	0.0026900957
8	0xba97abed	-0.0011571624
9	0xbbedfe8d	-0.007263011
10	0xbbc1f4cf	-0.005919076
11	0xbc2e0d3b	-0.010623272
12	0xbbf56edd	-0.0074900226
13	0x3b224487	0.0024760084
14	0x3c0547f4	0.008134831
15	0xbd936449	-0.07196862
16	0xbc60eb70	-0.013728008
17	0x3ac98e40	0.0015377477
18	0x3beae9f8	0.0071690045
19	0x3c592121	0.013252527
20	0x3e9a9d5a	0.30198175
21	0xbe3dea35	-0.18546374
22	0xbc149ddd	-0.009070841
23	0x39c84bbc	0.000382034
24	0x3ab4cae2	0.0013793374
25	0x3a9d2ca3	0.0011991452
26	0x3d28bf0d	0.041197825
27	0x3da1901d	0.078888156
28	0x3d8e043c	0.069344014
29	0x3c9580d0	0.0182499
30	0x3c327379	0.010891789
31	0x3d480528	0.048833042
32	0x3dbafca4	0.091302186
33	0x3d9aeeef	0.07565104
34	0x3d649e72	0.055815168
35	0x3d378b66	0.044810675
36	0x3da218f8	0.07914919
37	0x3d9edda6	0.0775712
38	0x3dadac50	0.084801316
39	0x3d2c40e0	0.042054057
40	0x3d32446e	0.04352229
41	0x3d59e308	0.05319503
42	0x3dab6511	0.08368886
43	0x3d4486f5	0.047980268
44	0x3d68e6c8	0.056860715
45	0x3d2490b9	0.04017708
46	0x3da1de32	0.079037085
47	0x3d8281d3	0.06372418
48	0x3dca4cd0	0.09877932
49	0x3d1defef	0.038558897
50	0x3f1e5723	0.6185171
51	0x3dd25fab	0.102721535
52	0x3ba17c71	0.0049281646
53	0x3b3a2795	0.002840494
54	0xbd582d1f	-0.052777406
55	0x3cd515cb	0.026011368
56	0x3b9d5227	0.004801053
57	0xbb181531	-0.002320599
58	0xbaba41de	-0.0014210304
59	0x3adfa751	0.0017063414
60	0x3bf1c89e	0.0073786518
61	0xb990e128	-0.00027633575
62	0x3bc72bce	0.00607822
63	0x3a96a7e9	0.0011494133
64	0xbb9f22ae	-0.004856429
65	0xbc0edcd0	-0.008719638
66	0xba7da68b	-0.0009676001
67	0x3b4fa5aa	0.0031684437
68	0xbb8cc28f	-0.004295654
69	0x3bb0da10	0.005397089
70	0xbcb9eab7	-0.022694929
71	0xbac4b285	-0.0015006816
72	0xbb37bb08	-0.0028035063
73	0xbb295a99	-0.0025841354
74	0xbd0f7e07	-0.0350323
75	0x3e86d793	0.26336345
76	0xba9275e5	-0.0011174051
77	0x3c806ae5	0.015675971
78	0xbbdb84f5	-0.0066991993
79	0xbc7e0b3e	-0.01550561
80	0xbe328560	-0.17433691
81	0x3c81bdec	0.015837632
82	0xba684a9b	-0.0008861215
83	0x3bb798f6	0.005602951
84	0x3cc2067c	0.023684733
85	0xbb97f4bb	-0.0046373284
86	0xbc1dfde8	-0.0096430555
87	0xbbb3f05c	-0.0054912996
88	0x3b68e3f5	0.0035536264
89	0x3b8f79b0	0.00437852
90	0x3a0c07ea	0.00053417555
91	0xba22415a	-0.0006189548
92	0xbab38e68	-0.0013699057
93	0xb9f8e035	-0.00047469293
94	0xbb243ade	-0.0025059502
95	0xbb563d06	-0.0032690181
96	0x3c206b59	0.009791219
97	0xbbb61642	-0.0055568526
98	0xbb52574a	-0.0032095485
99	0xbbbfeb02	-0.0058568725
100	0xbc844e3d	-0.016150588
101	0xba9ca424	-0.0011950773
102	0xbb0a0766	-0.0021061539
103	0x3b450b0f	0.0030066406
104	0x3b1c8c4c	0.0023887334
105	0xbba9fb9e	-0.005187466
106	0x3b17309c	0.0023069745
107	0xbc383fa4	-0.011245642
108	0x3a8b13d2	0.0010610765
109	0xbbcbb240	-0.0062163174
110	0xbbe8a86e	-0.0071001565
111	0x3c04e4d8	0.008111201
112	0xba08c953	-0.0005217988
113	0x3b2695f4	0.002541897
114	0x3c013052	0.007885056
115	0xbc012337	-0.007881931
116	0x3d739547	0.059468534
117	0x3c8994b3	0.016794538
118	0xba8b8ab0	-0.001064619
119	0xbb3b70ce	-0.0028601172
120	0xbde397a1	-0.11112905
121	0x3eb92f0f	0.36168715
122	0xbd460a5a	-0.048349716
123	0x3b7db53b	0.0038712758
124	0xbab85bc2	-0.0014065432
125	0x3c926b9a	0.017873574
126	0xbcb1406f	-0.02163717
127	0xbd109c45	-0.03530528
128	0x3e0e00b2	0.13867453
129	0xbe503418	-0.20332372
130	0x3b8d2840	0.0043077767
131	0x3b1c30dd	0.0023832836
132	0x3c01c4a2	0.007920416
133	0xbd3c59d7	-0.045984115
134	0x3cb91616	0.02259354
135	0x3c32c445	0.010911052
136	0x3c710a3e	0.014711915
137	0xbbae2961	-0.0053149913
138	0x3ca79f7e	0.020461794
139	0x3c360987	0.01111067
140	0xbc7c7b0c	-0.015410196
141	0x3c425d62	0.0118630845
142	0x3d850937	0.06495898
143	0x3d1d939d	0.038470853
144	0x3d0cbfd8	0.034362644
145	0x3d07aa30	0.033121288
146	0x3c307f83	0.010772589
147	0x3d518271	0.05114979
148	0xbdba60eb	-0.09100517
149	0x3e2231c4	0.15839297
150	0x3b8c1c4b	0.0042758337
151	0x3bb5e9b3	0.0055515408
152	0x3bbdad77	0.005788501
153	0x3c0e777b	0.008695479
154	0xbb634e01	-0.0034683945
155	0xb9403a9c	-0.0001833238
156	0x3cb26726	0.0217777
157	0x3b422500	0.0029624104
158	0x3b917874	0.004439408
159	0x3c321607	0.01086951
160	0x3b2467fa	0.002508639
161	0x3b906959	0.0044070897
162	0x3c1d707a	0.009609336
163	0x3b204dc8	0.0024460424
164	0x3b8262ed	0.003979078
165	0xbba34fa1	-0.0049838577
166	0x3bf35698	0.0074260943
167	0xbbbb9c1a	-0.005725396
168	0x3c9642af	0.018342344
169	0x3c46bcb4	0.012129951
170	0x3b1802fd	0.002319514
171	0xbbacf161	-0.005277798
172	0xbc204695	-0.009782453
173	0xbe39f590	-0.18160081
174	0x3e81969b	0.25310215
175	0x3bf4db61	0.007472441
176	0x3c0e688f	0.008691921
177	0xbc5677f5	-0.013090123
178	0x3c0e24f8	0.008675806
179	0xbd7e7db1	-0.062131587
180	0xbb89fd50	-0.0042111054
181	0x3c840870	0.016117305
182	0x3b9c37e6	0.004767406
183	0x3c4567ce	0.012048675
184	0x3e880741	0.26568034
185	0x3c32f2f5	0.010922183
186	0x3bcd8ec3	0.006273122
187	0xbad29dae	-0.0016068721
188	0xbc931477	-0.017954094
189	0xbe1c3462	-0.15254357
190	0xbbbf5d34	-0.005839968
191	0x3a6bce52	0.00089952827
192	0x3b04b382	0.0020248597
193	0x3bcaab8e	0.0061850017
194	0xbb80cefd	-0.003930925
195	0xb9f8e33c	-0.0004747155
196	0x3b7d0161	0.0038605558
197	0x3b391605	0.0028241884
198	0x3c32ed16	0.0109207835
199	0x3bbbe8e5	0.0057345503
200	0x3a0923ae	0.0005231452
201	0xb9c360e7	-0.00037265496
202	0xbba7f351	-0.005125441
203	0xbe43da83	-0.19126324
204	0x3e6d2278	0.2315768
205	0xbc27cfd7	-0.010242424
206	0xbb7e8b52	-0.0038840366
207	0xbc81c60c	-0.015841506
208	0xbc36e4e8	-0.011162974
209	0x3d40c455	0.047062237
210	0xbaa410ad	-0.0012517177
211	0xbb212ffa	-0.0024595247
212	0xbc11a16e	-0.0088885855
213	0x3c692653	0.014230329
214	0x3a0a2698	0.0005270033
215	0xbb5fcd3e	-0.0034149433
216	0x3b341a17	0.002748137
217	0x399906f6	0.0002918762
218	0x3aaa234a	0.0012980488
219	0xbbb01586	-0.0053736595
220	0xbb4148a5	-0.0029492762
221	0xba79578d	-0.0009511642
222	0xbbb97839	-0.0056600836
223	0xbb6eae97	-0.0036419982
224	0x3b6eafd5	0.0036420722
225	0xbaa61de2	-0.0012673701
226	0xbb43bb87	-0.0029866414
227	0xbb07e700	-0.0020737052
228	0x3b61d0c9	0.003445672
229	0xbccb005f	-0.02478045
230	0x3ba130fb	0.004919169
231	0x3c47431c	0.012161996
232	0xbb0231df	-0.0019866151
233	0xbb90124a	-0.0043967115
234	0x3b9e8435	0.0048375377
235	0xbbd18831	-0.006394409
236	0x3bf10b0a	0.0073560523
237	0xba0507e6	-0.00050747243
238	0xba7bc1a0	-0.00096037425
239	0x3bc5eb6f	0.0060400288
240	0xbdc9fa6e	-0.09862219
241	0xbac2400c	-0.0014820113
242	0x3c2619c1	0.010137976
243	0x3c20962b	0.009801428
244	0xbb2003db	-0.002441636
245	0x3f24ec90	0.64423466
246	0x3e20851b	0.15675776
247	0x3c21d78b	0.00987805
248	0x3ca7f048	0.020500317
249	0xbbdb9d0f	-0.0067020725
250	0xbac46cc8	-0.0014986033
251	0xba99e725	-0.001174186
252	0x3b0d7e93	0.0021590337
253	0xbbbd5b19	-0.005778682
254	0x3b616034	0.0034389617
255	0x3a9bfc76	0.0011900801

_CNNDDQN__conv1.bias f4 [16]
0	0xbde505e3	-0.111827634
1	0xbe22d9a2	-0.15903333
2	0xbe6696e2	-0.22518495
3	0xbe03f99f	-0.12888192
4	0xbe206653	-0.15664034
5	0xbbecea75	-0.007230098
6	0xbdf82567	-0.12116509
7	0xbdeaf8c9	-0.11473233
8	0xbdcefbc6	-0.10106616
9	0xbe8e1008	-0.27746606
10	0xbe656499	-0.22401656
11	0xbdbc633f	-0.09198617
12	0xbe4a283a	-0.19741908
13	0x3d909c9b	0.0706112
14	0xbeb521b8	-0.35377288
15	0xbdf22027	-0.11822539

_CNNDDQN__conv2.weight f4 [32, 16, 3, 3]
0	0xbea61525	-0.32438007
1	0xbfded414	-1.7408471
2	0xbf5fdbfe	-0.87445056
3	0xbd2cfb36	-0.04223176
4	0xbeb17b6a	-0.3466447
5	0x3ec65612	0.3873754
6	0xbe92b6f1	-0.28655198
7	0xbf199296	-0.599893
8	0xbf71a60a	-0.9439398
9	0xbe876971	-0.26447633
10	0x3d31c8b2	0.04340429
11	0xbe85a753	-0.2610422
12	0x3e2b3dfc	0.16722864
13	0x3df0ba45	0.11754278
14	0x3e494085	0.19653518
15	0xbe8db718	-0.27678752
16	0xbd96a5f3	-0.07355871
17	0xbe2bad3c	-0.16765302
18	0xbe7ba4dd	-0.24574609
19	0xbf5da3fb	-0.8657834
20	0xbf291bc2	-0.6605798
21	0x3f272b68	0.6530061
22	0x3f8968f5	1.0735155
23	0x3f0bd453	0.54620856
24	0xbc53a010	-0.01291658
25	0xbe9257a3	-0.28582487
26	0xbe259dc9	-0.16173472
27	0xbe01aee4	-0.12664372
28	0x3ed89e64	0.42308342
29	0x3e90762b	0.28215155
30	0xbd1e067d	-0.038580406
31	0x3e10f691	0.14156558
32	0x3e954872	0.29156834
33	0xbec241ff	-0.37940976
34	0xbef21fe1	-0.47289947
35	0xbe143841	-0.14474584
36	0x3f08197d	0.5316389
37	0xbf12e809	-0.5738531
38	0xbc2057ab	-0.009786527
39	0xbf3f328f	-0.7468652
40	0xbf38b9dd	-0.72158605
41	0x3fc3af8b	1.5287946
42	0xbfa5f35b	-1.2964891
43	0xbd934a71	-0.07191933
44	0xbd29aec7	-0.041426446
45	0x3dcf9730	0.101362586
46	0x3e7c7743	0.2465487
47	0x3cba93df	0.022775589
48	0x3e8bf527	0.27335474
49	0xbd26aff8	-0.04069516
50	0xbebb108e	-0.36536068
51	0x3ddc19c1	0.107471
52	0xbc303c5f	-0.010756581
53	0xbcd3a605	-0.025836
54	0xbfd9678e	-1.6984727
55	0xbf064a8c	-0.524575
56	0x3ef8e662	0.48613268
57	0xbe51487b	-0.20437805
58	0x3f102aaf	0.5631513
59	0xbffa20c8	-1.9541254
60	0xbe8b5902	-0.27216345
61	0x3ec73c3d	0.38913146
62	0x3f53f16f	0.82790273
63	0x3e0ccaec	0.13749284
64	0x3f756360	0.9585476
65	0xbf9fc0a6	-1.2480667
66	0x3f978884	1.1838536
67	0x3f9a8a4d	1.2073456
68	0xbca69fb8	-0.020339832
69	0x3f995ce8	1.1981478
70	0x3fff7a00	1.9959106
71	0x3ec0c13e	0.37647432
72	0x3f409085	0.7522052
73	0x3f9c47fe	1.220947
74	0x3e255b75	0.1614817
75	0x3f31f57c	0.69515204
76	0xbfc099cf	-1.5046939
77	0xbdc55df6	-0.09637062
78	0xbfa068b0	-1.2531948
79	0xbf1ddfcf	-0.6166963
80	0xc000c3de	-2.0119548
81	0x3dccbc67	0.099968724
82	0x3eece642	0.46269423
83	0x3f3553a3	0.70830745
84	0x3f38144c	0.7190597
85	0x3fbc00ee	1.4687784
86	0x3f8102bd	1.0078961
87	0x3e907d7d	0.2822074
88	0x3f1db542	0.616047
89	0x3e9744f4	0.29544795
90	0x3f361585	0.71126586
91	0xbe6eb95e	-0.233129
92	0x3d91d5f3	0.07120886
93	0xbec72c2d	-0.3890089
94	0x3f1cb9da	0.61221087
95	0x3f6141a3	0.8799078
96	0x3ef49027	0.4776623
97	0xbd6b618c	-0.057466075
98	0x3e4b43fc	0.19850153
99	0xbe593842	-0.21212867
100	0xc0075535	-2.1145756
101	0xbfac2a3c	-1.3450389
102	0xbe646d0f	-0.22307228
103	0xbff32299	-1.8994933
104	0x3f53c57d	0.8272322
105	0x3f5966fe	0.8492278
106	0x3e3273c4	0.17426974
107	0x3df99a64	0.12187651
108	0x3ef6c492	0.48196846
109	0x3ed0d7e0	0.407897
110	0xbee005e6	-0.437545
111	0x3f1c248c	0.60993266
112	0x3f86ae62	1.0521967
113	0x3ec3c169	0.38233498
114	0x3eca9207	0.39564535
115	0x3ecaf5aa	0.39640552
116	0xbd192b5a	-0.03739486
117	0x3ec9e6ef	0.39434
118	0x3d7828dc	0.06058584
119	0xbd1cfae8	-0.03832522
120	0x3e754e28	0.23955595
121	0xbec0f9f6	-0.37690705
122	0x3eae3501	0.34024814
123	0x3d29dfc3	0.04147316
124	0xbcae0513	-0.021242654
125	0x3e1c10cf	0.15240787
126	0xbd036b0d	-0.032084513
127	0x3e86f3b0	0.26357794
128	0x3d80295d	0.062578894
129	0x3e732cf0	0.23747611
130	0x3d37974b	0.04482202
131	0xbc970556	-0.018435162
132	0xbf20a85a	-0.62756884
133	0xbe9dfc4b	-0.30856547
134	0xbe90cb5c	-0.2828015
135	0x3d0581ee	0.032594614
136	0x3da2e4e6	0.07953815
137	0x3e18882a	0.14895692
138	0x3d8f08bc	0.06984088
139	0xbdb08606	-0.08619313
140	0xbdc08421	-0.094002016
141	0xbd0b8e46	-0.03407123
142	0x3dbcf015	0.092254795
143	0x3dcc31a0	0.09970403
144	0x3c9c09a6	0.01904757
145	0x3eb8452b	0.3599027
146	0x3e93828a	0.2881053
147	0x3f9ac77f	1.2092131
148	0x3e2905a5	0.1650606
149	0x3f0f772d	0.5604122
150	0x3fb4e0c2	1.4131091
151	0x3f1c006e	0.60938156
152	0x3e8654d4	0.26236594
153	0xbd51b6b4	-0.05119963
154	0xbd39c01c	-0.045349225
155	0x3d939000	0.072052
156	0x3e13373d	0.1437654
157	0xbd931f78	-0.071837366
158	0x3d124b3d	0.035716284
159	0xbdd1d664	-0.1024597
160	0x3dcf3967	0.101183705
161	0x3db0f821	0.08641077
162	0xbee8c21d	-0.45460597
163	0x3eeaaf8d	0.4583706
164	0xbccb415f	-0.024811445
165	0xbfc8989b	-1.5671571
166	0x3f72c736	0.9483522
167	0xbe75c496	-0.24000773
168	0x3da67875	0.08128444
169	0xbec79e3b	-0.38987908
170	0x3db1bf8d	0.086791135
171	0x3f93b3b2	1.1539214
172	0xbd63ef77	-0.055648293
173	0x3f09eb48	0.53874636
174	0x40209f9e	2.5097423
175	0x3e1687db	0.14700262
176	0xbd1efb77	-0.038814034
177	0x3e6bafb3	0.23016243
178	0xbf2a4526	-0.6651176
179	0xbbb51df8	-0.005527254
180	0x3de3ae4f	0.11117231
181	0xbc9b809a	-0.01898222
182	0x3dd3f7a9	0.10349972
183	0x3ec866dc	0.39140975
184	0xbcd6f8a7	-0.026241614
185	0x3d53d3f3	0.051715802
186	0x3f051c4f	0.5199632
187	0x3f97e29b	1.186603
188	0x3d63ea0e	0.055643134
189	0xbc8627bf	-0.016376374
190	0xbca382f1	-0.019959899
191	0xbc8e1a99	-0.017346667
192	0x3e13dc5d	0.1443953
193	0x3bbedaa2	0.005824403
194	0xbd5acc16	-0.053417288
195	0xbd32d561	-0.043660525
196	0x3cc8b2df	0.024499355
197	0xbc79eb04	-0.015253786
198	0x3e18bcc2	0.14915755
199	0xbbf9c005	-0.0076217675
200	0x3de831c0	0.11337614
201	0x3e4e25e6	0.20131645
202	0x3e4bed83	0.19914822
203	0x3dca68a2	0.098832384
204	0x3d2f5bdb	0.04281221
205	0x3ec3f44a	0.38272315
206	0xbd78db87	-0.060756233
207	0xbe12742d	-0.1430213
208	0xbd4b01a6	-0.04956212
209	0xbe1a393a	-0.15060893
210	0xbd39c597	-0.045354452
211	0xbdd7784f	-0.10520994
212	0x3ccd4f19	0.02506213
213	0x3d9c3fbb	0.07629343
214	0x3d78d198	0.06074676
215	0xbd45e9a7	-0.04831853
216	0x3ddb515b	0.10708877
217	0xbc9f2105	-0.019424925
218	0x3e464a29	0.19364227
219	0x3e7b9606	0.24568948
220	0x3e48a8b1	0.195956
221	0x3cfec14b	0.031098029
222	0x3e13ff68	0.14452899
223	0x3e7bac68	0.24577487
224	0x3e02f9ed	0.12790652
225	0x3dca7c1d	0.09886954
226	0xbd7e50d5	-0.062088806
227	0xbc7d7c72	-0.015471565
228	0xbf0131ae	-0.5046643
229	0x3f125858	0.5716605
230	0xbf3fd75b	-0.7493798
231	0xbf09c0d1	-0.5380984
232	0x3e1d07b2	0.15334967
233	0xbf2e0586	-0.6797718
234	0x3c83246d	0.01600858
235	0x3ac42156	0.0014963548
236	0x3c9251cb	0.017861268
237	0xbcdba565	-0.026812265
238	0xbdcfba00	-0.101428986
239	0x3a1af1e0	0.0005910676
240	0x3cfdc84f	0.030979304
241	0xbdf11a69	-0.117726155
242	0xbc69b7f2	-0.014265047
243	0x3f8ef68c	1.116899
244	0x3e0ce1e5	0.13758047
245	0x3d46a3e6	0.04849615
246	0x3eb19221	0.346818
247	0x3ec17ecd	0.37792054
248	0x3f1ad184	0.60475945
249	0x3d35bf8e	0.044372134
250	0xbe2d58fa	-0.16928473
251	0x3e24148f	0.16023467
252	0x3dacaa3e	0.084309086
253	0xbabe5003	-0.0014519695
254	0xbca74e35	-0.020423034
255	0x3db8e198	0.090274036

_CNNDDQN__conv2.bias f4 [32]
0	0xbef4b8c4	-0.47797215
1	0xbd261330	-0.040545642
2	0xbe27f6c3	-0.16402726
3	0xbe32dee9	-0.17467846
4	0x3e8dcd6e	0.27695793
5	0xbe2abbb9	-0.16673173
6	0xbcf9f9cb	-0.030514618
7	0xbddad065	-0.10684279
8	0xbe2cf6cd	-0.16891022
9	0xbe5941c6	-0.21216497
10	0xbe00a3cd	-0.12562485
11	0xbe82bb78	-0.25533652
12	0xbd2aed60	-0.041730285
13	0xbd5c0bb9	-0.053722117
14	0xbdb17201	-0.08664323
15	0xbe6f95d9	-0.23397006
16	0xbf7771d1	-0.96658045
17	0x3efc9465	0.49331966
18	0xbd9b9ca2	-0.07598235
19	0xbed1a9dc	-0.40949905
20	0xbd6f386d	-0.05840342
21	0xbd02a47e	-0.031895153
22	0xbd6d8a95	-0.05799349
23	0xbe118381	-0.14210321
24	0xbfb4f114	-1.4136071
25	0xbe734a28	-0.23758757
26	0xbbfe7de1	-0.007766471
27	0xbd9b1d94	-0.07574001
28	0xbdfe790c	-0.124254316
29	0xbd6e99e3	-0.058252227
30	0xbdc74930	-0.09730756
31	0xbdb2adfe	-0.087245926

_CNNDDQN__conv3.weight f4 [64, 32, 3, 3]
0	0x3e623589	0.22090735
1	0x3f5273b3	0.82207793
2	0x3fdfd205	1.7485968
3	0x3f270053	0.6523487
4	0x3fb89412	1.4420187
5	0x3ddd9af9	0.10820574
6	0x3ed0f224	0.4080974
7	0x3fd547b5	1.6662508
8	0xbec3e12c	-0.3825773
9	0x3e96bacf	0.294394
10	0xbd9d039c	-0.07666704
11	0xbf66fddc	-0.9023111
12	0x3e36578a	0.17806831
13	0xbf0b9f02	-0.545395
14	0xbf8d0640	-1.1017532
15	0x3ef3139e	0.47475904
16	0xbee4152a	-0.44547397
17	0xbf82d718	-1.0221891
18	0x3f6792bd	0.9045828
19	0x3e8ce3f9	0.2751768
20	0xc05d868e	-3.4613376
21	0x3f5b1e2b	0.8559291
22	0x3e6d7e3c	0.23192686
23	0xbf2d8ba4	-0.677912
24	0x3fbaf30f	1.4605426
25	0x3f8d8c0f	1.1058367
26	0xbf30010b	-0.6875159
27	0x40000902	2.0005498
28	0x3fd73d16	1.6815517
29	0xbe8922c9	-0.2678435
30	0x400fbf36	2.2460456
31	0x3ff1bf22	1.8886454
32	0xc013fa28	-2.3121433
33	0x40475adb	3.1149204
34	0x4031f55d	2.7806008
35	0xbfee6eca	-1.862756
36	0xbe8cc8b8	-0.27496886
37	0x3ef39ede	0.47582144
38	0x3aa82efd	0.0012831386
39	0xbe992d82	-0.29917532
40	0x3e21ba25	0.15793665
41	0xbdeb6893	-0.11494555
42	0xbe9dbfd9	-0.3081043
43	0x3e8e6c61	0.27817062
44	0x3e288043	0.16455178
45	0x3fc425ec	1.5324073
46	0x3e337975	0.17526801
47	0xc061e665	-3.5296872
48	0x3fd8cb7a	1.6937096
49	0x3e7c2679	0.24624051
50	0xc0874121	-4.2267003
51	0x3fc9bb3d	1.5760266
52	0x3d167fa4	0.03674282
53	0xc01ec82c	-2.4809675
54	0x3e8b6dd6	0.27232236
55	0xbea61b33	-0.32442626
56	0xbfb99c56	-1.4500835
57	0x3f9dd6f0	1.2331219
58	0xbeafd2e4	-0.34340584
59	0xbfe4de80	-1.7880402
60	0x3fb6063d	1.4220654
61	0x3d4a1d76	0.049344502
62	0xbfc1534d	-1.5103546
63	0x3f4dfb2b	0.80461377
64	0x3e123bb0	0.14280581
65	0xc02cf431	-2.7024043
66	0x3fc313bc	1.5240397
67	0x3ebcec64	0.36899102
68	0xbfdf2535	-1.743323
69	0x3f8f620c	1.1201797
70	0x3f92761b	1.1442293
71	0xbe1d6e19	-0.1537403
72	0xbfe60538	-1.7970343
73	0xc097b391	-4.7406697
74	0xc0aebd76	-5.4606276
75	0xc0332e38	-2.799696
76	0xc0a7c399	-5.2426267
77	0xc0a07177	-5.0138507
78	0xc00be4c1	-2.185837
79	0xc0481f69	-3.1269171
80	0xc01ee326	-2.482614
81	0xbea1330a	-0.31484252
82	0xbfc70778	-1.5549154
83	0xc03727e1	-2.861809
84	0xbf441429	-0.7659326
85	0xbff93283	-1.946854
86	0xc07c1384	-3.9386911
87	0xbf6830fd	-0.9069975
88	0xc0309484	-2.7590647
89	0xc0cab08a	-6.33405
90	0xbcffd4f0	-0.031229466
91	0x3e188ad2	0.14896706
92	0x3f52011a	0.8203293
93	0x3e1e1b54	0.15440112
94	0x3ea3e415	0.3200995
95	0x3f17ea0f	0.5934152
96	0xbe83e815	-0.25763002
97	0x3e0339ed	0.12815066
98	0x3f19f551	0.6013995
99	0x3f5d87c5	0.8653529
100	0xbe91bd2d	-0.28464642
101	0xbfa7066c	-1.3048835
102	0x3dfb8533	0.12281265
103	0xbe009704	-0.12557608
104	0xbfa12867	-1.2590455
105	0x3d434559	0.047673557
106	0xbec2696c	-0.37971056
107	0x3eb7698b	0.3582271
108	0xbfdbcc19	-1.7171661
109	0xc083be12	-4.116952
110	0xc090bdd5	-4.523173
111	0xbfbe8f05	-1.4887396
112	0xc03e19e8	-2.9703312
113	0xbfcffd29	-1.6249133
114	0xbfbdcf86	-1.4828956
115	0xc047332d	-3.1124985
116	0xc02ef279	-2.7335494
117	0x3e2bcb6b	0.16776817
118	0xbe665c47	-0.22496139
119	0xbf9bc5d0	-1.2169743
120	0xbdf05e25	-0.11736707
121	0xbefa9339	-0.48940447
122	0xbf8455e8	-1.0338717
123	0xbeadcff6	-0.33947724
124	0xbf466923	-0.77504176
125	0xbf575cfd	-0.84126264
126	0xbf881c7d	-1.0633694
127	0xbf9e6e07	-1.2377328
128	0xc08eaf2d	-4.458884
129	0xc0273a93	-2.61295
130	0xc02add38	-2.6697521
131	0xc0b24932	-5.571435
132	0xc0014c6f	-2.0202901
133	0xc0410481	-3.0159
134	0xc0a7d606	-5.244876
135	0x40493235	3.1436894
136	0x402406bd	2.5629113
137	0xc02280f3	-2.5391204
138	0x4014d14d	2.3252747
139	0x4007955c	2.1184912
140	0xbf9c5a02	-1.2214968
141	0x3ffcc4ed	1.9747597
142	0x3fd9dc82	1.7020419
143	0xbf752429	-0.957583
144	0xbf6482da	-0.89262164
145	0x3f0471a0	0.5173588
146	0xbefefcb4	-0.49802172
147	0xbf3a4636	-0.72763383
148	0x3f485d11	0.7826701
149	0xbf8fb1c6	-1.1226127
150	0x3d01cf23	0.03169168
151	0xbebe0bf3	-0.37118492
152	0xbf03bd03	-0.51460284
153	0x3e0eb875	0.13937552
154	0xbe2155cc	-0.15755385
155	0xbf1b48d2	-0.6065799
156	0x3e6547cc	0.2239067
157	0xbe5dbfec	-0.21655244
158	0xbef6454b	-0.4809974
159	0x3f24a2dd	0.6431101
160	0xbe9587ba	-0.29205114
161	0xbda6f2fd	-0.08151815
162	0xbee993c9	-0.45620564
163	0xbed22e23	-0.41050825
164	0xbf39ead0	-0.7262392
165	0xbe6496a9	-0.22323097
166	0xbf906b10	-1.1282673
167	0xbf8c40b9	-1.0957252
168	0x3e141e7a	0.14464751
169	0xbf15e66a	-0.5855471
170	0xbf19ad95	-0.6003049
171	0x3d6cb5fe	0.05779075
172	0x3dbf80ed	0.093507625
173	0xbf2336f3	-0.6375572
174	0xbe19e071	-0.15027024
175	0xbefd443b	-0.49466118
176	0xbf6b6995	-0.9195798
177	0xbe97a320	-0.29616642
178	0xbf0d2dcb	-0.55148
179	0xbfba5112	-1.4555991
180	0x3fb47814	1.4099145
181	0x3f70d107	0.9406895
182	0x3e2344f9	0.1594428
183	0x4002803c	2.0390768
184	0x3f991823	1.1960491
185	0xbde32416	-0.11090867
186	0x402731f7	2.6124246
187	0x3fe5a6bb	1.7941507
188	0xbfd1cdb8	-1.6390905
189	0x3f034f27	0.5129265
190	0xbcd5c105	-0.026093015
191	0x3f10fd36	0.5663637
192	0x3f4d8735	0.80284435
193	0xbdf836cd	-0.121198274
194	0x3f19cdb0	0.6007948
195	0x3f534f0a	0.8254248
196	0xbefd77b0	-0.49505377
197	0xbd353e59	-0.044248912
198	0x3ff6d4d1	1.9283696
199	0x3fdceb5c	1.7259326
200	0xc06f5ca2	-3.7400289
201	0x3fcb985c	1.5905871
202	0x3f7848c7	0.9698605
203	0xbf13222f	-0.57474035
204	0x4017014d	2.3594544
205	0x3f6b63db	0.9194924
206	0xbe4a85a0	-0.19777536
207	0x400aeb8d	2.1706269
208	0x3f8dc77d	1.1076504
209	0xbfa49508	-1.2857981
210	0x4035ab0c	2.8385649
211	0x3f76270d	0.96153337
212	0x3da8c305	0.08240322
213	0x3ffabd69	1.9589053
214	0x3fa2413f	1.2676162
215	0x3edf8ee9	0.4366372
216	0xbeab4d9a	-0.33457643
217	0x3ecfc141	0.4057713
218	0x3f82e9c1	1.0227586
219	0xbeede07e	-0.46460336
220	0x3e9b220a	0.30299407
221	0x3fa435ec	1.2828956
222	0xbf324dbe	-0.69649875
223	0x3ee48225	0.44630542
224	0x3f39fd76	0.72652376
225	0xbef77ec1	-0.48338893
226	0xc0144b7e	-2.3171077
227	0xc07615f2	-3.8450894
228	0x3eb46a97	0.35237572
229	0xbfb20d48	-1.3910303
230	0xc034dafc	-2.8258657
231	0x3da43a3e	0.08018921
232	0xbf428ef9	-0.7599941
233	0xc04a2108	-3.158266
234	0xbfc061df	-1.5029868
235	0xbf46e014	-0.77685666
236	0xbf8f3631	-1.1188413
237	0xbfac698d	-1.3469712
238	0xbeab2449	-0.3342612
239	0xbff7b620	-1.9352455
240	0xbf52d622	-0.8235799
241	0xbe216c73	-0.15764026
242	0xbfd74bd1	-1.6820012
243	0x3fb158cf	1.3855227
244	0x3f9e95a7	1.238942
245	0xc00fb855	-2.2456257
246	0x3fc94ca5	1.5726515
247	0x3f127e43	0.5722391
248	0xbf6d6467	-0.92731327
249	0x3fa47832	1.2849181
250	0x3efc26e7	0.4924843
251	0xbff33ca2	-1.9002879
252	0xbf0d4170	-0.55177975
253	0xbcb19a17	-0.021679921
254	0xbe6541e1	-0.22388412
255	0xbe8146f9	-0.2524946

_CNNDDQN__conv3.bias f4 [64]
0	0xbfb2aa98	-1.3958311
1	0x3e8f1e4b	0.279528
2	0x3ece1f01	0.4025803
3	0xbf8f6f17	-1.1205777
4	0xbc3ba487	-0.011452801
5	0xbea206df	-0.31645867
6	0xbec12a3c	-0.37727535
7	0xbcd0e1cb	-0.025498291
8	0xbf11051b	-0.56648415
9	0xbe08d149	-0.13361086
10	0xbd9e6506	-0.077341124
11	0xc0011d8d	-2.0174286
12	0x3ee66230	0.44996786
13	0x3e7e1012	0.24810818
14	0xbf91e231	-1.1397153
15	0xbfbc3fba	-1.4706948
16	0xc027f5b2	-2.624371
17	0x3db45e7e	0.088070855
18	0xbfac9be1	-1.348507
19	0xbf023aad	-0.5087078
20	0x3ec7ab68	0.3899796
21	0xc009ca8d	-2.1529877
22	0x3f7620f3	0.96144027
23	0xbf949d3c	-1.1610484
24	0x3fd6d128	1.678258
25	0xbf6326f8	-0.88731337
26	0x3e3ec32d	0.18629141
27	0x4008c2ff	2.1369016
28	0xbfefb407	-1.8726815
29	0x3f21fff5	0.63281184
30	0xbf9af8d0	-1.2107182
31	0xbf00ebc1	-0.5035973
32	0xbfbf7ef0	-1.4960613
33	0x3f8d73a1	1.1050912
34	0x3f93a6fb	1.1535333
35	0xbf3ff9ee	-0.7499074
36	0x3f8298aa	1.0202839
37	0xbf148edc	-0.58030486
38	0xc00cd24b	-2.2003353
39	0x3d510364	0.051028624
40	0xbe9122c6	-0.28346843
41	0xbf0d49f2	-0.55190957
42	0xbf14d71f	-0.5814075
43	0x3ea0ba99	0.31392363
44	0xbc1ed327	-0.009693897
45	0xbf14bc67	-0.5809998
46	0xbfa56ea6	-1.2924392
47	0xbf341982	-0.7035142
48	0x3ea70958	0.32624316
49	0xbe82ff23	-0.2558528
50	0xbfbb172b	-1.4616445
51	0xbf023bce	-0.50872505
52	0xbfb02639	-1.3761665
53	0x3cc90b47	0.02454151
54	0xbf3c0399	-0.7344299
55	0x3ee78e96	0.45225972
56	0xbeabd44d	-0.3356041
57	0x4087506d	4.2285676
58	0xbfb4b0a0	-1.4116402
59	0xbedee493	-0.43533763
60	0xbf9c2e29	-1.2201587
61	0xbf09c396	-0.53814065
62	0x3e7aec38	0.24504173
63	0xbf860087	-1.0468911

_CNNDDQN__fc1Value.weight f4 [128, 64]
0	0x3d742d20	0.059613347
1	0xbee94eee	-0.4556803
2	0x3f5b7327	0.85722584
3	0x3e9f841a	0.31155473
4	0x3e06ccc4	0.1316405
5	0x3e967d2b	0.2939237
6	0x3e4c46f5	0.19948943
7	0xbea57d23	-0.32322034
8	0xbd3ac633	-0.045599174
9	0xbefb106e	-0.49035972
10	0xbc466011	-0.012107865
11	0x3ec98781	0.39361194
12	0xbdb53419	-0.088478275
13	0x3c35cf8c	0.011096846
14	0xbec55e08	-0.38548303
15	0xbee1cb20	-0.44100285
16	0xbcbe7508	-0.023249164
17	0xbddf8a81	-0.109150894
18	0xbde9c464	-0.11414412
19	0x3ef0fd6d	0.4706835
20	0x3f557086	0.8337482
21	0x3e90aa0d	0.28254738
22	0x3f92e58f	1.1476306
23	0x3f501874	0.8128731
24	0xbf20d59b	-0.62825936
25	0xbdd95b50	-0.106131196
26	0xbe5a8264	-0.21338803
27	0xbedd1d52	-0.43186432
28	0x3ebd1bd7	0.36935303
29	0x3f8df3fd	1.1090084
30	0x3d40615f	0.04696786
31	0x3ebb68f6	0.36603516
32	0x3ed74df0	0.4205165
33	0x3f000b72	0.50017464
34	0x3f91edd3	1.1400703
35	0x3e20c3ec	0.15699738
36	0x3e3478fe	0.1762428
37	0x3f46b287	0.7761616
38	0x37d1ddfb	2.501811e-05
39	0x3f0d222f	0.55130285
40	0xbebb6966	-0.3660385
41	0x3f3ff264	0.74979234
42	0xbf040be3	-0.5158064
43	0x3f22c1fd	0.6357725
44	0x3f6b0447	0.918034
45	0x3f1e1bc2	0.61761105
46	0x3f0b4da9	0.54415375
47	0x3f9fa1c9	1.2471248
48	0xbeb6f2fc	-0.35732257
49	0x3e9817fa	0.29705793
50	0x3f3daebb	0.7409474
51	0x3d461946	0.048363946
52	0x3ec3055f	0.38090035
53	0xbf240226	-0.6406578
54	0xbe058bf6	-0.13041672
55	0xbd42a947	-0.047524717
56	0x3ed65095	0.41858354
57	0xbe384130	-0.17993617
58	0x3e82113f	0.25403783
59	0x3f696c88	0.9118123
60	0xbf20b6a5	-0.62778693
61	0xbdf63ece	-0.12023698
62	0xbf0623a9	-0.52398163
63	0x3e83af37	0.25719616
64	0x3f24beeb	0.6435382
65	0x3f5f0671	0.87119204
66	0x3f8dcd2e	1.1078241
67	0x3e3b95e9	0.18318905
68	0xbf39c27b	-0.7256238
69	0x3ed7151f	0.42008302
70	0xbf339bad	-0.7015942
71	0x400ffd1d	2.2498238
72	0xbed8770c	-0.42278326
73	0xbe85fcfa	-0.26169568
74	0xbce4fdbc	-0.027953021
75	0x3e3456ad	0.17611189
76	0x3c3f6461	0.011681647
77	0x3f225bfa	0.63421595
78	0xbed01d55	-0.4064738
79	0xbf99dd87	-1.202073
80	0x3e97d28b	0.2965282
81	0x3f25cb00	0.6476288
82	0xbf383579	-0.7195659
83	0x3f4120ac	0.7544048
84	0x3f39b9d6	0.7254919
85	0x3f25ec20	0.64813423
86	0x3fa426c4	1.282433
87	0x3f68fa60	0.9100704
88	0xbe5ef93c	-0.21774763
89	0x3e0977b0	0.13424563
90	0xbe60b76c	-0.2194497
91	0x3e9a6764	0.30157006
92	0x3f62a898	0.88538504
93	0xbdbea48d	-0.09308729
94	0x3f1e6d95	0.6188596
95	0x3f08af89	0.53392845
96	0xbe88eb21	-0.2674189
97	0xbe9fcce0	-0.31210995
98	0x3e84f334	0.259668
99	0x3f0ff3ba	0.5623127
100	0x3f4b9b1a	0.7953354
101	0xbf2db46c	-0.67853427
102	0x3e6d788e	0.23190519
103	0x3f8ae734	1.0851808
104	0x3f81786b	1.0114874
105	0x3f7357c1	0.95055777
106	0xbf12760b	-0.5721137
107	0x3fd95223	1.6978191
108	0x3f45e9b3	0.7730972
109	0x3e89e6f2	0.2693401
110	0x3f882bac	1.0638328
111	0x3eef4f36	0.4674012
112	0xbf7cca4f	-0.987462
113	0x3e3a9028	0.18219054
114	0x3d779aa0	0.060450196
115	0x3eae1ec3	0.34007844
116	0xbc04c813	-0.008104342
117	0x3f7976fb	0.97447175
118	0x3eb4fd00	0.35349274
119	0xbf0fb369	-0.56133133
120	0x3e1baa0d	0.15201588
121	0x3db9c447	0.0907064
122	0x3fabf431	1.3433896
123	0xbee1b708	-0.44084954
124	0x3f03bf86	0.51464117
125	0xbe956802	-0.29180914
126	0x3fc38c35	1.5277163
127	0xbe9e6666	-0.309375
128	0x3f8a98c0	1.0827866
129	0xbea27bab	-0.31734976
130	0x3f0f24f1	0.55915743
131	0x3d30e5c7	0.043187883
132	0xbd82f767	-0.063948445
133	0xbe5163e2	-0.20448259
134	0xbe03ddb0	-0.12877536
135	0xbe42d460	-0.19026327
136	0x3eea7ae2	0.45796877
137	0xbeafdb5c	-0.34347045
138	0xbdc6babc	-0.097035855
139	0x3efdd6e6	0.49578017
140	0xbf593ffd	-0.84863263
141	0x3f47d429	0.78058106
142	0x3e99a519	0.30008772
143	0xbf341f3f	-0.7036018
144	0xbe4ff9e3	-0.20310168
145	0x3deeab10	0.11653721
146	0x3e33039c	0.17481846
147	0x3e676abf	0.22599314
148	0xbe9b4a80	-0.30330276
149	0xbf260cf2	-0.648635
150	0x3e75f0e5	0.24017675
151	0x3c5c5593	0.013448137
152	0xbca38370	-0.019960135
153	0x3cc2593c	0.02372419
154	0x3e606485	0.21913345
155	0xbe3d1465	-0.18464811
156	0x3f66cf4b	0.90160054
157	0xbec3b9f0	-0.38227797
158	0x3de4e852	0.11177124
159	0x3f19aa39	0.60025364
160	0xbb964d5e	-0.0045868596
161	0x3e7e1866	0.24813995
162	0x3e9a4657	0.3013179
163	0x3da6e8a7	0.08149844
164	0xbf29dcb4	-0.6635239
165	0x3e56a94e	0.20963022
166	0xbe160902	-0.14651874
167	0x3d88b887	0.06675821
168	0x3efb86b2	0.49126202
169	0xbe3bad03	-0.18327717
170	0x3f07f64d	0.531102
171	0x3f189c79	0.5961376
172	0xbe9c0af6	-0.30477113
173	0x3e3acfa4	0.18243271
174	0x3d8a98e1	0.067674406
175	0xbe6a3f4b	-0.22875707
176	0xbf113277	-0.5671763
177	0xbe9cfa01	-0.30659488
178	0x3eb0a7ac	0.34502923
179	0x3e4422c6	0.1915389
180	0xbe5e4203	-0.21704869
181	0x3e45c289	0.1931249
182	0xbd7b24d6	-0.061314426
183	0xbe0ac48e	-0.13551542
184	0xb8b6f3cb	-8.723846e-05
185	0xbd245cc8	-0.040127546
186	0xbeac70e2	-0.33679873
187	0xbf3def04	-0.74192834
188	0xbcbed4d0	-0.023294836
189	0xbe1b1cd1	-0.15147711
190	0x3f74624e	0.954625
191	0xbe76a07f	-0.24084662
192	0xbfa968db	-1.3235124
193	0x3ec5cbcc	0.38632047
194	0xbe8bc25a	-0.27296716
195	0xbfbaa519	-1.4581634
196	0xbe6dfd15	-0.23241074
197	0xbcd11895	-0.025524417
198	0xbce3535d	-0.027749712
199	0xbcab5b2b	-0.020917496
200	0x3e081333	0.13288574
201	0xbf0b80fe	-0.544937
202	0x3dc9fcae	0.09862648
203	0x3e0cc412	0.1374667
204	0xbe26dd4a	-0.16295353
205	0xbcc18b6f	-0.023626057
206	0x3c93c9b0	0.018040508
207	0xbce21da3	-0.027602023
208	0xbe5d14d1	-0.21589972
209	0xbe15e348	-0.14637482
210	0xb8232a6e	-3.8901744e-05
211	0xbe15d3f4	-0.14631635
212	0xbf6288c8	-0.8848996
213	0xbf7a45a5	-0.9776252
214	0x3f22026d	0.6328495
215	0xbeb848d2	-0.35993057
216	0xbe5a14d8	-0.21297014
217	0x3e56c6bd	0.2097425
218	0xbf586667	-0.84531254
219	0xbe41baa3	-0.18918853
220	0xbeaa5798	-0.33269954
221	0xbf0ae986	-0.5426258
222	0xbf06b2ab	-0.52616376
223	0xbf73e78e	-0.952752
224	0x3e49ac36	0.196946
225	0xbdacfaed	-0.08446298
226	0xbd81faa4	-0.06346634
227	0xbe03a9f4	-0.128578
228	0x3df05e95	0.1173679
229	0xbf6799b4	-0.9046891
230	0x3f169f93	0.5883724
231	0xbee35482	-0.44400412
232	0x3e0f27a4	0.13979965
233	0xbec85717	-0.39128944
234	0xbed8b57c	-0.42325962
235	0x3c4a9229	0.012363949
236	0xbf4f645e	-0.81012523
237	0xbf7ea722	-0.99473774
238	0xbe186bf4	-0.14884931
239	0xbe39b85b	-0.18136732
240	0xbd81b29a	-0.06332894
241	0x3e778803	0.24172978
242	0x3d05022c	0.032472774
243	0x3d859be0	0.065238714
244	0x3f11c595	0.5694211
245	0xbf341947	-0.7035107
246	0x3edfc22c	0.4370283
247	0xbe83ab20	-0.25716496
248	0xbf3de00c	-0.74169993
249	0x3ebc3b8e	0.36764187
250	0xbe47e9e3	-0.19522814
251	0xbf2bdc24	-0.6713278
252	0x3f1bbaa5	0.6083167
253	0xbea3297d	-0.3186759
254	0xbf81fc4d	-1.0155121
255	0xbd9ca504	-0.07648662

_CNNDDQN__fc1Value.bias f4 [128]
0	0x3ee2a050	0.44262934
1	0x3ec5eb2b	0.3865598
2	0xbe8e5b4a	-0.27804023
3	0x3fa3564e	1.2760713
4	0xbebe9e35	-0.37230077
5	0xbf496b14	-0.78679013
6	0x3ed31c3f	0.41232488
7	0xbf0ab738	-0.5418582
8	0x3edd477a	0.43218595
9	0xbe54385b	-0.20724623
10	0x3f147c3b	0.5800206
11	0x3e419f9b	0.18908541
12	0xbd8b28ed	-0.06794915
13	0xbe62b08c	-0.2213766
14	0x3fb592bf	1.4185408
15	0x3e6e8770	0.23293853
16	0x3f3759fe	0.7162169
17	0x3e2ecda0	0.17070627
18	0xbe0d895f	-0.13821934
19	0xbd8d9f7b	-0.06915184
20	0xbea2a02e	-0.31762832
21	0xbf3d5d50	-0.7397051
22	0xbe0430b3	-0.12909202
23	0xbef66d7c	-0.48130405
24	0xbe9c4ee6	-0.30528945
25	0xbefa0473	-0.4883152
26	0xbf73e174	-0.9526589
27	0x3d96b437	0.07358592
28	0x3e811cbb	0.25217232
29	0xbf813037	-1.0092839
30	0x3e9f1487	0.3107035
31	0xbd43f7ba	-0.047843672
32	0x3e4daee0	0.20086241
33	0xbf138e1f	-0.57638735
34	0x3eaaad54	0.33335364
35	0x3f7b5e4f	0.9819078
36	0x3c05a19e	0.008156208
37	0xbe3d9b17	-0.18516193
38	0xbf9a781b	-1.2067903
39	0x3e440b8e	0.19145033
40	0x3e843743	0.2582341
41	0xbd88634e	-0.06659566
42	0x3f162a52	0.58658326
43	0xbefbf3ef	-0.49209544
44	0x3e072a37	0.13199697
45	0xbebbb305	-0.3666002
46	0x3d9c8e12	0.07644285
47	0xbebdbb94	-0.37057173
48	0xbdae6f38	-0.08517307
49	0x3f03eb44	0.5153086
50	0xbda50aa2	-0.08058669
51	0xbd4248a5	-0.04743256
52	0xbe6a6788	-0.22891057
53	0x3ea0607a	0.31323606
54	0xbe90b3c0	-0.28262138
55	0xbe43640c	-0.19081134
56	0xbf768851	-0.9630175
57	0xbf88de91	-1.0692922
58	0x3c6df374	0.014523376
59	0xbefaa1f2	-0.4895168
60	0x3e89aa21	0.2688761
61	0xbe8bcacd	-0.27303162
62	0xbeb485b6	-0.35258263
63	0x3da06d50	0.0783335
64	0xbe9c79a6	-0.3056156
65	0x3eac2bd2	0.33627182
66	0x3ddd977f	0.10819911
67	0x3e53693e	0.20645615
68	0x3eed43f3	0.46340904
69	0xbef9f118	-0.48816752
70	0xbe8bc5bd	-0.272993
71	0x3fa8a022	1.3173869
72	0xbd446418	-0.04794702
73	0x3ecfbe65	0.40574947
74	0xbf20fb82	-0.6288377
75	0x3e4b4a96	0.19852671
76	0xbf7e4934	-0.9933045
77	0xbea2d5f9	-0.31803873
78	0x3e4d927e	0.20075414
79	0x3de203c4	0.110358745
80	0x3dad2e46	0.084560916
81	0xbd5c594a	-0.05379609
82	0xbf20d48a	-0.6282431
83	0x3cac43a1	0.021028342
84	0xbec28454	-0.37991583
85	0xbd5de5b9	-0.05417416
86	0xbe63e05b	-0.22253554
87	0x3e8683e2	0.26272494
88	0xbe2090b6	-0.15680203
89	0x3e232413	0.1593173
90	0x3d933ffc	0.071899384
91	0x3fcceacd	1.6009156
92	0xbf313791	-0.6922541
93	0xbee570e3	-0.44812688
94	0x3f9d024e	1.2266328
95	0xbf0f3719	-0.5594345
96	0x3e9743d3	0.29543933
97	0x3e435f29	0.1907927
98	0x3e17460f	0.14772819
99	0x3e3e63dc	0.18592781
100	0xbe57a55b	-0.21059172
101	0x3e615e4a	0.22008625
102	0x3f827447	1.0191735
103	0xbf081b45	-0.5316661
104	0xbed99f37	-0.42504284
105	0x3efb0843	0.4902974
106	0x3e634ae6	0.2219654
107	0xbf3c509a	-0.7356049
108	0x3f23a84c	0.63928676
109	0xbdca4854	-0.09877077
110	0xbf0f81d0	-0.56057453
111	0x3f63bcf5	0.889602
112	0xbe9ca451	-0.30594113
113	0xbc20cc0d	-0.0098142745
114	0x3dcac412	0.09900679
115	0xbf92f33a	-1.1480477
116	0x3d12dbce	0.035854153
117	0x3e90d992	0.28290993
118	0xbe07976a	-0.13241354
119	0xbec34ccf	-0.38144538
120	0x3eed5a23	0.4635783
121	0x3eb03e72	0.34422642
122	0xbd2aaf36	-0.041671
123	0xbe734baf	-0.2375934
124	0x3a196eed	0.0005853016
125	0x3d8b7e04	0.06811145
126	0x3dff4172	0.124636546
127	0x3e44e113	0.19226484

_CNNDDQN__fc2Value.weight f4 [128, 128]
0	0xbb60faf2	-0.0034329263
1	0xbdd144e7	-0.1021822
2	0xbbebc3ce	-0.0071949726
3	0x3d018f1e	0.031630628
4	0xbbb4ad24	-0.005513804
5	0xbc9f5cff	-0.019453524
6	0x3d06019f	0.03271639
7	0xbd488995	-0.048959333
8	0x3d2a09c6	0.041513227
9	0xbcf7d81f	-0.030254422
10	0x3d0191c2	0.031633146
11	0xbce856e3	-0.028361743
12	0x3d851fa1	0.06500173
13	0xbd61b158	-0.05510077
14	0x3d3ba934	0.04581566
15	0xbd80f4d2	-0.06296696
16	0xbc817ad3	-0.015805637
17	0xbd810240	-0.06299257
18	0xbd9d4d12	-0.076807156
19	0x3b85f4ce	0.004088021
20	0x3d2e3756	0.04253324
21	0xbc93ccaa	-0.018041927
22	0xbbca5c00	-0.006175518
23	0x3da7c27a	0.0819139
24	0x3d83e8ff	0.06440925
25	0x3b5faa85	0.0034128737
26	0x3d527f50	0.051390946
27	0xbb61921f	-0.003441937
28	0xbbb7178e	-0.0055875247
29	0x3cf0877c	0.029361479
30	0xbd923b2f	-0.071401946
31	0x3b844018	0.004035961
32	0xbd9e0ce7	-0.07717305
33	0x3cb6c62b	0.02231129
34	0xbd7cceb7	-0.061720576
35	0xbd127cf1	-0.035763685
36	0xbc42f552	-0.011899309
37	0xbda55672	-0.08073129
38	0xbdae8bf0	-0.08522785
39	0x3a179e81	0.0005783812
40	0xbddd06fe	-0.10792349
41	0xbcb64145	-0.02224792
42	0x3d60afcf	0.054855164
43	0x3ca563f2	0.02018926
44	0x3d49326a	0.049120344
45	0xbdc32aa6	-0.09529619
46	0xbd9b085c	-0.07569954
47	0xbd785d29	-0.06063572
48	0xbc3b8745	-0.011445825
49	0xbbb17f69	-0.0054168
50	0xbc4bd760	-0.012441486
51	0xbcccc130	-0.024994463
52	0x3ce182ac	0.02752813
53	0xbda7df75	-0.08196918
54	0x3d56a611	0.052404467
55	0xbd1ca97e	-0.038247578
56	0xbd941e71	-0.07232369
57	0x3c34eb31	0.011042402
58	0x3d08d58c	0.03340678
59	0xbcb44f0f	-0.022010354
60	0x3ad74ea4	0.0016426635
61	0xbc717052	-0.014736252
62	0x3d70d57d	0.05879735
63	0xbde5184d	-0.11186276
64	0xbc713e13	-0.014724272
65	0xbd7d53bc	-0.061847433
66	0x3cb88ecd	0.02252903
67	0x3d23dd89	0.040006194
68	0xbdaf9883	-0.08574011
69	0x3c37bc7e	0.011214374
70	0xbd6b59e2	-0.057458766
71	0xbd07c14d	-0.03314333
72	0xbc4e04d2	-0.012574391
73	0xbd5f67dc	-0.054542407
74	0xbda82bac	-0.08211455
75	0xbcd282c5	-0.025697121
76	0xbd5597fc	-0.052146897
77	0x3daa365d	0.0831115
78	0x3d3866a4	0.04501976
79	0x3d84bcd7	0.06481331
80	0x3db2c5fe	0.0872917
81	0x3d7774b2	0.060414024
82	0xbd325dba	-0.043546416
83	0xbba4ffa4	-0.0050353575
84	0xbde04d99	-0.109523006
85	0xbd521f35	-0.051299293
86	0x3d0a8df5	0.033826787
87	0xbd329d4b	-0.043607038
88	0x3c0b8e59	0.008517825
89	0xbdd62530	-0.10456312
90	0xbda62358	-0.0811221
91	0x3c8b43a5	0.017000029
92	0x3ce6d736	0.028178792
93	0xbd0cd483	-0.034382354
94	0xbd0aec2a	-0.03391663
95	0xbd0a6b77	-0.033793893
96	0x3d0f8c97	0.035046186
97	0xbcac6848	-0.021045819
98	0x3d1b1a5b	0.03786693
99	0x3bf6812c	0.0075227227
100	0xbcf73be4	-0.030179925
101	0xbd408175	-0.04699846
102	0xbb1a0397	-0.0023500675
103	0xbd1545e0	-0.03644359
104	0x3da7ae87	0.08187585
105	0xbd4991e2	-0.04921139
106	0xbd30e6d0	-0.04318887
107	0xbc7a66a8	-0.015283264
108	0xbcbafa12	-0.022824321
109	0x3d526a0a	0.051370658
110	0x3d52b4f5	0.051442105
111	0x3d3b7128	0.04576221
112	0xbcc34ce9	-0.023840385
113	0xbc450f07	-0.012027509
114	0xbd10bdf8	-0.03533742
115	0xbda0c295	-0.078496136
116	0xbc84c459	-0.016206907
117	0x3c8b5930	0.017010301
118	0xbbe4c3d2	-0.0069813514
119	0xbda67461	-0.08127666
120	0xbd8c934b	-0.068640314
121	0xbd163df7	-0.036680188
122	0xbdaff8b3	-0.085923575
123	0xbd034441	-0.032047514
124	0x3db0ca94	0.08632389
125	0xbdb01e3e	-0.08599518
126	0xbdd247a4	-0.102675706
127	0x3d2c62df	0.04208648
128	0xbd39b36c	-0.045337126
129	0x3dc11ebb	0.094296895
130	0x3e5ed0b0	0.21759295
131	0x3f755d76	0.95845735
132	0xbe485a79	-0.19565763
133	0x3d875c8d	0.066094495
134	0x3e5f408f	0.21801971
135	0x3e7a1b8e	0.24424574
136	0xbdf740a7	-0.12072878
137	0xbe2592f6	-0.16169342
138	0xbe75d369	-0.24006428
139	0x3ea5fb1b	0.3241814
140	0xbd1216a0	-0.035666108
141	0xbd302542	-0.04300428
142	0x3d87112c	0.06595072
143	0x3d8f208a	0.06988628
144	0x3ca0eca8	0.019644096
145	0x3e2c8263	0.16846614
146	0xbd1427cf	-0.036170777
147	0x3f2553b2	0.64580834
148	0x3e91deed	0.2849039
149	0x3d8a3423	0.067482255
150	0x3d844be0	0.064597845
151	0x3d014721	0.031561974
152	0xbc8eeb1a	-0.01744609
153	0x3cf60ac0	0.030034423
154	0x3ecb47c8	0.39703202
155	0xbda4cbd6	-0.08046691
156	0xbe5e4c91	-0.21708895
157	0x3c9995f8	0.018748268
158	0xbe0df916	-0.1386455
159	0xbdf104cb	-0.11768492
160	0xbd2d1e49	-0.04226521
161	0x3d1898c3	0.03725506
162	0x3ee27115	0.442269
163	0xbc9892ed	-0.018624747
164	0xbca454bd	-0.020059938
165	0xbdad989c	-0.084763736
166	0x3e95d612	0.29264885
167	0x3d9745f1	0.07386387
168	0xbe07c9c8	-0.13260567
169	0xbb910bd8	-0.0044264607
170	0xbe20e9a8	-0.15714133
171	0x3c251356	0.010075411
172	0x3f10f430	0.566226
173	0x3e92377f	0.28557965
174	0x3d5d3e2d	0.054014374
175	0x3dbb5449	0.091469355
176	0xbe2c6bac	-0.16837949
177	0xbe08a1ac	-0.13342923
178	0x3da07246	0.07834296
179	0x3d992372	0.07477464
180	0x3c884519	0.01663451
181	0x3f9b0733	1.2111572
182	0x3c21d1b6	0.009876659
183	0x3e8b20f1	0.2717357
184	0x3ee39cbb	0.44455513
185	0xbe00cb6f	-0.12577604
186	0xbd50f570	-0.051015317
187	0x3e5df9f0	0.21677375
188	0x3f95c293	1.1700004
189	0xbe3e1232	-0.18561628
190	0xbd2515d5	-0.040304024
191	0xbd32748d	-0.043568183
192	0x3d23bb06	0.03997328
193	0x3ed0900c	0.407349
194	0x3e2af9e1	0.16696884
195	0xbd280f6f	-0.041030344
196	0x3e6710f5	0.22565062
197	0xbc2d5bdc	-0.010580983
198	0x3abc1c7f	0.0014351754
199	0x3f98eab4	1.1946626
200	0x3ec258ca	0.37958366
201	0x3b97663a	0.0046203407
202	0x3d1cbb05	0.038264293
203	0x3f7ecb70	0.9952917
204	0x3e8aa005	0.2707521
205	0x3e829dae	0.25510925
206	0xbdd8d4e6	-0.10587482
207	0xbde0c772	-0.10975541
208	0x3efd8879	0.49518183
209	0x3ee7dc93	0.45285472
210	0x3e8634f1	0.26212266
211	0xbd572375	-0.05252405
212	0xbdc9d0ff	-0.09854316
213	0x3de8412a	0.11340554
214	0x3e5c94fc	0.21541208
215	0x3d42ba2b	0.047540825
216	0xbc324b03	-0.010882142
217	0x3d47094b	0.048592847
218	0xbe147f7f	-0.14501761
219	0x3cdcad6d	0.026938165
220	0x3bf8c7ad	0.0075921626
221	0x3ca80655	0.020510832
222	0x3ddd4b18	0.108053386
223	0x3d85b3f3	0.06528463
224	0xbdea0881	-0.11427403
225	0xbbca49d1	-0.0061733504
226	0x3ea7517c	0.32679355
227	0x3ee9c357	0.45656845
228	0xbe15c303	-0.14625172
229	0xbb96cd6e	-0.004602126
230	0x3f06ac57	0.5260672
231	0x3e927475	0.28604475
232	0xbdc244f0	-0.09485805
233	0x3e955349	0.29165104
234	0xbe194df3	-0.14971142
235	0xbe3a4af3	-0.18192653
236	0x3ea3b2ec	0.31972444
237	0x3e2427cf	0.16030811
238	0x3da18bcc	0.07887992
239	0x3f3358eb	0.70057553
240	0x3f00ad7c	0.50264716
241	0xbe142070	-0.14465499
242	0xbe67f30b	-0.22651307
243	0x3ede50e7	0.434211
244	0xbe4b51e0	-0.19855452
245	0x3e6a76f6	0.22896942
246	0xbc29989a	-0.010351324
247	0xbca2cef9	-0.019874083
248	0xbebce2b5	-0.36891714
249	0xbd80b464	-0.06284407
250	0xbd8f051f	-0.06983399
251	0xbe25b836	-0.16183552
252	0xbd7ca770	-0.06168312
253	0xbe35adf1	-0.17742135
254	0xbdd61d9a	-0.10454865
255	0xbd8cbf6c	-0.06872448

_CNNDDQN__fc2Value.bias f4 [128]
0	0xbd93cb6f	-0.07216536
1	0xba4c9f6f	-0.000780574
2	0x3f018877	0.50598854
3	0xbfdcdc61	-1.7254754
4	0x3f239f92	0.6391536
5	0xbe4798b7	-0.1949185
6	0xbe60c0ec	-0.21948594
7	0x3e308bb2	0.1724079
8	0x3dc91e11	0.09820188
9	0x402a1a16	2.6578422
10	0x3db735ca	0.08945806
11	0xbe21594d	-0.15756722
12	0xbe43096a	-0.1904656
13	0x3d6632f4	0.056200936
14	0x3f3c944c	0.73663783
15	0x3d90abc5	0.070640124
16	0xbfa63333	-1.2984375
17	0x3e68d4f2	0.22737482
18	0x3e6854a7	0.22688542
19	0x3f1bbe99	0.60837704
20	0x3e238096	0.1596702
21	0x3f9b823d	1.214912
22	0xbf02c3cf	-0.5108003
23	0x3fbf1dea	1.4931004
24	0x3eb34b1d	0.35018244
25	0x3eaf2559	0.34208182
26	0x3e781a7a	0.2422885
27	0xbfcec68f	-1.6154345
28	0x3b70d1a7	0.0036746056
29	0x3f934681	1.1505891
30	0x3f0702e7	0.52738804
31	0xbe098865	-0.13430937
32	0xbd3d7d51	-0.04626209
33	0xbfce0cb3	-1.6097625
34	0x3e24197a	0.16025344
35	0xbfabba19	-1.3416167
36	0x3d7c09c3	0.061532747
37	0x3f8da86e	1.1067026
38	0xbd4a74a8	-0.04942766
39	0xbebad98d	-0.36494103
40	0xbc478fe5	-0.012180303
41	0xbf6fa3c1	-0.93609244
42	0x3f2a7d72	0.66597664
43	0xbe94229e	-0.2893266
44	0xbeed2064	-0.46313775
45	0x3de5b00c	0.11215219
46	0xbf081dd2	-0.531705
47	0x3cac03e7	0.020997955
48	0x3f834deb	1.0258154
49	0xbd152b9c	-0.036418542
50	0xbcaf2e55	-0.021384398
51	0x3ed74e99	0.42052153
52	0x3f4ed08b	0.8078696
53	0x3f4528f7	0.7701563
54	0x3ef07b0f	0.46968886
55	0x3f4a9c96	0.7914518
56	0x3e93734b	0.287989
57	0xc0040e73	-2.063382
58	0xbf0731b0	-0.5281019
59	0x3cc71cf0	0.02430579
60	0xbf9bcd17	-1.2171963
61	0xbdecc037	-0.115600996
62	0x3e24364c	0.16036338
63	0xbd9b8203	-0.07593157
64	0x3d015e43	0.031584036
65	0xbde0ea40	-0.1098218
66	0x3fa0542c	1.2525687
67	0xbe5b6897	-0.21426617
68	0xbde76b0c	-0.112997144
69	0x3ecf69e4	0.40510476
70	0xbe6c4b74	-0.23075658
71	0x3f343820	0.7039814
72	0x3d7ff88d	0.062492896
73	0x3db652b2	0.08902492
74	0x3f1c22ce	0.6099061
75	0x3e20e78c	0.15713328
76	0x3f93071b	1.1486543
77	0xbf4ccba6	-0.7999824
78	0x3e53eb2b	0.20695178
79	0xbd0b7310	-0.03404528
80	0x3f0c077a	0.5469891
81	0x3ed84fbb	0.4224833
82	0x3d30f978	0.043206662
83	0xbf4412a7	-0.7659096
84	0x3f261f6f	0.64891714
85	0xbeb716d9	-0.3575962
86	0xbe80b3b7	-0.25137112
87	0xbf22d9f5	-0.63613826
88	0x3ed95f35	0.4245545
89	0x3e89aaab	0.26888022
90	0x3e1df29d	0.15424581
91	0x3eb3c915	0.3511435
92	0x3e49ec22	0.19718984
93	0x3f6b0363	0.9180204
94	0xbe83b356	-0.2572276
95	0x3f17d291	0.59305674
96	0xbc7c696c	-0.015405994
97	0xbf1fb9be	-0.62392795
98	0xbf6ef6f8	-0.93345594
99	0x3d56868d	0.05237441
100	0xbee18fbd	-0.44054976
101	0x3e38956f	0.18025754
102	0xbefd6cc3	-0.4949704
103	0x3ef25b45	0.47335258
104	0xbd7c22f3	-0.061556768
105	0xbc92ac2b	-0.017904362
106	0xbfb6a7dd	-1.4269978
107	0x401b6275	2.4278843
108	0xbdc0463d	-0.09388397
109	0xbdd5705a	-0.1042182
110	0xbee87fde	-0.45410055
111	0xbe372f60	-0.17889166
112	0xbefc23d9	-0.492461
113	0x3f903ba2	1.1268198
114	0x3d0d52f2	0.03450293
115	0x3c834ff6	0.01602934
116	0x3dbd1055	0.09231631
117	0x3f45d069	0.77271134
118	0x3bc768f1	0.006085508
119	0x3fa7f8ca	1.3122799
120	0xbec122d1	-0.37721875
121	0xbe0ebc3f	-0.13938998
122	0xbeea4afc	-0.45760334
123	0x3f0e3abd	0.5555838
124	0x3df796e9	0.12089331
125	0x3be75483	0.007059635
126	0xbfa31472	-1.2740614
127	0xbdbbfd11	-0.09179128

_CNNDDQN__fc3Value.weight f4 [128, 128]
0	0xbda71aca	-0.081594065
1	0xbee02cf2	-0.4378429
2	0xbe82952e	-0.2550444
3	0xbe94551a	-0.28971177
4	0x3f4e4758	0.8057761
5	0x3f428ab9	0.75992924
6	0xbee92b59	-0.45540884
7	0x3f11c62c	0.5694301
8	0x3e8c4939	0.27399614
9	0xbf8cafab	-1.099111
10	0xbcf8e510	-0.030382663
11	0x3debfc67	0.11522751
12	0xbe160d4b	-0.14653508
13	0x3da49f5e	0.080382094
14	0x3f776da0	0.9665165
15	0x3f23d039	0.639896
16	0x3ea11102	0.31458288
17	0x3e0976b1	0.13424183
18	0x3f44d9ad	0.76894647
19	0x3e35aa74	0.17740804
20	0x3fcf4881	1.6194001
21	0xbf30b39e	-0.69024074
22	0x3f24fa69	0.64444596
23	0xbe0af14f	-0.13568614
24	0x3e3d7d1c	0.18504757
25	0xbe887422	-0.26651102
26	0x3f77953b	0.9671208
27	0xbe93b3de	-0.28848165
28	0x3d5da701	0.054114345
29	0x3f7d920b	0.9905097
30	0xbed7c9f9	-0.4214628
31	0xbca72b79	-0.020406472
32	0xbc9efb9d	-0.019407088
33	0xbf0e35dc	-0.5555093
34	0x3fdc50bf	1.7212142
35	0x3f0cd1a1	0.5500737
36	0x3eeb207e	0.45923227
37	0x3e59122b	0.21198337
38	0x3ec87110	0.3914876
39	0xbd4768ec	-0.048684046
40	0xbdaf6b83	-0.08565428
41	0x3c1eaee3	0.009685251
42	0xbf122a93	-0.57096213
43	0x3f2bde42	0.67136014
44	0x3e419f4f	0.18908428
45	0x3fa8d078	1.318862
46	0x3f83fc62	1.0311396
47	0xbc217fc2	-0.00985712
48	0xbf530cd7	-0.8244147
49	0xbda36296	-0.07977788
50	0xbe399df0	-0.18126655
51	0x3d45995c	0.048241958
52	0x3f568686	0.83799016
53	0x3f313cd7	0.6923346
54	0x3fe03981	1.7517549
55	0xbe6178ee	-0.22018787
56	0x3fa57e98	1.2929258
57	0xbf0bef0f	-0.5466165
58	0x3f5200de	0.82032573
59	0x3d6af4bc	0.057362303
60	0xbdd46906	-0.10371594
61	0x3ce14ead	0.027503336
62	0x3ef278ac	0.4735769
63	0xbe2c496b	-0.16824882
64	0x3eae7534	0.34073794
65	0xbe4c20c8	-0.1993438
66	0xbf157481	-0.58380896
67	0x3f2dd840	0.67908096
68	0x3fb5ba41	1.4197465
69	0x3fb59160	1.418499
70	0x3f891c69	1.0711795
71	0xbf2c4538	-0.6729312
72	0x3f89ce56	1.0766094
73	0x3df98c7c	0.121849984
74	0x3ecc1df5	0.39866605
75	0x3e07b8e5	0.13254125
76	0x3f183fbe	0.5947226
77	0x3e7481a1	0.23877575
78	0xbfc3a84d	-1.5285736
79	0x3f8eaa0f	1.1145648
80	0xbfad8426	-1.3555954
81	0xbdac1655	-0.08402697
82	0x3e07a7a7	0.13247548
83	0x3f0b743d	0.5447424
84	0xbe8ce55c	-0.27518737
85	0x3fad4703	1.3537296
86	0x3de1cdc3	0.11025574
87	0x3f24c612	0.6436473
88	0x3edb5099	0.4283493
89	0x3f90ee21	1.1322671
90	0x3fbd0989	1.4768535
91	0x3f76051e	0.9610156
92	0x3d85d700	0.065351486
93	0x3f87e857	1.061778
94	0x3f6a1c3f	0.9144935
95	0x3e14cfe9	0.14532436
96	0x3e65ce3a	0.2244195
97	0x3e473c6b	0.19456641
98	0x3f849293	1.0357231
99	0x3e5bd66d	0.21468516
100	0xbe588f3b	-0.21148388
101	0xbe1b8c11	-0.1519015
102	0x3e9c89e1	0.30573943
103	0x3f01c7a0	0.5069523
104	0xbe73784a	-0.23776355
105	0xbd10a7c9	-0.035316262
106	0xbd340c8e	-0.043957286
107	0x3e3c9270	0.18415236
108	0xbcbaed5b	-0.022818258
109	0x3dd716f7	0.10502427
110	0x3e12f921	0.14352848
111	0x3f62ca73	0.88590163
112	0x3d98df67	0.074644856
113	0x3e65fe8d	0.22460385
114	0x3e2b3f7f	0.1672344
115	0x3f23a3af	0.63921636
116	0x3d11f457	0.03563341
117	0x3f0dbe88	0.5536885
118	0x3cce4283	0.0251782
119	0xbf232a6a	-0.63736594
120	0xbe0acebd	-0.13555427
121	0xbe21b8f1	-0.15793206
122	0x3ea9f2b5	0.33192983
123	0xbf1fcb9e	-0.6242007
124	0x3ef9d736	0.48797005
125	0x3e7108da	0.23538533
126	0x3dd1c0f1	0.10241879
127	0x3f802ffd	1.0014645
128	0x3d4bca9e	0.049753778
129	0x3f2fc837	0.6866488
130	0xbec80b89	-0.390713
131	0xbe7d1078	-0.24713314
132	0xbe938afe	-0.2881698
133	0xbf28a7ce	-0.6588105
134	0xbf24873c	-0.6426885
135	0xbec509ca	-0.3848403
136	0xbd6e6915	-0.058205683
137	0xbeef6c34	-0.4676224
138	0xbf4f83bf	-0.81060404
139	0xbe7f657b	-0.24941055
140	0xbf0f0aca	-0.5587584
141	0x3e695b3c	0.2278871
142	0xbf18b1ff	-0.596466
143	0xbf4af4bc	-0.79279685
144	0xbf197947	-0.5995068
145	0xbf5921ee	-0.848174
146	0xbf923b09	-1.1424266
147	0xbf1fa5e9	-0.62362534
148	0xbfa7cfdf	-1.3110312
149	0xbf62bf04	-0.88572717
150	0xbf644440	-0.8916664
151	0xbed8a923	-0.4231654
152	0xbdb930f5	-0.09042541
153	0xbf35f3ce	-0.7107514
154	0xbf7db323	-0.99101466
155	0x3e1cd0a6	0.15313968
156	0x3e15eacf	0.14640354
157	0xbf4f8b8a	-0.81072295
158	0xbef0801a	-0.46972734
159	0x3d9f9893	0.07792773
160	0xbd547cd6	-0.051876865
161	0xbe8ec1ee	-0.27882332
162	0xbf6d3d6d	-0.92671853
163	0x3e398777	0.18118082
164	0xbf0967e8	-0.53674173
165	0x3e03e7db	0.12881415
166	0x3e1b0e70	0.15142226
167	0xbf01b1e4	-0.50662065
168	0xbeb2aa01	-0.34895328
169	0xbda248b4	-0.07924023
170	0xbf6b92f9	-0.9202114
171	0xbf898dfa	-1.0746453
172	0x3ecd21f9	0.40064982
173	0x3ec8b80a	0.3920291
174	0xbf8e5ef3	-1.1122726
175	0xbd3a94d8	-0.045552105
176	0xbe95e2d4	-0.2927462
177	0xbd902a18	-0.07039279
178	0x3eaeff53	0.34179172
179	0x3df24206	0.11828999
180	0xbf7f3c0f	-0.9970102
181	0xbe5ee487	-0.21766864
182	0xbf542689	-0.828713
183	0xbe822268	-0.25416875
184	0xbd9d53fb	-0.07682034
185	0x3a8a6fc1	0.001056187
186	0xbf1a4e1a	-0.60275424
187	0x3d0616bf	0.032736536
188	0xbe7b0c9d	-0.2451653
189	0x3d962fde	0.07333349
190	0xbdacdf28	-0.08441001
191	0x3c61956c	0.013768535
192	0x3d494507	0.049138095
193	0x3d55a8e9	0.05216304
194	0xbf40cf91	-0.7531672
195	0x3f8172d9	1.0113174
196	0xbfd9e2f6	-1.7022388
197	0xbf0336a0	-0.51255226
198	0xbf859e47	-1.0438927
199	0xbe2b547f	-0.16731451
200	0xbe407c38	-0.18797386
201	0xbf92691e	-1.1438329
202	0xbf02f7c4	-0.5115931
203	0xbde0e641	-0.109814174
204	0xbef9b7d2	-0.48773056
205	0xbedfe840	-0.4373188
206	0x3ed53cfb	0.41648087
207	0xbf882451	-1.0636083
208	0xbee80b6d	-0.45321217
209	0xbda2a8a1	-0.0794232
210	0xbf9dc684	-1.2326207
211	0x3e8e981c	0.27850425
212	0xbf2732d3	-0.65311927
213	0x3e08c264	0.13355404
214	0x3e8e88f5	0.27838865
215	0xbfb30c48	-1.3988123
216	0xbf6a5397	-0.915338
217	0x3ea8cb16	0.32967442
218	0xbf1eb090	-0.61988163
219	0xbf78016a	-0.9687716
220	0xbd985bc8	-0.07439381
221	0xbcbf724d	-0.023369933
222	0xc00a5e9e	-2.162025
223	0xbf92831b	-1.144626
224	0x3f74c520	0.9561329
225	0x3ea62031	0.32446435
226	0xbe51a296	-0.20472178
227	0xbf31d0e2	-0.69459355
228	0xbe9901f1	-0.29884294
229	0xbf75d2d5	-0.9602483
230	0xbf643e36	-0.89157426
231	0xbf4c9cbd	-0.79926664
232	0xbeffdde5	-0.4997398
233	0xbd83b98a	-0.06431873
234	0x3e943d98	0.28953242
235	0xbf160d29	-0.5861383
236	0x3c2d2f73	0.010570395
237	0xbcc825f5	-0.024432162
238	0xc00a8bce	-2.164783
239	0xbee4414b	-0.44581065
240	0x3d4b2fa5	0.049605984
241	0xbe8662f6	-0.26247376
242	0xbe1b8f8b	-0.15191476
243	0x3ea2118f	0.3165402
244	0x3d3bc5f1	0.04584307
245	0xbf693e18	-0.9111037
246	0xbaaf4ff0	-0.0013375264
247	0xbe612b81	-0.21989252
248	0xbe0fd781	-0.14047052
249	0xbdaad947	-0.083422236
250	0xbfae2efb	-1.3608087
251	0xbea56c70	-0.32309294
252	0x3cc85b19	0.024457501
253	0x3bcd9f99	0.006275129
254	0xbdbeb249	-0.09311349
255	0xbe44bfda	-0.1921381
