code/models/DuelingDQN/model140.pth (torch, 434555 bytes, 21 tensors)

_CNNDDQN__conv1.weight f4 [16, 1, 5, 5]
00000000: 525a 9b3b f618 4d3c fb6b 5fb9 ea3b 2bbc
00000010: 4eb2 9937 2799 b73b bfd8 5aba fa91 d63b
00000020: a6eb 803c 36d8 453b d921 b1bb 6903 bf39
00000030: 2c7e 853a 4294 e8bb a4f8 c43b 9406 dabd
00000040: 499e a6bc c757 f93a fab6 2d3c 6341 2fbb
00000050: 3094 a53e 1999 31be ec4b 05bc 49dc f63b
00000060: a0a9 b3bb 41f4 fc3c 2315 c73c 0499 613d
00000070: 1b2e 8a3d dc02 c73c 731e ac3c 3cb4 573d
00000080: 09f3 983d dc88 813d 39e2 c03c 199b 003d
00000090: 695e 563d 5b2d 9c3d 2229 b63d fbf4 823d
000000a0: ed4b 553d d036 4f3d fb1a 9b3d 9527 843d
000000b0: 1c7d a13d 1174 38bb 927e 7b3d 3fec 693d
000000c0: 8086 a83d e7c0 2b3c 8403 1a3f 2265 ff3d
000000d0: 5bd1 073c f921 313c 8f55 49bd d8cd 0d3d
000000e0: 4524 aa3c d94c 933c 6a5e 6abb 29f0 ba37
000000f0: 2cdb 033c 2fc9 b43b 6ba3 5b3c 3c35 0dbc
00000100: 5504 8fbb 898b 553b 3088 923b 036f 81bc
00000110: 8f50 933b c8a4 bdba ddc8 bfbc 1653 04bc
00000120: 1b76 233c 649c 8dba b18b 55bc 901a a93e
00000130: c85b 2b3c f4b6 47bb c940 753c 3f7a a8bb
00000140: c09e 56be d4c7 64bc 51cb 49bb 447a 163c
00000150: 7021 283d d6e8 27bc ebbf 3dbc 5645 643b
00000160: 55d6 1e3c 3d74 b83b 167a afba f4b2 b4bb
00000170: 172d 59bb fb7e 40bb fda5 3cbb be4d bbbb
00000180: d52e 173b c3d2 33bc 64aa e3ba 4479 d7bc
00000190: fd69 9b3a 5999 893b 391a 8cb9 a274 bbbb
000001a0: ba81 ffbb 1a40 ad3b 1051 ce3a b78e bb39
000001b0: b694 263b 7f58 663b 3060 c23a c4a7 e93c
000001c0: e308 9ebb e9f4 9b3b d0e6 873c ce8f 41bb
000001d0: 0104 933d 61bd ac3c 6a84 0fbc 53bb 813a
000001e0: d9d4 8bbd 69e4 d93e ecf8 90bd 89d5 ca3a
000001f0: 2f45 1cbb 0319 9d3b 0838 913c 0858 41bc
00000200: 9b59 b23d 53da 32be 42ad 98bb 2ab8 ac3b
00000210: b1cc 85bc 22da 7a3c 4351 433c b5e3 8abb
00000220: 5edc 893c 9110 863c 331a 883c b738 0cbc
00000230: 427a b73a 67a4 2e3b 10f2 cc3c 4710 f13c
00000240: b777 df3c aa1e 173d ae40 93bb ab55 133d
00000250: a4e9 acbd e05b 063e d4a2 dfb9 60ed c4bb
00000260: 12f9 2b3b 11c7 1e3c 9bd0 cabb 98a5 3d3c
00000270: f4c7 b8ba de9e 8cb9 3314 c43a 3951 37bb
00000280: eb6d ac3b 52d1 3b3b 5951 2dbb 65d1 bb3b
00000290: 16e3 823b 428c a439 ba43 38ba 8976 91bc
000002a0: 571f a23c 8cb1 bd3c cc56 96bb 9db1 29bc
000002b0: 3cd4 3fbc 69af 81be f037 983e 5c2e 203a
000002c0: 38bb 6e3b 6144 da3b a2b9 a73b a424 a3bd
000002d0: 11e7 8e3b ab01 1f39 8037 58bb 270b 233b
000002e0: 58ec 913e f651 e33b af5c b53b 73f4 85bb
000002f0: f53a 54bb 4a06 06be 2b26 333b aab1 92bb
00000300: 4c76 40bb 2a95 c4bb 6302 d7bb 93a4 66bb
00000310: 660a 053b 3af0 883b ab26 2e3c a7f5 2b3c
00000320: f766 903b 56e5 22bb 969d 4fbb adc3 59be
00000330: a101 763e 761f 87bc 7eac efba 007d 86bc
00000340: 9447 20bc e221 3e3d 0198 9c3b 40bc b5b8
00000350: 60e1 98bb 9fcf a73b f601 38bc 0267 7cbb
00000360: 6ea2 acbb 403e de3b 58c3 3fbb 11dc b3bb
00000370: 7660 f0bb 3248 613b b40d aa3b 0a7c f73b
00000380: 9e67 85bb 8e6c 34bb dcdb 60bc 7eb3 293b
00000390: 001d a7bb 54d7 6c3b e089 5c3c a658 3c3c
000003a0: 1a82 0c3b 662b ae3b 3ff2 0bbb 856e 6bbc
000003b0: d4f0 183c 2ce0 c3bb 6eb5 d339 94be dd3a
000003c0: e957 f4bd 2ef1 a13b 862a ac3c 7524 843a
000003d0: 64a2 a5bb bd40 0c3f 7377 3b3e dcc3 733b
000003e0: ca97 e63b 8249 a4bb fa91 bdbc 4646 773a
000003f0: c196 05bb 1139 33bc 9041 69ba 61b1 debb
0.0047409916 0.012518158 -0.00021307163 -0.010451296 1.832205e-05 0.005602974 -0.0008348338 0.0065481635
0.015737366 0.0030188686 -0.0054056463 0.000364329 0.0010184697 -0.007097752 0.0060110856 -0.10645786
-0.020339148 0.0019023352 0.010602707 -0.0026741854 0.3233962 -0.17343558 -0.008135777 0.0075335843
-0.0054828674 0.030878188 0.024302071 0.055077568 0.06747075 0.024293356 0.021010613 0.05266212
0.0746823 0.06324932 0.023545371 0.031397913 0.05233613 0.07625838 0.08894564 0.063943826
0.05207436 0.050589383 0.075735055 0.06452862 0.07885191 -0.0028145353 0.061400004 0.057110067
0.08228779 0.010483003 0.60161614 0.124704614 0.00828966 0.010811322 -0.04915386 0.034620136
0.020769248 0.01798098 -0.0035761842 2.2284761e-05 0.00804786 0.005517147 0.013405661 -0.008618649
-0.00436453 0.003258439 0.004471801 -0.015800005 0.0044956873 -0.0014468664 -0.023411209 -0.00807645
0.009976889 -0.0010804054 -0.013033793 0.33028078 0.010458894 -0.0030474039 0.014969059 -0.005141526
-0.20958996 -0.013963658 -0.0030791352 0.009184424 0.041047513 -0.0102483835 -0.011581401 0.0034831367
0.009694655 0.005629091 -0.0013387825 -0.005514497 -0.0033138448 -0.0029372561 -0.002878546 -0.0057160547
0.0023068686 -0.0109755425 -0.0017369506 -0.026302941 0.0011857148 0.0041991887 -0.00026722418 -0.005720691
-0.007797447 0.0052871825 0.0015740711 0.0003577375 0.0025418228 0.0035147963 0.0014829691 0.02852238
-0.0048228367 0.00475942 0.016589552 -0.0029535177 0.07178498 0.021086397 -0.008759597 0.0009897746
-0.06827707 0.42557076 -0.07078728 0.0015475015 -0.0023844948 0.0047942414 0.017726913 -0.011800773
0.08708497 -0.17466097 -0.004659326 0.0052709775 -0.016332956 0.015310796 0.01192123 -0.0042385706
0.016828712 0.016365321 0.016614055 -0.008558444 0.0013998228 0.0026648284 0.025017768 0.029426707
0.027278764 0.036894478 -0.0044937944 0.03597037 -0.08443001 0.13120985 -0.0004265519 -0.0060097426
0.0026240987 0.009691016 -0.0061894185 0.011575125 -0.0014097677 -0.00026821246 0.0014959633 -0.0027971996
0.0052621267 0.00286587 -0.0026446192 0.005731749 0.003994356 0.00031385018 -0.0007029135 -0.017756717
0.019790335 0.02315595 -0.0045879837 -0.010357288 -0.011708315 -0.2532914 0.29730177 0.0006110424
0.003642751 0.0066609834 0.0051185647 -0.07965973 0.0043610414 0.00015164043 -0.0032992065 0.0024878473
0.28500628 0.0069372607 0.0055347304 -0.0040879785 -0.0032383774 -0.13088337 0.0027335982 -0.0044767456
-0.0029367385 -0.005999227 -0.006561564 -0.0035193309 0.0020300387 0.004179028 0.010629336 0.01049558
0.0044068056 -0.0024855933 -0.0031679622 -0.2126605 0.24024059 -0.016494494 -0.001828566 -0.016417027
-0.009782691 0.046419032 0.0047788625 -8.665817e-05 -0.0046655387 0.005121186 -0.011230936 -0.0038513546
-0.0052683866 0.006782323 -0.002926072 -0.0054888804 -0.007335718 0.0034375307 0.005189622 0.0075526284
-0.00407119 -0.0027530524 -0.013724294 0.002589434 -0.0050998926 0.0036139088 0.013460606 0.011495745
0.0021439851 0.005315232 -0.0021354107 -0.014369612 0.009334762 -0.005977651 0.00040380232 0.0016917759
-0.1193083 0.004942081 0.02101637 0.0010081666 -0.005054759 0.5478628 0.18307285 0.0037195599
0.0070371376 -0.0050136456 -0.023140896 0.0009432774 -0.0020384046 -0.010938899 -0.0008898014 -0.0067960476

_CNNDDQN__conv1.bias f4 [16]
00000000: 0b42 e7bd d5ad 28be 009b 77be bf7e 1abe
00000010: fb47 3abe 863e 363c 528d 02be 5efc 01be
00000020: 5c44 c2bd 5455 7bbe 824e 55be b711 a8bd
00000030: 550c 31be e068 8b3d 9ca4 37be ae2f 07be
-0.112918936 -0.16472562 -0.24180222 -0.15087412 -0.18191521 0.011123305 -0.12749222 -0.12693927
-0.09485695 -0.24544269 -0.2083073 -0.08206504 -0.1728986 0.06807113 -0.17933887 -0.13201782

_CNNDDQN__conv2.weight f4 [32, 16, 3, 3]
00000000: 49dd 2cbe 2205 43bf fa4a bbbe 94d2 e8bd
00000010: a260 63be 4f84 db3e 995c 98bd 8892 bc3e
00000020: e6bd aebe c9d2 85be 8e84 53bd aa9b 1dbe
00000030: c010 3f3e 34ca 80bd 156f 4b3e 537a 98be
00000040: e95e c0bc 4e5e 01be c435 78be b071 34bf
00000050: 8045 72bf 2e2d 093f d8be 7b3f 9008 0e3f
00000060: 2ddd b7bd b9e6 e0bc a1d4 a63d 6c5f c6be
00000070: 8e04 d63e a52d 993e 2fdb 913e 5f57 c03d
00000080: 3f7c 403e 7d32 663e 8c03 013f dab0 183e
00000090: 08a2 b23e 656e 6dbe b84f 5a3e b4cf a2be
000000a0: a442 5cbe 7306 a03f 4ef4 c6bf 385f 433c
000000b0: 1c3c d13c a64f 2b3e 394c 133e ce08 e63d
000000c0: 8282 ba3e 5de6 08bd af2e a8be 457a 93bd
000000d0: ee46 593d dd9a 86bd 3b4d 81bf 725f 1cbf
000000e0: 159f 7b3e a36e d2bd baa1 3b3f 1172 dcbf
000000f0: 450a 113e c9a7 1b3e 6188 df3e ea55 b43e
00000100: 88be 843f d462 50bf 4f2a 663f 4683 363f
00000110: cffc a2bd 804f 4b3f ab90 d13f 1cdb 4d3f
00000120: 9705 d53e fa26 8f3f 15ff 93be e453 1e3f
00000130: fee1 a7bf fc12 073e 29a3 1fbe c598 e0bd
00000140: e926 bdbe 43e0 ff3d 9fb4 d33d ca19 143f
00000150: 7ba7 3e3f 5c97 af3f c5da 5e3f f372 b93e
00000160: 4f79 563f d8ae 023f a671 023f e27a 36be
00000170: bd31 91bb 93be 3dbe 8533 093f 213e 5a3f
00000180: f392 f63e cb8a eabe 988f 3f3e 2f23 1f3f
00000190: 92e1 a5bf bb6a 6dbf ec36 fabd 484c 87bf
000001a0: 4852 3e3f ddc8 633f 0c61 e73e de8f 32be
000001b0: 62a7 123f 8e59 723e af5e ea3b 1e50 0c3f
000001c0: 92dc 7a3f 6b1a 4f3e e6ab 703e e223 9a3e
000001d0: 28d1 26be c72f a63e 27d1 3d3c b447 d9bd
000001e0: 6a54 853e f856 2fbf fa61 fd3e 1362 793d
000001f0: 10df 7f3d 5576 853e cae7 743c 397e 013d
00000200: e187 ae3d 7c22 853e d2df cd3d 573d 133d
00000210: 46a9 75be 6895 5dbe bfb9 09be f2ee 483e
00000220: 99bc 7c3e 3b18 b1ba 6bda 6a3d 96b5 4cbc
00000230: 0a6d 7d3d 5a16 3c3b 7df4 613e ae76 fc3d
00000240: 398e 533e 8735 4abd 2d02 c33d d036 ae3e
00000250: a073 993e ca66 783e e1cb 5d3f 5552 9e3e
00000260: 6e05 273c 8b28 f4bc efcb 90bb 59ed 36bd
00000270: 0036 18bc f3ae cf3d 2e0d 8d3d c0da d0bc
00000280: e6f7 913d c11e 85bd 7d30 90be 7dd0 df3e
00000290: 5f8c 02bd c116 a2bf dc5f 673f 7b57 f1be
000002a0: 1aff 7a3d cbe6 f6be a9bb 6a3c 98c4 3c3f
000002b0: 2d75 343d 3891 f33e 0e34 da3f bdd5 08be
000002c0: b54c e9bd 7037 493c 70ca efbe ed54 73bc
000002d0: 572b c6bd bece bfbd d1b9 46bd f255 9f3d
000002e0: cba0 23be a340 85bc 4792 823e be1a 043f
000002f0: 7e3c a9bd 7ee7 45bd e143 72bd 9573 31bd
00000300: 92d6 8cbb 995b 193d 323f 7e3d 5524 7f3d
00000310: 4e67 9abd 1327 cd3d 89d7 323e 1bed 16bc
00000320: 91f9 c93d 37fc 78bb 0c3c 9bbc 059e 583e
00000330: cbb7 323d 1cc1 c33e a6c3 233e 2357 c3bd
00000340: 21db b2bc fc6f 9abd ef2d 39bd e37b a5bd
00000350: c917 2f3e 3b05 0f3e 4c9e 053a 9d98 643d
00000360: 1ca5 203e 5977 d83d 78c6 223d a9bd 263e
00000370: 4434 b13d b581 0b3e 0a25 533e 5285 e43d
00000380: d34f 603d 22e3 903b 964f 4a3e cab3 f53d
00000390: e808 4abd 64c1 f03e 6fa4 8bbe 9bb5 ebbe
000003a0: a140 483e 785f f3be 0312 8bbc 9297 3cbc
000003b0: ab0c 85bc ad06 f23c 1e59 17bd 3f55 2bbd
000003c0: df21 6ebc b244 99bd 513b a9bd 7805 353f
000003d0: 5069 9e3e e1b5 e8bd faaf 89be 5c5d 363e
000003e0: b684 71be b36c 0d3e 3ed9 19be bc2e 053e
000003f0: 28ec 583d 7194 e9bc 217d 07bd 471e 413c
-0.16881289 -0.7617971 -0.3658064 -0.113682896 -0.22204831 0.4287438 -0.074395366 0.36830544
-0.34129256 -0.2613738 -0.051640086 -0.15391412 0.18658733 -0.06288567 0.19866593 -0.29780826
-0.023482757 -0.1263363 -0.2423926 -0.70485973 -0.946373 0.53584564 0.9833808 0.55481815
-0.08977733 -0.027453767 0.081460245 -0.38744676 0.4180035 0.29917637 0.28487536 0.09391665
0.18797396 0.22480197 0.5039604 0.14911214 0.34889245 -0.23186643 0.21319473 -0.3179909
-0.21509796 1.2501968 -1.5543306 0.011924557 0.025541358 0.16729602 0.14384545 0.11232148
0.36427695 -0.033422817 -0.32848117 -0.072010554 0.05304616 -0.065725066 -1.0101694 -0.6108314
0.24572404 -0.102750085 0.7329365 -1.722231 0.14164074 0.15200724 0.43658736 0.35221797
1.0370646 -0.814008 0.8990831 0.7129406 -0.07958376 0.7941818 1.6372274 0.8041246
0.41605827 1.118377 -0.2890555 0.61846757 -1.3115842 0.13190836 -0.15589584 -0.109666385
-0.3694375 0.124939464 0.10337185 0.5785185 0.74474305 1.3718066 0.87052566 0.36220512
0.8377885 0.5104804 0.50954664 -0.17820314 -0.004430978 -0.1852973 0.5359424 0.8525105
0.48158988 -0.45809016 0.1870712 0.6216306 -1.2959464 -0.9274098 -0.12217507 -1.0570154
0.743443 0.8897837 0.45191228 -0.17437693 0.57286656 0.23666975 0.0071524004 0.5480975
0.97992814 0.20224921 0.23503074 0.301055 -0.16290724 0.32458326 0.01158551 -0.106093794
0.26040965 -0.6849208 0.49488813 0.060884546 0.06246859 0.26066843 0.014947841 0.031614516
0.085220106 0.26002872 0.10052456 0.03594717 -0.23990354 -0.21639025 -0.13449763 0.196224
0.2468132 -0.001351125 0.057337206 -0.012494465 0.061871566 0.0028699846 0.22065921 0.12327324
0.20659722 -0.049367454 0.09521899 0.34026194 0.29971027 0.24257961 0.8663922 0.3092219
0.010194166 -0.029804489 -0.004418842 -0.044659946 -0.009290218 0.10140791 0.068872795 -0.025494933
0.07127361 -0.065000065 -0.28161994 0.4371375 -0.03187215 -1.2663194 0.90380645 -0.47137055
0.06127844 -0.48222956 0.014326968 0.7373748 0.04405706 0.4757173 1.7047136 -0.13362785
-0.11391584 0.012281284 -0.46834135 -0.014851791 -0.09676235 -0.09365605 -0.048517052 0.07780065
-0.15979306 -0.016266173 0.25502226 0.51603305 -0.08263491 -0.04831647 -0.059146766 -0.04332312
-0.0042980397 0.03744087 0.062071986 0.06229051 -0.07539235 0.100172184 0.17465033 -0.009211804
0.09862054 -0.0037992129 -0.018949531 0.2115403 0.04363231 0.38233268 0.15992603 -0.095381044
-0.021833004 -0.075408906 -0.04520982 -0.0808027 0.17098917 0.13966839 0.00050971354 0.055809606
0.15687984 0.10569639 0.039740056 0.16283287 0.08652547 0.13623698 0.20619598 0.11158241
0.054763626 0.0044216076 0.19756922 0.11997183 -0.0493249 0.47022545 -0.2727389 -0.4603699
0.19555904 -0.47533774 -0.016976362 -0.011510747 -0.016241392 0.029544199 -0.036950223 -0.041829344
-0.014534443 -0.07483806 -0.08263267 0.7071147 0.30939722 -0.11362816 -0.26892072 0.17809051
-0.23585781 0.13810997 -0.15024278 0.13006109 0.05295959 -0.028513165 -0.033078317 0.011787004

_CNNDDQN__conv2.bias f4 [32]
00000000: 4166 00bf b0d2 bcbc c455 f0bd f1b2 03be
00000010: 9a6d 3d3e a889 03be aea5 b6bc 65ee 25bd
00000020: 6732 07be dc13 38be 207a b3bd 0ddb 3ebe
00000030: 95c2 1fbd d058 25bd 667a 81bd 1b87 3abe
00000040: fd3a 49bf 2242 dc3d 39d7 4ebd 1905 b9be
00000050: ca43 20bc 721b d7bc b62b f4bc 6377 e0bd
00000060: c420 7fbf 2d21 2fbe d386 60bb e640 abbc
00000070: 3419 00be cf8f 72bd 8b18 a1bd ddfe 8cbd
-0.5015603 -0.023049682 -0.117351085 -0.1286123 0.18498841 -0.1284548 -0.0222958 -0.040510554
-0.1320282 -0.17976326 -0.08763528 -0.18638249 -0.039003927 -0.0403679 -0.06322174 -0.18215601
-0.78605634 0.10754801 -0.05049822 -0.36136702 -0.009781787 -0.026258204 -0.029806 -0.10960271
-0.9965937 -0.171025 -0.003426005 -0.02090497 -0.12509614 -0.059219178 -0.07866009 -0.06884549

_CNNDDQN__conv3.weight f4 [64, 32, 3, 3]
00000000: 6ead 053e 5ed5 573f aedc d6be 7d52 8ebd
00000010: c3e4 893f df75 b4be 9fa7 273e 4a14 3f3f
00000020: 1f30 07bf ac2e 1e3e f349 233b 769f 63bf
00000030: 73dd 813e cf48 e2bd c20a 39bf 8886 7a3e
00000040: d2a6 143e 3b01 62bf acab 4b3f 6a87 1e3f
00000050: 688f 66c0 87cc 343f 437b 18bc b841 edbf
00000060: b6d3 793f 2c32 013f d84f 88bf 31a4 c53f
00000070: 9ec9 8b3f b542 94be a1d5 eb3f ebf0 ba3f
00000080: 5ebf c1bf 02db 0040 8982 fa3f eaf6 dfbf
00000090: 90f0 77be e0d2 c93e 0431 623e c93c b6be
000000a0: 7a67 103e b22b 423d 6a41 b0be 4594 9d3e
000000b0: 52d3 833e 3227 823f 55b9 32bf babf 40c0
000000c0: 70ef 963f b8ff 873d fdbb 18c0 4150 623f
000000d0: 2a0f bf3c 31b6 cabf c33f 45bd 18c4 c2be
000000e0: b060 84bf 4770 0e3f 6ac2 11be 88de 89bf
000000f0: cb7f f73e 3523 2bbd 5d7f 3dbf e657 3a3f
00000100: 704d d83e a4e5 d6bf 5e08 cc3f 293f 863f
00000110: e188 82bf b7b3 d43f 2507 853f d737 d5be
00000120: 2ec7 f8bf 9bee 6ec0 bef8 76c0 7487 c8bf
00000130: 856f 78c0 9830 80c0 f7df a7bf 06d4 07c0
00000140: 2a33 18c0 5bea ecbe 7160 49bf b611 2ac0
00000150: 797f 9ebf 3801 b8bf 55d9 71c0 f216 92bf
00000160: fffa 23c0 5fa7 a0c0 b88b b7bd 4f8a 803c
00000170: a778 c73e 5692 81be 7b56 853e b2bb 833f
00000180: 2cc7 93bd 9fd6 943e 92af 2f3e 627b 323f
00000190: c1d0 33be f3a6 adbf ec91 b03e b790 c0be
000001a0: e3de 81bf 5646 96bd d306 94be 05a3 2ebf
000001b0: 91b1 aabf da71 32c0 9262 4ac0 156c 61bf
000001c0: a786 1ac0 3ce9 b7bf 5277 a7bf 4490 1dc0
000001d0: c4d6 15c0 013c 7e3e f51f d23d adf8 a5bf
000001e0: a901 b3bd d194 06bf 3c17 4dbe f33f 523d
000001f0: 7482 9ebe 873a 95bc c8f5 9abf 1c0d 51bf
00000200: 39c1 39c0 de8e adbf ba41 21c0 fa9c 8bc0
00000210: 2200 c5bf d6ea 15c0 14fb 83c0 5ed3 fb3f
00000220: d658 993f 1757 25c0 2f9b c13f 9090 a03f
00000230: 18fd 69bf 8a05 b03f 3333 943f 14ac 83bf
00000240: fc98 d5be 511e 0e3f dc45 59bf d9bb 73be
00000250: 2975 823f a6d0 a2bf 2ba9 fe3d 22e1 36bf
00000260: 70c2 65bf 3784 5b3e b921 583b 0247 a5be
00000270: c579 b63d 60d3 f8bd 7965 4abe 51a4 183f
00000280: 9c82 9ebd bc1f 1e3e 6946 51bc 403f 75be
00000290: fe37 3cbf c77a 8f3e c599 44bf 9170 1fbf
000002a0: e7b4 bd3e 6ed3 a9be dddc 16bf b9c9 f2bd
000002b0: 2967 003e 09bc 2cbf 7100 60be a3bf 84bd
000002c0: 726f ecbf c7f0 d1be 5990 14bf 46f7 acbf
000002d0: e176 193f d932 403e 3d61 febd c7c1 a33f
000002e0: 65d4 0e3f 2687 4abf f054 d93f 00ef 833f
000002f0: 24a1 f3bf 5221 d83e 149e 5bbe f5fa a63e
00000300: e5a4 313f dabf 83be e063 333e d123 043f
00000310: 2ad8 09bf 67d9 c9bd 4b55 433f e8e6 953f
00000320: 071a 35c0 cac9 253f 1d8a 543f 6133 9dbe
00000330: 7978 a33f 23ee d53e ef8d 4d3e 25c8 cb3f
00000340: 8574 5b3f 78a0 8cbf ebc5 e23f dc21 123f
00000350: 3adc 7fbe f389 983f fec4 4e3f 23d6 a23e
00000360: 2ad8 95be cdb5 d33e 0743 823f 24d4 dbbd
00000370: f29e 2f3f b68f 303f 6ea5 41be 6334 4c3f
00000380: e701 a5be 2907 c9be 82f9 bdbf 92ac 3fc0
00000390: 0678 013e eb29 ebbf 68e0 08c0 d47f f5be
000003a0: a9b6 c1bf 468d 3ec0 da49 05bf 6e28 3ebf
000003b0: f34a 40bf 6491 86bf 8f3d e6bd bd8f c3bf
000003c0: 92ea 87be a319 b0be 5b9e a2bf f45f 703f
000003d0: 3364 a33f 600b 9ebf 2a8e 843f dff1 aa3e
000003e0: b886 9cbf 93c1 123f 0f0e 953e 2997 a6be
000003f0: 3bc3 8cbe 2e51 9c3c d85c db3e c384 a7be
0.1305444 0.8430995 -0.4196524 -0.06949327 1.0772938 -0.35246179 0.16372536 0.74640334
-0.528078 0.15447491 0.0024915903 -0.88915193 0.25364265 -0.110490434 -0.7228204 0.24465382
0.14516762 -0.8828313 0.79558825 0.61925375 -3.6025028 0.70624584 -0.009306732 -1.8535681
0.9758867 0.5046718 -1.0649366 1.5440732 1.0920904 -0.28957143 1.8424569 1.4604772
-1.5136526 2.0133672 1.9571086 -1.7497227 -0.24212861 0.39418697 0.2208901 -0.3559325
0.14101973 0.047404952 -0.34424907 0.30777183 0.25747162 1.0168211 -0.69814044 -3.011702
1.179182 0.06640571 -2.386474 0.8840371 0.02332266 -1.583685 -0.04815651 -0.38040233
-1.0342007 0.5564007 -0.1423432 -1.0771036 0.48339686 -0.041781623 -0.74022466 0.7279037
0.4224658 -1.6788831 1.5940053 1.0488025 -1.0198022 1.6617345 1.0392805 -0.41644165
-1.9435785 -3.7333133 -3.858932 -1.5666337 -3.8818066 -4.005932 -1.3115224 -2.122316
-2.3781228 -0.4627255 -0.7866278 -2.657331 -1.2382652 -1.4375372 -3.77889 -1.1413252
-2.5621946 -5.020431 -0.08962196 0.01569095 0.38959238 -0.25306958 0.26042542 1.0291655
-0.072157234 0.29069993 0.17156819 0.6971952 -0.17560102 -1.3566574 0.3448633 -0.3761041
-1.0146145 -0.07337634 -0.28911456 -0.682175 -1.3335439 -2.788199 -3.1622663 -0.88055545
-2.4144685 -1.4368052 -1.3083289 -2.4619303 -2.3412333 0.24827577 0.102600016 -1.2966515
-0.08740551 -0.52570826 -0.20028394 0.051330518 -0.30958903 -0.018216385 -1.2106256 -0.8166063
-2.9024184 -1.3559225 -2.5196366 -4.362912 -1.5390666 -2.3424582 -4.124399 1.9673879
1.1980236 -2.5834405 1.5125483 1.2544117 -0.91401815 1.375169 1.1578125 -1.0286889
-0.4171828 0.5551501 -0.8487222 -0.23802127 1.0192004 -1.2719924 0.1243461 -0.71437275
-0.89749813 0.21437155 0.0032979085 -0.32280737 0.089099444 -0.121496916 -0.19765271 0.59625727
-0.077397555 0.15441793 -0.012773135 -0.23949909 -0.7352294 0.2802336 -0.76797134 -0.6228114
0.3705208 -0.3316912 -0.5893076 -0.11854882 0.12539352 -0.6747442 -0.21875168 -0.06481864
-1.847151 -0.4100401 -0.5803276 -1.3512962 0.5994702 0.18769397 -0.124208905 1.2793511
0.5579284 -0.7911247 1.6979046 1.0307312 -1.9033551 0.4221292 -0.21447021 0.3261334
0.69392234 -0.2573231 0.17518568 0.5161715 -0.53845465 -0.09855919 0.7630202 1.1711092
-2.8297136 0.6476103 0.83023244 -0.30703261 1.277114 0.41783246 0.20073675 1.5920454
0.8572467 -1.0986471 1.771665 0.57082915 -0.24986354 1.1917099 0.80769336 0.31803998
-0.29266483 0.4134964 1.0176705 -0.10733822 0.68601906 0.68969285 -0.18910763 0.79767436
-0.32228014 -0.39263275 -1.4841769 -2.9949079 0.12643442 -1.8372167 -2.1386967 -0.47949088
-1.5133868 -2.9773726 -0.52065814 -0.7428044 -0.75114363 -1.051312 -0.1124221 -1.527824
-0.2654615 -0.3439456 -1.2704576 0.9389641 1.2764953 -1.2347221 1.0355885 0.33387658
-1.2228613 0.5732662 0.29112288 -0.325372 -0.274927 0.019081678 0.42844272 -0.32718477

_CNNDDQN__conv3.bias f4 [64]
00000000: b500 8bbf e76e 3c3f 04bd 9d3f 9bfd 6dbf
00000010: 684e 083e 7261 88be 86af c03d 8a0a 433c
00000020: 1810 06bf 850b ffbe 0665 9ebd 0057 d5bf
00000030: f5ce 2f3e a108 633c 7de2 67bf 60ed abbf
00000040: 4a98 12c0 09e8 e3bc e5e4 9bbf d205 dbbe
00000050: e8d7 4a3f 6a1d e2bf fceb 9f3f 23ca 3abf
00000060: aa18 013f 0706 3abf b7ca 2ebd c87c e53f
00000070: 9bc1 afbf 74d6 303f 58f3 42bf dcd2 10bf
00000080: dbc2 8ebf 8701 093d 0c84 ad3f e147 08bf
00000090: 2d58 313f 442f 76be 9558 c9bf b043 ce3d
000000a0: 13db a0be ea88 c9be 118d 73bf ba35 263f
000000b0: 0601 033e e3d2 3dbe 61b4 62bf ed47 11bf
000000c0: 0d7a b2be d258 16bc bd35 69bf 60a7 63be
000000d0: 1049 9bbf 27dc 2c3e 8474 f9be b4a2 13bd
000000e0: ef8d 4ebe f107 5240 4755 96bf 55be 3bbe
000000f0: 48a3 8cbf fff6 3cbe 4b11 af3e 3f6a 4dbf
-1.0859591 0.73606724 1.2323308 -0.92965096 0.1331116 -0.26636845 0.094084784 0.011904368
-0.5236831 -0.49813476 -0.077341124 -1.6667175 0.17168792 0.013857038 -0.9057997 -1.3431816
-2.290545 -0.027820604 -1.2179228 -0.42777878 0.79235697 -1.7665226 1.2493892 -0.72964686
0.5042826 -0.72665447 -0.042673793 1.7928705 -1.3730959 0.6907723 -0.76152563 -0.56571746
-1.1153215 0.033448722 1.3555923 -0.5323468 0.6927517 -0.24041468 -1.5730158 0.10071504
-0.3141714 -0.3936227 -0.95137125 0.6492573 0.12793359 -0.18537478 -0.88556486 -0.56750375
-0.34858742 -0.00917645 -0.91097623 -0.22231817 -1.2131672 0.16880856 -0.48721707 -0.036043838
-0.20171331 3.2817347 -1.1744775 -0.18334325 -1.098733 -0.18453597 0.3419288 -0.80240244

_CNNDDQN__fc1Value.weight f4 [128, 64]
00000000: 9587 193d 472b b2be f006 fc3e 5de4 a0bc
00000010: d755 e43e c8f0 e93e dd5b a53e 6703 98be
00000020: 7adf 96bc efe0 593c 1160 46bc 6f1e 783e
00000030: 988f 823e 1cd3 803e 2ffa efbc 75eb 76be
00000040: d801 d83b 2d6c 4b3e 001e d2bd d139 ca3e
00000050: 8c73 353f 0a20 973e cf80 403f 258a 383f
00000060: ed2e 18bf e9d6 9dbd 6e52 98be 2f17 dabe
00000070: f53a e73e 628c 1e3f b6ad 263e 1522 0d3f
00000080: c665 da3e 7e99 073f a8ef 043f 3e89 163e
00000090: 9994 35be 6221 273f b20f b23c 4822 833e
000000a0: e27f 10bd e76e 923e 8656 bdbe 96a9 3f3f
000000b0: b590 633f 300e ea3e c6dd 163f 48f1 683f
000000c0: 6a61 e8bd 5b86 123f 5594 d43e 8407 5e3e
000000d0: 1284 723e 58f7 c7be 8a8d f8bd 949b 0d3e
000000e0: 66fc c53e ebb0 d2be 739c 073f a7af 063f
000000f0: 32cc 01bf fa23 043e b837 fa3a dfc0 6d3e
00000100: 1af6 383f be51 e43e 8ddd f23e a760 b33a
00000110: 4457 7abe e11f f93e 9804 ffbe cf34 be3f
00000120: 5132 7e3e 607b 443e bcfd e4bc fc0b b53d
00000130: 74d2 e1bd 50dc ed3e b6e2 f5be e27e 05bf
00000140: 244c a43e 841f 263f 394f cfbe 46fd de3e
00000150: 4191 e53e 90f2 133f 0888 bf3e c1a5 1f3f
00000160: 56be adbe 5011 b8bd e811 cdbe c4f3 c5bd
00000170: 8011 763f 00fa cdbe 41d0 2d3f fdf5 cd3e
00000180: 5b86 86be cd2e a6be 40ca b4be bc2a 203f
00000190: 0e81 de3d e959 53bf ff7a 133e 307c 4a3f
000001a0: 47c2 043f 4b33 aa3e e021 92be 8a25 763f
000001b0: 54b3 1e3f 76b9 cd3c f2b9 373f 2160 523e
000001c0: b737 61bf a59c fe3e 44e8 bebc d334 973e
000001d0: 6e48 953d 7717 153f 6718 973e 4b32 4dbe
000001e0: 6a81 733d 3702 8dbe 770d 863f 33c6 18be
000001f0: 1763 e73e 38a4 d23e 9fd6 913f 1160 87bd
00000200: 2168 3b3f 46bb 30be 7483 a03e c6d4 00be
00000210: d4dc 16be 2c42 fa3c ac0e 32bc 1dc9 e9bc
00000220: 69b1 cf3e 039d 6e3d bcba c6bd e1e7 6f3d
00000230: d992 e7be d95f 433f 33aa fd3e dcd4 02bf
00000240: 6f13 8ebe f091 6b3d db1d 693e 8dcd 503d
00000250: 8e99 0dbf 150d fdbe 3801 8dbd 68b4 313d
00000260: 73fc a03b 4137 373e 7da1 2c3e cc58 45be
00000270: 73af 183f 5734 c3bd 8c6a 07be b2cf b33e
00000280: 227e 1d3e 890c a73e 86fe 9c3e 0155 8e3e
00000290: e6e2 03bf d627 443e e3b0 a5be 4444 443e
000002a0: 791e d43e c47a dfbd 947e ac3e 4982 083f
000002b0: be71 193d 8c0a 653e 198b 313d 8717 31bf
000002c0: 7230 88be a46d 2cbf c35c af3e 1a1b f23d
000002d0: 7f24 a2be b7d7 ca3e 55fa 3fbe 710f 73bd
000002e0: 1c30 e5be 6482 193b 85c4 3fbe 8745 86be
000002f0: c708 4cbd 4158 9fbe ca65 263f d851 d6bc
00000300: 2df0 9cbf 5859 2f3f 35c5 9ebe eaaf b9bf
00000310: 22d6 c73d 573f 0ebe 0091 363d 794d 67be
00000320: 385a da3d c8c8 cebe aefc c93d cbca b43c
00000330: 4635 d0bd a682 de3c 7ffe ae3d 9e2b 653e
00000340: 69a7 1dbe 3308 8c3d 65b8 47be e379 2c3d
00000350: 639e eabe 0792 6cbf 888f 6c3e f335 afbe
00000360: d779 8dbe e96c 3b3e fce6 c2be 9a3a 9ebe
00000370: 5e9a c1be f49c 1cbf 10c1 1f3c 80c0 c4be
00000380: ba1b 49bd 068c 5bbe 1d96 16be 6367 84be
00000390: 6d4b a83d 766a 26bf 3848 ea3e 33d4 e9be
000003a0: 8ff3 983e 6a09 28be 7593 60be 57b5 91bd
000003b0: 7779 20bf 772d 1cbf 7319 d2bb cb72 30be
000003c0: 32cb 303e 3cc5 ed3e dd21 0bbe 5397 b33d
000003d0: fc76 e93e 3177 26bf db4b e33c 3a74 86be
000003e0: b4fb 00bf cc79 983e 76f1 0bbf b818 c3be
000003f0: 09fc b83e d27e 923e 656c 72bf 6f84 3abe
0.037482817 -0.34798643 0.49224043 -0.019640142 0.4459674 0.45691514 0.3229665 -0.29690096
-0.018417109 0.013298257 -0.012107865 0.2423036 0.25500178 0.25161064 -0.029294102 -0.24113257
0.0065920167 0.19865485 -0.10259628 0.39497235 0.70879436 0.2951663 0.75196546 0.7208579
-0.59446603 -0.077070065 -0.2975039 -0.42595813 0.45162168 0.6193296 0.16277203 0.5513013
0.42655772 0.52968585 0.51928186 0.14700791 -0.17732467 0.65285313 0.021736 0.25612092
-0.03527821 0.28600237 -0.36980075 0.7486814 0.8889268 0.4571395 0.5893215 0.90993166
-0.11346705 0.5723626 0.41519418 0.21682554 0.23683193 -0.39055896 -0.121363714 0.1382888
0.38669127 -0.41150603 0.529731 0.52611774 -0.507022 0.12904349 0.0019090092 0.23218106
0.7225052 0.44593614 0.47434655 0.0013685421 -0.24447352 0.48657134 -0.49808192 1.4859866
0.24823882 0.19187689 -0.027953021 0.088401765 -0.11026469 0.46457148 -0.4802453 -0.5214673
0.3208934 0.6489184 -0.4049013 0.43552607 0.44837382 0.57791996 0.3740847 0.62362295
-0.33934277 -0.08987677 -0.40052724 -0.09665635 0.9612045 -0.40229797 0.67895895 0.40226737
-0.2627438 -0.3245758 -0.35310555 0.6256521 0.10864459 -0.82559067 0.14402388 0.79095745
0.51858944 0.33242258 -0.2854147 0.9615103 0.61992383 0.025112849 0.71768105 0.20544483
-0.8797564 0.49728885 -0.023304112 0.2953249 0.072892055 0.5823893 0.29510805 -0.20038716
0.05944959 -0.27540752 1.0472859 -0.14919357 0.45192787 0.41140914 1.1393622 -0.0661012
0.73205763 -0.17258939 0.3135029 -0.12581167 -0.14732677 0.030549131 -0.010867756 -0.028538281
0.4056504 0.058255207 -0.097035855 0.058570746 -0.45229223 0.76318127 0.49543914 -0.5110605
-0.27749202 0.057512224 0.22765295 0.05097728 -0.5531243 -0.49424043 -0.06884998 0.04338494
0.004912907 0.17892171 0.16858478 -0.19272155 0.59642714 -0.095314674 -0.13224238 0.35119396
0.15380147 0.3262675 0.30662936 0.27799228 -0.51518095 0.19155821 -0.32361516 0.19166666
0.414295 -0.109120876 0.3369032 0.533238 0.03746199 0.22367305 0.043345544 -0.69176525
-0.2659946 -0.673548 0.3425046 0.118215755 -0.3166847 0.39617702 -0.18747838 -0.059340898
-0.44763267 0.0023423666 -0.1872731 -0.2622492 -0.04981306 -0.3112202 0.6499907 -0.026162073
-1.2260796 0.684957 -0.31009832 -1.450681 0.097576395 -0.1389135 0.044571877 -0.22588147
0.10661739 -0.4038756 0.09862648 0.022069355 -0.10166411 0.027161907 0.08544635 0.2237992
-0.15395893 0.068375014 -0.19503935 0.042108428 -0.45823964 -0.9241032 0.23101628 -0.34220847
-0.2763202 0.18303265 -0.38066852 -0.30904084 -0.37813085 -0.6117699 0.0097506195 -0.38428116
-0.049098708 -0.21440133 -0.14705701 -0.25860128 0.08217511 -0.65006196 0.45758224 -0.45669708
0.2987332 -0.16409841 -0.2193125 -0.07114666 -0.6268534 -0.61006874 -0.006411725 -0.1723129
0.17265013 0.4643954 -0.13587137 0.08769097 0.4559859 -0.6502562 0.027746132 -0.2626055
-0.5038407 0.29780424 -0.54665315 -0.38104796 0.36129788 0.2861238 -0.94696647 -0.18214582

_CNNDDQN__fc1Value.bias f4 [128]
00000000: 3633 f73e 42d1 c13d 0d61 38be 8110 7b3f
00000010: 4490 70bd 234c 3dbf fc02 8a3d 0b9c bebe
00000020: 529a 023e a023 eabe 447f d13e 90aa aa3e
00000030: ed28 8bbd 0856 d8bd 4b7a fb3e 76ed 713d
00000040: 0cd4 043f 0a44 293e 2225 b2bb 1ba0 14be
00000050: 24d4 71be e354 1abf 7537 20be 954a c5be
00000060: 55c2 cebe fafc c6be 4402 31bf 9d65 bbbc
00000070: 511e e1bc 5b41 7abf 7393 203e 43fd 86bd
00000080: 530a 013e d508 b4be 54ad aa3e 026c 363f
00000090: 9ea1 053c 2f5e cfbe 30dc 46bf 9953 033b
000000a0: 1ab0 923e 4e63 88bd 0c4e f43e 0ed1 99be
000000b0: 372a 073e 7793 bdbd 11a3 23be a680 c5be
000000c0: cc1f 9bbd 6aca ac3e a20a a5bd b164 903c
000000d0: f3ce 51be 1a3d 193e a626 bcbe 65ac 2e3d
000000e0: ff03 1dbf bf51 64bf d4ad 02bc 3e40 e9be
000000f0: c314 ecbc c408 34be 116d 10bf f4f1 ba3b
00000100: 9f18 a2be ff02 803e 3c2a 4d3e cfc5 a3bd
00000110: 2ee6 ba3e 10a3 08bf 085e 0abf 9d23 7f3f
00000120: 1f84 cabc 818d 543e 4bc0 13bf bbe6 403e
00000130: f29c 06bf 61a0 d8be 0d3a af3d 2b27 943d
00000140: 6fa7 ccba 97d3 8e3b 68e0 95be a143 ac3c
00000150: ebf5 adbe f6d5 8ebe 2b8f 1ebe 6366 5b3e
00000160: b690 20be 3bae 01bd 0283 433d 800c 863f
00000170: dcf4 12bf 3513 b4be 7101 e23f 3d42 19bf
00000180: 9f40 803e 7a6e 073c 748a 33bd 89f0 9a3e
00000190: 050c 5dbe 58ad b53e e00e 823f c6e7 f8be
000001a0: 4e92 7dbe ee90 b73e 913d 1f3d 49bb 2cbf
000001b0: 4ca8 233f 7f4d 64be 4994 c6be e103 323f
000001c0: 0430 acbe c16e 5fbe 3d44 d5bc 7d42 72bf
000001d0: c7c2 3dbe d5e6 423e 6a97 07be def4 b5be
000001e0: 2d26 9a3e 217b 553d 36af 2abd 740f 25bf
000001f0: 7843 93be df2a 5dbe b668 ff3d ed0e 9f3d
0.48281258 0.09463741 -0.18005772 0.9807206 -0.058731332 -0.739443 0.067388505 -0.37228426
0.12754181 -0.45730305 0.40917408 0.33333254 -0.06794915 -0.10563284 0.4911674 0.05906435
0.5188606 0.16529861 -0.0054365555 -0.145142 -0.23616081 -0.60285777 -0.15646155 -0.38533464
-0.4038264 -0.3886488 -0.6914408 -0.022875601 -0.027480276 -0.97755975 0.15681247 -0.065912746
0.12601595 -0.35162988 0.33335364 0.71258557 0.008156208 -0.40501544 -0.7767973 0.0020038842
0.2864998 -0.06659566 0.47715795 -0.3004231 0.13199697 -0.09256642 -0.15980174 -0.38574713
-0.07574424 0.3374818 -0.08058669 0.017626138 -0.20489101 0.14964715 -0.36748236 0.042644877
-0.6133422 -0.89187235 -0.007976014 -0.45556825 -0.028818494 -0.17581469 -0.5641642 0.0057051126
-0.3165941 0.25002286 0.20035642 -0.07996713 0.36503738 -0.53373814 -0.5404973 0.99663717
-0.024721203 0.20757104 -0.5771529 0.18838017 -0.5258323 -0.4230986 0.08555994 0.07234033
-0.0015613864 0.0043587196 -0.2927277 0.021028342 -0.33976683 -0.27897614 -0.15484302 0.21425776
-0.15680203 -0.0316603 0.04773236 1.0472565 -0.57404876 -0.35170904 1.765669 -0.59866697
0.25049302 0.008266086 -0.04383321 0.3026164 -0.21586616 0.35483813 1.016079 -0.4861433
-0.24762842 0.3585276 0.038877074 -0.67473274 0.63928676 -0.22295187 -0.38785008 0.6953717
-0.33630383 -0.21819593 -0.026033515 -0.94632703 -0.18531333 0.19033368 -0.13241354 -0.3553838
0.3010725 0.052119378 -0.041671 -0.64476705 -0.28762412 -0.21598385 0.12471144 0.07766519

_CNNDDQN__fc2Value.weight f4 [128, 128]
00000000: 125f 5b3c 9bb0 b5bd 1388 8b3c cc6e 0e3c
00000010: ff69 21bb f647 65bc 8f50 143d 5fcd 66bd
00000020: 078b 373d e987 e5bc 3f7a 0a3d 544a d0bc
00000030: a11f 853d ca84 45bd 8b85 4e3d d0db 53bd
00000040: 5761 6b37 afbd 52bd e0a7 83bd 4afd 983c
00000050: 5637 2e3d 8271 36bc 64db 8a3b c57d ab3d
00000060: bb6b 903d 9770 2f3c e583 6b3d aa0b cf3a
00000070: 13ec a2bb 72a2 833c d6ef 81bd 9a16 573b
00000080: 6cf1 aebd 06bc e83c b7ce 7cbd 0c6c 71bc
00000090: 52f5 42bc 7a8d a6bd 9db3 a0bd 819e 173a
000000a0: 0d82 bdbd 4541 b6bc e274 743d 3dbd b33c
000000b0: 6a32 493d 20ee a6bd 016e 7cbd 1a39 47bd
000000c0: 80ae 3f3b d684 853a 60d7 4bbc c186 0abd
000000d0: a7aa d73c 91a8 91bd bb36 733d 4588 04bd
000000e0: ab27 93bd 43a0 c2bb af98 373d 6d92 66bc
000000f0: 8060 d23c e04a c6bb afc1 673d 32ba 9dbd
00000100: a36d 8fbc 37b2 18bd 419a a43c f177 f73c
00000110: ee04 a7bd de84 833c 43ee 5abd 96c2 89bc
00000120: cb98 91bb fd97 5cbd 04ff 77bd c127 0cbd
00000130: dd86 21bd 36dd a23d e880 3d3d 6ccc a33d
00000140: 2dd1 853d 8222 6c3d 4630 3bbd a4ff a4bb
00000150: bee5 9fbd f5c7 54bd dfb8 123d 0f2d 0dbd
00000160: 598e 0b3c cd97 9dbd ddcc 9fbd d0db 823c
00000170: b46e 173d fd5a 1ebd 0e19 eabc fb1c e5bc
00000180: 81d7 0e3d 4798 82bc 8cdb 2e3d 0c19 cdbb
00000190: e400 12bc c826 25bd 9703 1abb 0c62 65bc
000001a0: 46ee a93d a232 c6bc 7a0c 28bd dfa9 38bc
000001b0: 12fa babc ebef 5b3d 5eda 463d c7ac 333d
000001c0: 9005 f9ba 717f 0abc 25c3 23bd d838 a0bd
000001d0: cd39 dbbc 0c98 2dbb d2c3 e4bb ef92 92bd
000001e0: 77ed 59bd 07c5 f6bc b3f8 afbd 7bd6 fbbc
000001f0: 08e3 c63d c4c6 93bd e058 b3bd 5038 393d
00000200: ab2e c5bc b81c 0d3e 39bd 003e 6b81 6b3f
00000210: 4c65 22bd 0fce c43c 9389 7f3e d383 d23e
00000220: ada1 83bc 9604 c3bd 9ce4 0e3d 9815 533e
00000230: a016 12bd 90ca 5a3e b9d2 5fbc b309 da3d
00000240: a435 40bd e2e3 403d 4344 a43b 75b4 d53e
00000250: 8122 283e e2a2 903d aaaa a73e 0516 923d
00000260: 582b febd 9164 bb3d 79e7 1c3e 33d8 89bd
00000270: d719 50be 4f9e b3bc cd3b 6c3a bdda a4bd
00000280: 2fbc e23d f28a 7f3d 1571 e23e 4072 e4bc
00000290: bd54 a4bc acb5 a1bd 0f56 2e3e 6e84 a43e
000002a0: e7a2 cb3d d80b 91bb 85a1 7abd 7077 40bd
000002b0: 30f4 103f 6557 823d c8ff 3fbb 9491 073e
000002c0: 93a4 e5bd 6831 b3bd 4672 a03d 54e2 ff3e
000002d0: d586 323c c078 723f d23a a9bc a09c 973e
000002e0: bf27 9d3e 01ae 90bb 2254 d23c e36f 0e3e
000002f0: 1683 3e3f 9b51 c8bd 4e5b f23c 0c69 2a3e
00000300: 7d63 b53d bf3c 8f3e eb0c b83e ba0a b3bc
00000310: 048b 86bd 1178 423d 3544 0cbd 69fe 7b3f
00000320: fce4 a43e f2cd 24b8 8cd5 3fbd f133 233f
00000330: 129f 103d b66c 673e 3587 963e d9eb 50bd
00000340: c6eb f53e cadb f53e 9dd3 513e 7523 57bd
00000350: 3236 e7bc c62e 163e 0569 073e 055b 1e3e
00000360: 034b 32bc 26e7 273d 3b6f 42bd fc51 c03c
00000370: 16dd 2c3e 4269 943d d5f0 a23c 066b 27bd
00000380: 810b 3bbd e975 203e d606 d6bd c7f7 063f
00000390: 0937 a4bd d24b 1e3d fde4 053f f168 aa3d
000003a0: 95cf f3bd 0849 8d3e 6a00 a3bd 5fd8 b1bd
000003b0: ecb2 a33e e459 673d 4da8 f1bc 7215 3c3f
000003c0: 7c6d 0e3f 4eab a6bd 250a 67bc ec0a ad3e
000003d0: 914a 2cbe fa27 013f 9a98 29bc 3d7c c33d
000003e0: a03e a3bd db8b 27bc 1f05 8fbd bfe9 583c
000003f0: bbd6 4cbd 6b8d 783d 9304 8dbb cf98 853d
0.013389366 -0.088715754 0.017032659 0.008693408 -0.002462983 -0.013994208 0.03620964 -0.0563482
0.04481032 -0.028018909 0.03380799 -0.025426067 0.06500173 -0.04822234 0.050420325 -0.0517233
1.4029755e-05 -0.051450428 -0.06428504 0.018675465 0.04253324 -0.011135461 0.004237579 0.08373598
0.07051798 0.010707996 0.05749883 0.0015796323 -0.00497199 0.01606867 -0.06344573 0.0032819868
-0.08542141 0.028409969 -0.061720576 -0.014735233 -0.011899309 -0.08132453 -0.078467585 0.0005783812
-0.09253321 -0.02224792 0.05968178 0.021940822 0.049120344 -0.081508875 -0.061628345 -0.04863844
0.0029248297 0.0010186683 -0.012441486 -0.033819918 0.02632649 -0.071122296 0.059378367 -0.03235652
-0.071853004 -0.005939515 0.044823345 -0.014072997 0.02568078 -0.0060514063 0.056581195 -0.077015296
-0.017508334 -0.037279334 0.020093085 0.03020856 -0.08155237 0.016054567 -0.05344988 -0.016816419
-0.004443263 -0.053855885 -0.060545936 -0.0342176 -0.039435256 0.07952349 0.046265513 0.07997975
0.06534038 0.057650097 -0.045700334 -0.0050353575 -0.07807492 -0.051948506 0.035820838 -0.0344668
0.008517825 -0.07694969 -0.078027464 0.015973955 0.03697081 -0.038660992 -0.0285764 -0.02796792
0.03487349 -0.015941752 0.042689845 -0.0062590893 -0.008911345 -0.040320188 -0.0023500675 -0.014000427
0.082974 -0.024194065 -0.041027524 -0.011270969 -0.022824321 0.0536956 0.048548095 0.043865945
-0.001899885 -0.008453236 -0.039981026 -0.07823342 -0.02676096 -0.0026488332 -0.0069813514 -0.071569316
-0.05320498 -0.030123247 -0.085923575 -0.03074192 0.097112715 -0.07215646 -0.08757186 0.04521972
-0.024070105 0.13780487 0.12572183 0.9199435 -0.039647385 0.024024038 0.24954824 0.411162
-0.016068304 -0.09522359 0.034885988 0.20613706 -0.035666108 0.21366334 -0.01366108 0.10646381
-0.046926156 0.047092326 0.0050130202 0.4173924 0.16419412 0.070623174 0.32747394 0.07133106
-0.12410611 0.09150041 0.15322675 -0.0673069 -0.20322357 -0.021926073 0.00090115966 -0.080495335
0.110710494 0.062388368 0.442269 -0.02788651 -0.020059938 -0.07895979 0.17025016 0.32132286
0.099431805 -0.0044264607 -0.061189193 -0.046988904 0.566226 0.063643254 -0.0029296745 0.13239127
-0.11213031 -0.08749658 0.07834296 0.49977362 0.010896404 0.947155 -0.02065793 0.29611683
0.30694386 -0.004415274 0.025674883 0.13909869 0.7441877 -0.0978119 0.029584553 0.16641635
0.088568665 0.27976033 0.35947356 -0.0218557 -0.06569484 0.047477785 -0.034244735 0.98435074
0.3220595 -3.929245e-05 -0.046834514 0.6375113 0.03530795 0.22600064 0.2940003 -0.05100617
0.48031443 0.48019248 0.2049088 -0.05252405 -0.028224085 0.1466628 0.13223656 0.15464409
-0.010882142 0.040991925 -0.04746936 0.023476593 0.16881213 0.07246639 0.019890228 -0.04087355
-0.045665268 0.15669979 -0.104505226 0.5272183 -0.080183096 0.038646527 0.52302533 0.08320797
-0.119048275 0.2759478 -0.07959063 -0.08683848 0.31972444 0.05648221 -0.029499197 0.7347022
0.5563581 -0.081381425 -0.01410154 0.33797395 -0.1682532 0.50451624 -0.010351324 0.09545181
-0.07970929 -0.010226215 -0.06983399 0.013239323 -0.05000947 0.06068174 -0.004303524 0.065232866

_CNNDDQN__fc2Value.bias f4 [128]
00000000: 0f8e 86bd 7a8c 273e a4a5 1a3e 77a0 b3bf
00000010: 8350 7e3e b798 47be efb3 8ebc ed28 9e3d
00000020: 111e c93d 5ea3 f43f a7c0 1f3e 19e5 d0bd
00000030: 37d4 54be 63f1 37be afb1 0b3f ac88 ae3d
00000040: 9a0a 92bf f2d4 683e 83e5 443e ea8d 0f3e
00000050: 9680 233e c2e1 3d3f cfc3 02bf 0164 7d3f
00000060: c56a 0d3f c3ed 903e 7a1a 783e ebe7 8fbf
00000070: 1651 09bd a707 383f 7e0c fa3c 6588 09be
00000080: 517d 3dbd 70d4 aebf 7a19 243e 2b8c a4bf
00000090: c309 7c3d 5df7 013f a874 4abd 527c 43be
000000a0: 6266 2d3e f9a6 c0be 5198 a43e c083 a4be
000000b0: a0c8 7abe 802a 55be 9e12 fcbe e703 ac3c
000000c0: 2664 4f3f 9c2b 15bd 0bef 0c3e 994e d73e
000000d0: c72c 223f 2ab8 0c3f 0f7b f03e 0c1a ec3e
000000e0: 9b8c 813e a1d0 bfbf c74c 35bf f01c c73c
000000f0: 074e 54bf 37c0 ecbd 4c36 243e 8170 23be
00000100: 435e 013d 1285 dfbd a2bf 333f 02ea 2abe
00000110: 8376 5cbc e469 cf3e 0a44 35be 1e02 173f
00000120: 8df8 7f3d bc93 233d 7d35 163f 8ce7 203e
00000130: 9162 663f 1f6d b8be 2286 cd3d d9dd 97ba
00000140: 6dde e53e d018 793e f558 17be 6b15 efbe
00000150: 3483 023f d916 b7be 12fe fdbe b122 19bf
00000160: 6338 3b3e a2c1 863e 35e6 263e db47 ed3c
00000170: 22ec 493e a56c 9d3e 6a57 8cbe bd5a 303f
00000180: a839 1dbe 7c45 08bf d9ee 3abf 22af 18be
00000190: 32ae abbe db21 98bc c5aa c5be 370e a03e
000001a0: 4d8d 05bc 2bac 92bc 5458 8dbf 5b3d a33f
000001b0: e7e6 83be 5a70 d5bd de7f e8be d163 d3be
000001c0: c7db 03bf 70d0 213f f252 0d3d 6178 95be
000001d0: 5510 bd3d 69d0 453f f168 c73b e50b 863f
000001e0: 800b bebe 3fbc 0ebe a57e 6cbe 6c43 f23e
000001f0: e996 f73d 8354 e73b f106 60bf 926a 61be
-0.06570064 0.16362181 0.1510225 -1.4033345 0.248354 -0.1949185 -0.017419783 0.0772265
0.09820188 1.9112356 0.15600835 -0.10199947 -0.20784079 -0.17963175 0.54568 0.08522162
-1.1409485 0.22737482 0.19228177 0.1401898 0.1596702 0.74172604 -0.5108003 0.9898072
0.5524104 0.28306398 0.2422885 -1.1242651 -0.033524595 0.71886677 0.030523535 -0.13430937
-0.04626209 -1.3658581 0.16025344 -1.2855276 0.061532747 0.5076807 -0.04942766 -0.19090393
0.16933587 -0.3762739 0.32147458 -0.32131767 -0.24490595 -0.20816994 -0.49232954 0.020997955
0.8101219 -0.036418542 0.13763063 0.42052153 0.63349575 0.5496851 0.46968886 0.46113622
0.25302586 -1.4985543 -0.7082028 0.02430579 -0.8293156 -0.115600996 0.16036338 -0.15960886
0.031584036 -0.10914053 0.70214283 -0.1669083 -0.01345599 0.40510476 -0.17701736 0.58987606
0.062492896 0.039935812 0.58675367 0.15713328 0.8999415 -0.36020753 0.100353494 -0.0011586501
0.4489626 0.24325871 -0.14780028 -0.46696028 0.5098145 -0.3575962 -0.49607903 -0.5981856
0.18283229 0.26319605 0.16298755 0.028964927 0.19718984 0.30746952 -0.27410442 0.68888456
-0.15354025 -0.53231025 -0.730207 -0.14910558 -0.33531338 -0.018570831 -0.3860685 0.31260845
-0.0081513645 -0.017904362 -1.1042581 1.2753099 -0.25762102 -0.1042182 -0.45410055 -0.4128709
-0.5150723 0.63208675 0.03450293 -0.29193404 0.09231631 0.77271134 0.006085508 1.047238
-0.3711815 -0.13938998 -0.23095186 0.47317064 0.12089331 0.007059635 -0.8751059 -0.2201331

_CNNDDQN__fc3Value.weight f4 [128, 128]
00000000: ca1a a7bd 68c6 c5be 01f3 7dbe 1a55 94be
00000010: 5847 4e3f b98a 423f 2878 bcbe 8c37 133f
00000020: 3949 8c3e d0ae 80bf 34ca 713b 67fc eb3d
00000030: d741 9bbd 5072 9e3d a06d 773f 39d0 233f
00000040: 250e a13e b176 093e add9 443f 4cd9 8b3e
00000050: 8148 cf3f bc99 33bf 69fa 243f 2e49 91bd
00000060: 3ba3 443e 2274 88be 3b95 773f 3fb5 92be
00000070: 5bf8 4a3d 0b92 7d3f 3c33 a8be 792b a7bc
00000080: 9dfb 9ebc d468 0dbf bf50 dc3f a1d1 0c3f
00000090: 7e20 eb3e 2b12 593e 1071 c83e e292 c5bc
000000a0: 2899 2bbd c0f2 8f3d d664 11bf 42de 2b3f
000000b0: 4f9f 413e 78d0 a83f 5228 833f c27f 21bc
000000c0: 7a59 50bf 9662 a3bd f09d 39be 5c99 453d
000000d0: 8686 563f 27fc 403f 8139 e03f ec45 40be
000000e0: 987e a53f 9cc5 0bbf 3cf9 623f bcf4 6a3d
000000f0: d773 3ebd ad4e e13c ac78 f23e 6b49 2cbe
00000100: 3475 ae3e 9729 26be 9983 0dbf 40d8 2d3f
00000110: 41ba b53f 6091 b53f 691c 893f 3845 2cbf
00000120: 56ce 893f 7c8c f93d 6d1b fd3e e5b8 073e
00000130: 53b0 243f 9dbf 773e c78d babf 0faa 8e3f
00000140: da20 adbf b5c9 8bbd a7a7 073e 3d74 0b3f
00000150: 5d98 88be 0347 ad3f c3cd e13d 12c6 243f
00000160: 9950 db3e 21ee 903f 8909 bd3f 8397 763f
00000170: 00d7 853d ead9 8e3f fdeb 6a3f e4fb 173e
00000180: 3ace 653e 3f4a 503e 9392 843f 5d74 7a3e
00000190: 3b8f 58be 1f80 28be e189 9c3e 6148 023f
000001a0: 4a78 73be c9a7 10bd dae1 30bd fdcf 453e
000001b0: 1a82 45bc f716 d73d 21f9 123e 8997 6c3f
000001c0: 7a5c 9f3d 0934 8e3e 7f3f 2b3e ec6f 293f
000001d0: 57f4 113d 88be 0d3f 8342 ce3c 9dc1 0fbf
000001e0: ecc7 f7bd f1b8 21be 1d18 bb3e 887a 0ebf
000001f0: 36d7 f93e da08 713e ba59 093e 1330 813f
00000200: 9eca 4b3d eef0 713f 8404 f0be fac4 f4be
00000210: c975 e7be cea7 28bf 1c46 09bf 8f06 c2be
00000220: 1569 6ebd dfaf 4abe 1b72 66bf 7b65 7fbe
00000230: 9386 49bf ed82 97be 1037 1abf e7de 87bf
00000240: 76e4 84bf ee21 59bf 51b2 a5bf c72e 11bf
00000250: dfcf a7bf dfdd 60bf 4044 64bf fad2 51be
00000260: ddde 25be a8f4 a1bf 23b3 7dbf 0118 4e3e
00000270: 5139 a2bc 0689 5ebf c02e 97be 9398 9f3d
00000280: d67c 54bd 7625 26bf 6d3d 6dbf 9748 c4be
00000290: e867 09bf e8f9 8dbd 700e 1b3e 91a6 61bf
000002a0: c84f 0abf b822 d8be 8c59 5ebf a4d6 93bf
000002b0: 9dae 633e 8a8a 4abd 1f0c 9fbf d894 3abd
000002c0: a7eb b7be 182a 90bd 675a 123e 0642 f23d
000002d0: 3b43 7abf 841d 01be 8926 54bf 05f6 95be
000002e0: 2e72 e4be 946f 02bc bc0e 2fbf bf16 063d
000002f0: 6805 b8be de2f 963d 28df acbd fba4 5ebe
00000300: 0745 493d d5e8 01be 52e7 3ebf 2a6a 393f
00000310: 85b6 e0bf a036 03bf e0b2 87bf 10dc 18be
00000320: 387c 40be 3215 b2bf a458 e1be 41e6 e0bd
00000330: 0a94 d7be 881a 1dbf f3fa 313f 5124 88bf
00000340: ae2b b2be 8dcf 06bf 61d4 bdbf 3610 bf3e
00000350: e57a 33bf 64c2 083e 13da df3c e0a7 d2bf
00000360: c3eb 72bf 16cb a83e 90b0 1ebf 4b63 80bf
00000370: c85b 98bd 7cb9 23bb 3529 25c0 21e9 90bf
00000380: cd6c 4e3f 277c 1ebd 5ff3 11bf 3072 33bf
00000390: af1b 75be ac50 83bf bd1b 8cbf bd9c 4cbf
000003a0: ab5e 58bf 8ab9 83bd 70a9 133e 5a93 94bf
000003b0: 5388 93be f525 c8bc ce8b 0ac0 2b81 05bf
000003c0: b62e 1abf 5bc2 f2be 8b8f 1bbe 161e 663e
000003d0: f1c5 3b3d 183e 69bf f04f afba 6307 8fbc
000003e0: 7bc7 eebe 47d9 aabd d1eb efbf 0cdf c7be
000003f0: 195b c83c 999f cd3b f177 ddbe 75e8 0ebe
-0.081594065 -0.38627934 -0.2479973 -0.28971177 0.8057761 0.75992924 -0.36810422 0.5750663
0.27399614 -1.0053349 0.0036894204 0.11522751 -0.07580917 0.07736647 0.9665165 0.639896
0.31456104 0.13424183 0.76894647 0.27314222 1.6194001 -0.70156455 0.64444596 -0.07094036
0.19202892 -0.26651102 0.9671208 -0.28653905 0.049553256 0.9905097 -0.3285159 -0.020406472
-0.019407088 -0.5523808 1.7212142 0.5500737 0.45923227 0.21198337 0.3914876 -0.02411789
-0.041894108 0.07028723 -0.5679449 0.67136014 0.18908428 1.318862 1.024668 -0.00985712
-0.8138653 -0.07977788 -0.18126655 0.048241958 0.83799016 0.75384754 1.7517549 -0.18776673
1.2929258 -0.545984 0.8866155 0.057362303 -0.046497192 0.027503336 0.4735769 -0.16824882
0.34073794 -0.16226803 -0.5527893 0.67908096 1.4197465 1.418499 1.0711795 -0.6729312
1.0766094 0.121849984 0.49434987 0.13254125 0.6433155 0.24194188 -1.4574517 1.1145648
-1.352565 -0.06825582 0.13247548 0.5447424 -0.26678744 1.3537296 0.11025574 0.6436473
0.4283493 1.1322671 1.4768535 0.9632494 0.065351486 1.1160252 0.9176634 0.14842182
0.2244195 0.20340823 1.0357231 0.24458452 -0.21148388 -0.16455124 0.30573943 0.5089169
-0.23776355 -0.035316262 -0.04318414 0.19317622 -0.012054944 0.10502427 0.14352848 0.92418724
0.077813104 0.27774075 0.1672344 0.66186404 0.03563341 0.5536885 0.0251782 -0.56154805
-0.12098679 -0.15793206 0.36541834 -0.5565572 0.48797005 0.23538533 0.13413134 1.0092796
0.049753778 0.94508255 -0.46878445 -0.4780653 -0.4520705 -0.6588105 -0.53622603 -0.3789563
-0.058205683 -0.19793652 -0.9001786 -0.24941055 -0.7872097 -0.29592076 -0.6024027 -1.0614899
-1.0382221 -0.848174 -1.2945043 -0.56712 -1.3110312 -0.8783855 -0.8916664 -0.20490637
-0.16198297 -1.2652788 -0.99101466 0.20126344 -0.019802721 -0.8692783 -0.29527855 0.07792773
-0.051876865 -0.6490091 -0.92671853 -0.38336632 -0.53674173 -0.069324315 0.15142226 -0.88144785
-0.54027987 -0.42213988 -0.8685539 -1.1549878 0.22234578 -0.049448527 -1.2425574 -0.045552105
-0.35921976 -0.07039279 0.14292298 0.11828999 -0.97758836 -0.12608916 -0.828713 -0.2928926
-0.44618362 -0.007961173 -0.6838186 0.032736536 -0.35941625 0.07333349 -0.08441001 -0.21742623
0.049138095 -0.12686475 -0.74571717 0.7242762 -1.75557 -0.51255226 -1.0601463 -0.14927697
-0.18797386 -1.3912718 -0.4401294 -0.109814174 -0.42105132 -0.6136861 0.69523543 -1.0636083
-0.3479895 -0.5266045 -1.4830438 0.37317055 -0.701094 0.13355404 0.027325666 -1.6457481
-0.94890994 0.32967442 -0.61988163 -1.0030302 -0.07439381 -0.0024982383 -2.58064 -1.1321145
0.80634767 -0.03869262 -0.5701198 -0.7009611 -0.23936342 -1.0258994 -1.0945965 -0.79926664
-0.8451945 -0.06431873 0.14420104 -1.1607468 -0.28814945 -0.024432162 -2.164783 -0.5215022
-0.60227525 -0.47413906 -0.15191476 0.22472414 0.04584307 -0.9111037 -0.0013375264 -0.017459577
-0.46636567 -0.083422236 -1.874384 -0.3903736 0.024457501 0.006275129 -0.4325557 -0.13955863

_CNNDDQN__fc3Value.bias f4 [128]
00000000: 1c5f ddbf e8cf 2bbf f621 c1bf 6398 613e
00000010: b272 7c3e f100 f23f 70b9 62bf 5a96 cbbe
00000020: b304 92be 7fa2 2dbe 195b aabe ad5b 0cbf
00000030: 381c ee3f af5b 97be f5c6 20bf a3f7 09bf
00000040: efe0 8cbf 6b4d 1f3e edde 71bc 9706 63bf
00000050: 61cd 37be 061e 16be bb7a fabe 79af 2dbd
00000060: 1e14 003e 3079 0840 7286 ebbe f6d2 bb3f
00000070: 2f7a d53d 89a5 82be 368d 7abf 35ff bc3f
00000080: d77a a1bf 0d5a 24be 5488 64be e919 d2bd
00000090: 82f1 4bbf 6610 063f d714 b0bf 28b5 fe3c
000000a0: 642f 5b3e 4008 253f 5690 a63e 3470 27bf
000000b0: 65f5 153e d744 a2bf 87a4 f33e 0fc8 6cbc
000000c0: 707c 6dbe 1b76 9dbe 6eca 2d3e 2558 c03d
000000d0: a482 fd3e f1f3 1bbd 2f1f dc3f 192f e8be
000000e0: 2545 a13d b40b aabf 5750 703e 8687 a43e
000000f0: 4996 923f ee5b 2b39 02cf 05bf 7674 36bc
00000100: 7c67 e63f d4ae 393e 991f 96be 5c45 de3f
00000110: fb3a 8dbf ec76 c33d cfe5 c33d 68b3 3c3d
00000120: 77bb 63bf 4433 a6be 3199 8fbf da67 20be
00000130: b81b 3ebf 3f2b 0cbe 9c83 de3d 51dc 20be
00000140: 9710 9e3f 97a5 ae3c 3a9b 1bbd be87 0fbf
00000150: 1135 15bd ee29 7ebf cd66 05bf 2773 493e
00000160: b39f 21bd 59a0 35bf 636d 88bf ac14 a3bf
00000170: ef18 83bf 43d3 33bf c452 d8be 3a49 a7be
00000180: 54a1 13bf 37d0 613d 25eb 37bf ffd2 30be
00000190: fcfa b4be 1c55 d83e 6e79 d8bd a31e 26be
000001a0: b84c 8b3e 6d31 0c3d 66c2 8dbd 586d 91be
000001b0: 308c 8f3f 6190 cabd 2eea 9b3d 6811 07be
000001c0: 5321 97bd d12c 8f3d 21c3 32bf 5a07 763f
000001d0: f070 a2bd ee97 ba3d 4e87 183d 8298 ac3f
000001e0: a96a d53f 8aa7 10bd 588b 123d eec2 efbe
000001f0: d131 9ebe 0bc6 3fbe 41dc dc3d 0dc5 453e
-1.729465 -0.67114115 -1.5088489 0.22030787 0.24653128 1.8906537 -0.88564205 -0.39763147
-0.2851921 -0.16956519 -0.33272627 -0.54827386 1.8602362 -0.29562137 -0.62803584 -0.5389349
-1.1006144 0.15556876 -0.014762622 -0.8868193 -0.1794944 -0.1465989 -0.4892176 -0.042403672
0.12507674 2.1323967 -0.4600101 1.4673755 0.10423695 -0.25516918 -0.9787172 1.4765383
-1.2615613 -0.16049977 -0.2231763 -0.10258848 -0.79665387 0.5236877 -1.375636 0.031092241
0.21404797 0.64465714 0.32531995 -0.65405583 0.14644392 -1.2677258 0.47586462 -0.014451995
-0.23192 -0.3075417 0.16971752 0.09391812 0.49513733 -0.038074438 1.7197016 -0.45348433
0.078745164 -1.3284822 0.23468147 0.32134646 1.1452113 0.00016342077 -0.52268994 -0.011136165
1.8000331 0.18133098 -0.29320982 1.7364917 -1.1033624 0.09544167 0.09565317 0.046069533
-0.88957924 -0.32460988 -1.1218625 -0.15664616 -0.74261045 -0.13688372 0.10864946 -0.15709044
1.2348813 0.021319194 -0.037989832 -0.560665 -0.03642756 -0.9928273 -0.52109987 0.19672833
-0.03945894 -0.70947796 -1.0658382 -1.2740684 -1.0241984 -0.70244235 -0.42250645 -0.32673055
-0.5766804 0.05513021 -0.7184318 -0.17267989 -0.35347736 0.42252433 -0.10570036 -0.16222624
0.2720697 0.034226824 -0.06921844 -0.28403735 1.1214657 -0.09890819 0.076130256 -0.13190234
-0.07379403 0.0699097 -0.69828993 0.9610497 -0.07931697 0.091110095 0.03723841 1.3484042
1.6673175 -0.035316028 0.03577742 -0.46828407 -0.30897382 -0.18727891 0.107841976 0.1931345
