code/models/DuelingDoubleDQN/model180.pth (torch, 434555 bytes, 21 tensors)

_CNNDDQN__conv1.weight f4 [16, 1, 5, 5]
0.06043725 0.023159621 0.011984312 0.053208638 0.108571425 0.06991262 0.069644704 0.10383255
-0.014206988 0.13595665 0.07414982 0.09527268 0.028288802 0.08795204 0.10574243 0.06537954
0.077942535 0.13168293 -0.04502529 0.1665164 0.14061889 0.15046073 -0.0065568504 0.10172414
0.45104045 0.00066983444 -0.00885591 0.00012555542 -0.007538413 -0.012719814 -0.014671185 -0.005976317
0.0028400375 -0.0022709542 0.0005244334 -0.0044727526 -0.008410535 0.001107173 0.007234792 0.0108156325
0.016003978 0.010737514 0.0063320547 0.0048475466 0.006626656 -0.0070274402 0.020936426 0.5704275
0.006609201 -0.0071462123 -0.004731595 -0.008649178 -0.010623996 -0.02417943 0.78776056 -0.005152749
0.0003062073 -0.0014712354 0.0046870536 0.014233184 0.0018804059 0.004098189 -0.004257522 0.0015103609
0.0160663 -0.0029639248 -0.0012124416 -0.007945645 -0.004227214 -0.0010177197 0.0054229363 0.0004857086
-0.001338379 0.0074798875 1.8856306e-05 0.021371128 0.03992824 -0.0001677005 0.038766883 -0.02450055
-0.014198568 0.12144724 -0.033558782 -0.045809224 0.02805763 -0.11492535 -0.0717738 -0.1317052
0.15317506 -0.024818968 0.13651149 -0.065021284 -0.6608165 -0.050582692 0.024455756 -0.22445765
-0.7490805 0.7002047 -0.29609668 -0.008624963 -0.0086037945 -0.002086048 -0.058853455 0.18263674
0.015222202 0.01935183 0.0053509986 0.11946644 -0.80837744 0.15176141 -0.011859684 0.015818853
0.002874939 -0.52800435 0.03168726 0.0122041665 -0.0017506471 -0.025939556 0.016003042 0.025652638
0.020312859 -0.009817084 0.012046383 0.029553417 -0.008380442 -0.015321305 0.0096497 0.0013199091
-0.01784359 -0.025774673 -0.009184136 0.0033884305 0.004918171 -0.010176485 0.007896387 0.0065732915
0.014899628 -0.008681689 -0.04595545 -0.025492264 0.013348152 0.018691514 0.0008331284 -0.062190585
0.33652607 0.006445075 -0.0022494763 -0.0069530937 0.015841734 0.008525561 -0.021469295 -0.16359226
0.2613034 -0.26337996 0.0076592304 -0.004706755 0.3660883 -1.4035141 0.2924661 -0.033794463
0.021913864 0.13557184 0.43097314 0.041662253 -0.007958902 -0.06390971 -0.019249167 0.12549074
0.030556023 -0.021810152 0.013443133 0.016305884 -0.06237814 -0.02298107 0.025339771 -0.19043054
0.33241087 -0.48214075 0.27052718 0.17576814 0.19491714 -0.5228611 0.36407143 -0.16082762
-0.036108684 -0.2183683 0.31622362 -0.18239021 0.037295613 -0.035257358 -0.008636194 -0.14329843
0.04290153 -0.0105462605 -0.026276423 0.14759831 -0.104744256 -0.017343124 0.01223824 -0.03137864
-0.021163005 0.0072685434 0.013394552 0.0012778754 0.00093918754 -0.0021356533 0.0026661342 -0.00011807334
0.021455782 0.012369873 0.016754776 -0.015736394 0.017025495 0.0071486444 0.020217383 0.007519245
0.011911954 -0.013791109 0.048267856 -0.12932558 -0.012772963 0.030733636 0.0035981159 -0.077082835
0.68311375 0.02784533 0.0031881167 -0.016189702 0.012278476 -0.007456722 0.0017938396 0.0101962695
0.006892484 -0.0018344609 0.009927094 0.00048062252 0.012399528 0.0061218236 -0.009703761 0.011209053
-0.0081444895 0.014465973 -0.010417179 0.0028279729 -0.0078032943 -0.14790833 0.5866004 -0.11857279
-0.024003556 0.0003158738 -0.051621854 -0.016487721 -0.025757555 0.0027918913 -0.048928298 -0.048641685
00000000: 0d8d 773d 3fb9 bd3c d959 443c 4df1 593d
00000010: b25a de3d 592e 8f3d e2a1 8e3d 29a6 d43d
00000020: 6dc4 68bc 3838 0b3e dcdb 973d 531e c33d
00000030: ebbd e73c 3320 b43d 7d8f d83d b5e5 853d
00000040: 56a0 9f3d e4d7 063e 706c 38bd 4683 2a3e
00000050: 66fe 0f3e 6112 1a3e d9da d6bb bf54 d03d
00000060: c6ee e63e d497 2f3a 6118 11bc 87a7 0339
00000070: cb04 f7bb c466 50bc 695f 70bc fbd4 c3bb
00000080: ec1f 3a3b 4ad4 14bb 217a 093a 2b90 92bb
00000090: 57cc 09bc 901e 913a d611 ed3b 0d34 313c
000000a0: c61a 833c 66ec 2f3c 207d cf3b 2bd8 9e3b
000000b0: 6b24 d93b 7146 e6bb de82 ab3c 8907 123f
000000c0: ff91 d83b c62a eabb 7f0b 9bbb 48b5 0dbc
000000d0: 4510 2ebc f113 c6bc adaa 493f 64d8 a8bb
000000e0: 738a a039 78d6 c0ba db95 993b 4d32 693c
000000f0: f477 f63a 1a4a 863b af82 8bbb 4df7 c53a
00000100: 799d 833c 683e 42bb caea 9eba 732e 02bc
00000110: 7184 8abb 0265 85ba e3b2 b13b b4a6 fe39
00000120: 8c6c afba d819 f53b 9c2d 9e37 8112 af3c
00000130: cb8b 233d c3d8 2fb9 06ca 1e3d 61b5 c8bc
00000140: 1ca1 68bc 55b9 f83d ef74 09bd 74a2 3bbd
00000150: 1dd9 e53c fb5d ebbd 24fe 92bd badd 06be
00000160: ecd9 1c3e 2651 cbbc abc9 0b3e e129 85bd
00000170: 452b 29bf cc2f 4fbd 7057 c83c 3ad8 65be
00000180: bdc3 3fbf 9d40 333f fc99 97be b84f 0dbc
00000190: eef6 0cbc 14b6 08bb 5210 71bd 2005 3b3e
000001a0: 8b66 793c bb87 9e3c 6e57 af3b d2aa f43d
000001b0: d3f1 4ebf 5867 1b3e 1f4f 42bc 8a96 813c
000001c0: 7969 3c3b 4b2b 07bf 80ca 013d fcf3 473c
000001d0: f875 e5ba 317f d4bc d018 833c 7b25 d23c
000001e0: 2767 a63c d6d7 20bc 315e 453c 021a f23c
000001f0: 1f4e 09bc 3606 7bbc c619 1e3c cd00 ad3a
00000200: b82c 92bc 6825 d3bc 0f79 16bc 6e10 5e3b
00000210: 9c28 a13b 46bb 26bc d95f 013c c464 d73b
00000220: 921d 743c a53d 0ebc c83b 3cbd 27d5 d0bc
00000230: 35b2 5a3c f21e 993c 4d66 5a3a 8ebb 7ebd
00000240: 254d ac3e 3531 d33b f36b 13bb c7d6 e3bb
00000250: 86c6 813c cbae 0b3c 60e0 afbc bb84 27be
00000260: 8fc9 853e bdd9 86be 48fa fa3b 1f3b 9abb
00000270: ed6f bb3e 5aa6 b3bf 1ebe 953e 106c 0abd
00000280: b484 b33c 58d3 0a3e 83a8 dc3e 0aa6 2a3d
00000290: 0e66 02bc 18e3 82bd 6eb0 9dbc a580 003e
000002a0: a050 fa3c 34ab b2bc 9640 5c3c eb93 853c
000002b0: 3880 7fbd cc42 bcbc 5a95 cf3c 3900 43be
000002c0: c231 aa3e 27db f6be 8a82 8a3e 90fc 333e
000002d0: 5c98 473e 3ada 05bf 9267 ba3e ffaf 24be
000002e0: b3e6 13bd f19b 5fbe 10e8 a13e 80c4 3abe
000002f0: 49c3 183d 056a 10bd d37e 0dbc d3bc 12be
00000300: 84b9 2f3d 39ca 2cbc a741 d7bc 0324 173e
00000310: 2884 d6bd 2b13 8ebc e682 483c e486 00bd
00000320: 0a5e adbc f62c ee3b d374 5b3c 627e a73a
00000330: cf33 763a 51f6 0bbb 4fba 2e3b 249e f7b8
00000340: 09c4 af3c 02ab 4a3c 5041 893c 9ce9 80bc
00000350: 0d79 8b3c 2d3f ea3b ed9e a53c 0064 f63b
00000360: 5b2a 433c 1bf4 61bc 84b4 453d ed6d 04be
00000370: b145 51bc 1bc5 fb3c 5ece 6b3b 9bdd 9dbd
00000380: 8be0 2e3f e41b e43c b9ef 503b 44a0 84bc
00000390: a92b 493c 8557 f4bb 451f eb3a 410e 273c
000003a0: 59da e13b 4b72 f0ba 40a5 223c 10fc fb39
000003b0: 6427 4b3c 9499 c83b 86fc 1ebc 2da6 373c
000003c0: 7770 05bc b002 6d3c d1ac 2abc 8355 393b
000003d0: c7b2 ffbb 4875 17be 722b 163f 4ad6 f2bd
000003e0: 1ba3 c4bc dd9b a539 7071 53bd 4211 87bc
000003f0: 8201 d3bc 2af8 363b 0a69 48bd 813c 47bd

_CNNDDQN__conv1.bias f4 [16]
-0.02520153 -0.2146165 -0.2460742 -0.11635248 -0.03386916 -0.1142265 -0.37691665 -0.115543514
-0.13934918 -0.12624751 0.029973706 -0.23930539 -0.2584691 -0.12140808 -0.04657255 -0.22953111
00000000: 7073 cebc 6ec4 5bbe e0fa 7bbe 364a eebd
00000010: 63ba 0abd 95ef e9bd 38fb c0be 14a2 ecbd
00000020: 8db1 0ebe 0747 01be 6b8b f53c 790c 75be
00000030: 1056 84be cda4 f8bd dcc2 3ebd 340a 6bbe

_CNNDDQN__conv2.weight f4 [32, 16, 3, 3]
-0.033271886 -0.10510719 -0.0282979 -0.09317466 -0.07699197 -0.15833454 0.45398188 0.37604007
0.083633125 1.0253657 1.8209555 1.594552 0.49192324 1.4287906 1.8087009 -0.39694124
0.8940618 0.7238378 0.07421597 -0.12653798 0.040261276 -0.09434468 -0.062159277 -0.037076958
0.18522754 -0.2872072 0.07572002 -0.060290202 -0.22393708 -0.026673827 -0.078475915 -0.2529844
0.069746055 -0.49701378 -0.28915825 0.035894103 -0.18717597 0.33430246 0.056522094 0.019350963
0.21043298 0.13766263 -0.032315362 0.26831096 0.19166386 1.0182182 0.15761715 0.31349805
-0.14221697 1.0587125 0.72838295 -0.22519277 1.4316773 1.1695986 -0.3285465 -0.07456796
-0.21394315 0.33304664 -0.54794973 -0.05394303 0.09939571 -0.04378808 -0.4046075 0.196921
0.08356846 0.2069457 0.036515344 -0.1652186 -0.035011917 -0.23365703 -0.043902393 -0.13602181
0.24812518 0.28361183 0.093060546 0.11329669 0.18472488 -0.005650108 -0.19862548 -0.16738877
-0.3251257 -0.016987538 -0.051971752 0.28319335 0.32119608 0.49832234 0.4123619 -0.36230236
0.11140988 -0.4934163 -0.176909 -0.22328804 -0.15210184 -0.0969252 -0.099735215 -0.0753714
0.850325 -0.05503392 -0.35173866 0.0064014844 -0.012470967 -0.05510554 -0.060496967 -0.03956045
0.0785943 -0.012390731 -0.02823871 -0.09328209 -0.0038668856 0.01982039 0.017549263 -0.0665694
-0.042116944 0.041902192 -0.11528739 -0.11119444 0.14990056 -0.1909652 -0.25744867 0.6680064
0.031511914 0.31680652 0.6858961 0.017583203 -0.104385324 0.1108563 0.0023445666 -0.04044067
0.078343935 -0.06351242 -0.016881559 -0.070832916 -0.44757605 -0.07111254 0.15709175 0.19549069
0.47945422 0.1667017 0.2589786 0.50984216 0.24508572 0.98010784 0.482493 0.44348747
0.021890236 0.17963853 0.16785909 0.11834236 -0.1858881 -0.035992935 0.010659699 0.1243124
-0.30391666 0.20663744 -1.4769166 1.1680617 -1.3644046 1.1157091 -0.60703593 0.26738572
-0.03707362 0.3716322 -0.9208947 -0.5958389 -0.63300127 -1.3841794 0.99040586 -0.34998038
0.8736133 -1.4439805 -0.47071663 -0.22307938 0.0022850654 0.017281154 0.08152382 -0.03756703
0.12718017 -0.33902264 -0.07717699 -0.4528126 0.58164114 -0.3538256 0.67099744 -0.32820415
-0.38311 0.3040239 -0.20727722 -0.033630032 0.07940579 -3.3679793 1.7111539 -1.5805726
0.003078651 -3.0964823 -0.40943986 0.24516553 -1.2294679 1.5258917 0.14229098 -1.4684273
0.05547289 -0.16053855 -0.051072758 -0.32454014 -0.011621494 -0.14284642 0.1791364 -0.53979266
0.32160726 -0.83238596 0.13798507 0.2811222 -0.093906194 -0.019459033 -0.037605315 -0.32180047
-0.0013833923 -0.045618284 -0.24695463 0.10968476 -0.08096448 0.5766782 0.2115833 -0.11863935
0.29323155 -0.05566154 -0.2226403 0.035584655 0.107556805 0.04823495 0.4337687 0.057947457
0.053295944 0.014903521 -0.08487206 0.012688718 -0.12526134 -0.12634848 -0.02641252 0.15878204
0.13337569 -0.1576899 0.21822718 0.738494 -0.43941602 0.9777535 0.74935365 -0.05152585
0.4499562 0.062138774 0.010880757 0.30292138 -0.001432069 0.13475065 -0.19786698 -0.034141432
00000000: 1a48 08bd 7042 d7bd ffd0 e7bc 5bd2 bebd
00000010: f7ad 9dbd 7322 22be 5070 e83e 5388 c03e
00000020: d847 ab3d 2f3f 833f 1215 e93f 481a cc3f
00000030: 5ddd fb3e 9ce2 b63f 8383 e73f e23b cbbe
00000040: 3ce1 643f 6f4d 393f 8bfe 973d 2c93 01be
00000050: 02e9 243d c937 c1bd ba9a 7ebd 02de 17bd
00000060: 4aac 3d3e d20c 93be 1913 9b3d dcf2 76bd
00000070: c34f 65be 1283 dabc fbb7 a0bd 2c87 81be
00000080: 05d7 8e3d 9778 febe 8d0c 94be b205 133d
00000090: 0fab 3fbe b129 ab3e b683 673d e985 9e3c
000000a0: be7b 573e 6ff7 0c3e 1d5d 04bd 0e60 893e
000000b0: 8843 443e f954 823f 6466 213e d182 a03e
000000c0: 53a1 11be e483 873f 4e77 3a3f ef98 66be
000000d0: 3441 b73f 68b5 953f 3f37 a8be 16b7 98bd
000000e0: ea13 5bbe 1785 aa3e 6f46 0cbf 5ef3 5cbd
000000f0: fa8f cb3d 215b 33bd b728 cfbe a9a5 493e
00000100: f125 ab3d 93e9 533e 1d91 153d 112f 29be
00000110: a868 0fbd ca43 6fbe ffd2 33bd 4d49 0bbe
00000120: 8714 7e3e 9235 913e 8796 be3d 1808 e83d
00000130: 8528 3d3e 8b24 b9bb 7a64 4bbe f667 2bbe
00000140: e076 a6be 7329 8bbc 55e0 54bd b8fe 903e
00000150: d073 a43e 1b24 ff3e 1921 d33e b27f b9be
00000160: dd2a e43d 10a1 fcbe a227 35be 9fa5 64be
00000170: 96c0 1bbe b880 c6bd fa41 ccbd 525c 9abd
00000180: e6ae 593f 3f6b 61bd 1717 b4be 8bc3 d13b
00000190: 0753 4cbc 59b6 61bd abcb 77bd 230a 22bd
000001a0: 0cf6 a03d 7e02 4bbc de54 e7bc ae0a bfbd
000001b0: 936b 7dbb 5f5e a23c 79c3 8f3c 8a55 88bd
000001c0: d182 2cbd a2a1 2b3d cc1b ecbd e9b9 e3bd
000001d0: 887f 193e 628c 43be 50d0 83be 7802 2b3f
000001e0: a312 013d 7734 a23e e396 2f3f a60a 903c
000001f0: f9c7 d5bd a108 e33d 4da7 193b 1ea5 25bd
00000200: c972 a03d cd12 82bd 324b 8abc d910 91bd
00000210: b028 e5be 74a3 91bd a9dc 203e b62e 483e
00000220: 067b f53e dab3 2a3e d898 843e 0485 023f
00000230: c0f7 7a3e 59e8 7a3f 5309 f73e ca10 e33e
00000240: 2753 b33c 2af3 373e 41e3 2b3e 7b5d f23d
00000250: 7359 3ebe 546d 13bd 05a6 2e3c 8097 fe3d
00000260: f79a 9bbe c498 533e 9a0b bdbf 0c83 953f
00000270: cfa4 aebf 8ecf 8e3f b566 1bbf c8e6 883e
00000280: 82da 17bd 9346 be3e c1bf 6bbf e688 18bf
00000290: 5f0c 22bf ca2c b1bf 3d8b 7d3f a130 b3be
000002a0: 1fa5 5f3f 5ad4 b8bf c501 f1be ec6e 64be
000002b0: 09c1 153b 3591 8d3c f6f5 a63d e3df 19bd
000002c0: 853b 023e 6094 adbe f80e 9ebd 0ed7 e7be
000002d0: 6fe6 143f a128 b5be 7dc6 2b3f 600a a8be
000002e0: fe26 c4be 05a9 9b3e 7b40 54be a5bf 09bd
000002f0: 819f a23d f98c 57c0 1707 db3f 3450 cabf
00000300: 31c3 493b c42c 46c0 1aa2 d1be ac0c 7b3e
00000310: 345f 9dbf 6b50 c33f bab4 113e 6df5 bbbf
00000320: 8b37 633d 3864 24be ab31 51bd 202a a6be
00000330: 1468 3ebc 5546 12be 886f 373e da2f 0abf
00000340: b5a9 a43e 3f17 55bf f54b 0d3e 40ef 8f3e
00000350: e451 c0bd 8d68 9fbc 0808 1abd 08c3 a4be
00000360: f152 b5ba 3dda 3abd ade1 7cbe 67a2 e03d
00000370: b5d0 a5bd 2fa1 133f 4ba9 583e 30f9 f2bd
00000380: 7222 963e 5bfd 63bd d2fb 63be 37c1 113d
00000390: be46 dc3d 0392 453d ee16 de3e 505a 6d3d
000003a0: d94c 5a3d e62d 743c 67d1 adbd 57e4 4f3c
000003b0: 8244 00be 7f61 01be 125f d8bc c297 223e
000003c0: a393 083e 7679 21be f276 5f3e f10d 3d3f
000003d0: 23fb e0be 0e4e 7a3f a4d5 3f3f c50c 53bd
000003e0: a960 e63e 3a85 7e3d 3445 323c 8318 9b3e
000003f0: 43b4 bbba 13fc 093e a49d 4abe e3d7 0bbd

_CNNDDQN__conv2.bias f4 [32]
-0.25412282 -0.31555092 -0.1456622 -0.26694036 -0.49592063 -0.082799405 -0.04327027 -0.17508273
-2.158065 -0.29876488 -0.11090758 -0.25204143 -0.453474 -0.14246537 -0.034924798 -0.16379042
-0.06967953 -0.07457761 -0.11049546 -0.16742924 0.026642522 -1.4385735 -1.7495198 -0.23738852
-0.28053707 -0.22651635 -0.3998214 -0.12854038 -0.053603992 -0.31223482 -0.23499069 -0.3119245
00000000: 631c 82be e48f a1be 7928 15be 68ac 88be
00000010: 4fe9 fdbe bc92 a9bd 2b3c 31bd e348 33be
00000020: bd1d 0ac0 b6f7 98be 8323 e3bd 930b 81be
00000030: be2d e8be 71e2 11be 4e0d 0fbd adb8 27be
00000040: 24b4 8ebd 25bc 98bd 724b e2bd 9272 2bbe
00000050: 6b41 da3c 2d23 b8bf 44f0 dfbf fa15 73be
00000060: 8ea2 8fbe e7f3 67be 64b5 ccbe 17a0 03be
00000070: dc8f 5bbd 3edd 9fbe 66a1 70be 91b4 9fbe

_CNNDDQN__conv3.weight f4 [64, 32, 3, 3]
0.44506943 -0.51171017 0.05920863 1.1484656 -0.24875642 0.20658123 1.221554 0.16157648
-0.36475208 0.028211428 -0.051325403 0.24354996 0.18528499 0.410189 0.4266641 0.0255115
0.37880298 0.10556688 0.15222862 -0.0639153 0.04783712 -0.14531083 -0.08174436 0.9295575
-0.20967981 -0.19816191 0.041543756 0.23507626 0.22977082 0.3273063 0.20609668 0.28922725
-0.20840241 0.09355833 -0.02790629 -0.2894002 -2.3609734 0.9393837 0.3731301 -0.51058507
1.6380029 1.4589703 -1.5630033 -0.21958354 0.9261304 -0.062069617 0.08857747 0.22371969
0.037636776 -0.056402795 0.4856466 -0.39119536 -0.2647904 0.464369 -0.20740268 -0.34339193
-0.29600832 -0.24039029 -0.16097128 0.014591919 0.46635473 -0.38006788 -0.17690054 0.11826448
0.5589527 -0.4097263 0.2410239 0.22739711 0.36312276 0.34222838 0.45022982 0.24971782
-0.106872745 0.11464261 -0.014505747 0.12403929 0.23042625 -0.05955349 0.26816276 0.108022444
0.2937702 0.5883733 -0.7651156 -0.02224596 0.651464 -0.90079665 0.44406682 0.10849161
-1.1285475 0.19503082 -0.016602686 0.35965866 -0.26597357 -0.47787657 -0.09164927 -0.05735504
-0.3172892 -0.04260601 -0.02495552 -0.12259237 -0.073318355 0.37850854 0.0033580554 -0.11167365
-0.46746477 -0.034024943 0.11608052 0.3919744 -0.23155352 -0.61658764 0.76120424 -0.3288006
-0.32022828 0.76748025 0.19165237 -0.31861907 0.35005096 0.20538577 0.7341538 0.028100725
0.18051678 0.22521201 0.45838374 0.53719676 0.15669937 -0.03601368 0.2249774 0.273059
-0.26499364 0.14375366 0.7717247 0.20932458 0.5215847 0.7169025 -0.29751065 -0.16201472
0.62010825 0.8126237 -0.29533848 0.7496829 0.7006297 0.5690786 0.9412787 0.044587888
-0.18115768 0.14491688 0.09802372 -0.20456168 0.24826725 -0.017197248 0.25099614 -0.281643
-0.3133857 -0.31151468 -0.10690732 0.026277225 0.14228034 0.14517982 -0.36621785 0.6071209
0.04146934 -0.46523005 -0.6235833 -0.29602578 0.6102293 -0.18957236 -0.19080625 0.23632836
0.43162578 0.09462292 0.5763104 0.5540697 0.6397606 0.6851053 0.40541762 0.60656345
0.434995 0.23767358 -0.27198002 0.28934693 0.13209651 -0.18029986 -0.80484927 0.440235
-0.2992625 -0.3231126 -0.12355706 0.015023872 0.123090565 0.44380143 0.44902024 0.80154103
0.8292141 -0.506539 0.29119968 0.7849067 0.12763831 -0.723869 0.18304121 0.8574056
0.037824333 0.13837239 0.35840628 0.16608383 0.4069636 0.10301366 0.85059226 0.34964812
-0.42016947 -0.26227352 0.06276654 -0.5775345 -0.3295113 0.024344824 -0.44936293 -0.33796102
1.2868787 0.63515174 0.5549531 0.47652963 0.00969321 0.51139665 0.3996883 -0.09333548
0.8802329 0.113863364 -0.016234023 0.52718747 0.36145657 -0.06526721 0.49951497 0.5417054
-0.2757285 0.40201092 -1.0432935 0.6567211 0.4098071 -0.6125232 0.4906468 0.1309791
0.37797835 0.8674418 0.28629354 -0.49328184 0.18086326 -0.013769344 -1.64242 0.28127655
0.20613873 -0.72743285 0.7684635 0.44403574 0.5677521 0.3012656 -0.25603065 0.6428015
00000000: 24e0 e33e 70ff 02bf c084 723d ec00 933f
00000010: 01ba 7ebe 088a 533e e25b 9c3f 4e74 253e
00000020: c9c0 babe a71b e73c 963a 52bd 2965 793e
00000030: 59bb 3d3e 4b04 d23e b873 da3e 7efd d03c
00000040: 77f2 c13e 7333 d83d d2e1 1b3e 06e6 82bd
00000050: dbf0 433d 5dcc 14be 9669 a7bd 7bf7 6d3f
00000060: 4eb6 56be f5ea 4abe c929 2a3d d5b7 703e
00000070: 0b49 6b3e b194 a73e 020b 533e 9815 943e
00000080: 7167 55be 829b bf3d bb9b e4bc 432c 94be
00000090: 301a 17c0 737b 703f e90a bf3e b4b5 02bf
000000a0: 14aa d13f 8abf ba3f 7e10 c8bf 82da 60be
000000b0: e216 6d3f b63c 7ebd 1b68 b53d c616 653e
000000c0: 0529 1a3d 9e06 67bd aca6 f83e c24a c8be
000000d0: 9b92 87be c6c1 ed3e 5e61 54be 11d1 afbe
000000e0: 678e 97be df28 76be a8d5 24be f212 6f3c
000000f0: 0cc6 ee3e 4298 c2be 6a25 35be a634 f23d
00000100: 8617 0f3f a5c7 d1be f8ce 763e cada 683e
00000110: 3aeb b93e 8f38 af3e 8684 e63e 07b6 7f3e
00000120: 19e0 dabd bfc9 ea3d 83a9 6dbc 5008 fe3d
00000130: dcf4 6b3e 5cee 73bd a14c 893e df3a dd3d
00000140: 0c69 963e a29f 163f 9ede 43bf 293d b6bc
00000150: 58c6 263f 9c9a 66bf ba5c e33e d930 de3d
00000160: 3f74 90bf 29b6 473e 5b02 88bc 2e25 b83e
00000170: b02d 88be 3dac f4be 9db2 bbbd 1eed 6abd
00000180: bb73 a2be a483 2ebd 856f ccbc b511 fbbd
00000190: ef27 96bd dfcb c13e d212 5c3b 28b5 e4bd
000001a0: 8b57 efbe bd5d 0bbd a0bb ed3d deb0 c83e
000001b0: 5e1c 6dbe b0d8 1dbf 48de 423f 8d58 a8be
000001c0: f6f4 a3be 9679 443f 8540 443e 0a22 a3be
000001d0: e139 b33e a650 523e 81f1 3b3f 7e33 e63c
000001e0: 64d9 383e fa9d 663e 46b1 ea3e ba85 093f
000001f0: cd75 203e 1583 13bd 7a60 663e 64ce 8b3e
00000200: 3fad 87be 2934 133e c08f 453f 2f59 563e
00000210: 9386 053f ec86 373f 5153 98be 30e7 25be
00000220: 6abf 1e3f 1b08 503f 9b36 97be 38eb 3f3f
00000230: 785c 333f 23af 113f a4f7 703f caa1 363d
00000240: 6681 39be 1765 143e a9c0 c83d 9e78 51be
00000250: c539 7e3e 3ee1 8cbc 9182 803e 8333 90be
00000260: 1774 a0be da7e 9fbe 3af2 dabd 5643 d73c
00000270: f0b1 113e 05aa 143e e880 bbbe 466c 1b3f
00000280: c1db 293d a232 eebe 28a3 1fbf b190 97be
00000290: fd37 1c3f 421f 42be b762 43be 1000 723e
000002a0: 0efe dc3e a9c9 c13d 1489 133f 83d7 0d3f
000002b0: 5ac7 233f 1063 2f3f e692 cf3e be47 1b3f
000002c0: aab7 de3e b460 733e f740 8bbe 4825 943e
000002d0: 4f44 073e 87a0 38be 9a0a 4ebf 7b66 e13e
000002e0: ef38 99be 046f a5be 7c0b fdbd b026 763c
000002f0: e816 fc3d f139 e33e fbe5 e53e cb31 4d3f
00000300: 6047 543f 8aac 01bf 2018 953e a5ef 483f
00000310: 9eb3 023e 7b4f 39bf 286f 3b3e ef7e 5b3f
00000320: b0ed 1a3d 7eb1 0d3e 0781 b73e e111 2a3e
00000330: 885d d03e d3f8 d23d 6ac0 593f 1405 b33e
00000340: 7420 d7be b748 86be be8b 803d 4dd9 13bf
00000350: b5b5 a8be cc6e c73c e612 e6be 3a09 adbe
00000360: 71b8 a43f 4e99 223f 6811 0e3f b1fb f33e
00000370: 45d0 1e3c e4ea 023f f2a3 cc3e ac26 bfbd
00000380: f156 613f 3231 e93d 37fd 84bc c2f5 063f
00000390: d610 b93e d1aa 85bd 6dc0 ff3e 35ad 0a3f
000003a0: 492c 8dbe 60d4 cd3e a48a 85bf e01e 283f
000003b0: 3cd2 d13e 52ce 1cbf 0f36 fb3e 631f 063e
000003c0: 6186 c13e aa10 5e3f 1195 923e 708f fcbe
000003d0: 3834 393e d198 61bc d23a d2bf 7b03 903e
000003e0: 0816 533e 0a39 3abf 06ba 443f a758 e33e
000003f0: 3458 113f 7c3f 9a3e 7316 83be a48e 243f

_CNNDDQN__conv3.bias f4 [64]
-1.698071 0.21527153 -1.2442976 0.060180873 -0.035779394 0.29172313 -0.26160747 -0.68026304
-1.198192 1.2133431 -0.10877404 -0.52598244 -0.31675303 -0.1783052 -0.83957505 0.017199881
-2.0271165 -0.23282872 -1.7319444 0.17199512 -1.0744003 2.2734299 -0.41572392 -1.799257
-0.41984886 -0.548608 0.06178685 -0.99058634 0.8558444 -0.3650914 -0.42329854 0.19829273
-0.8199746 -0.2973994 -0.54473734 -0.49678022 -0.4484454 2.5155363 -0.94316524 -0.5054726
-1.3216192 0.5871036 0.64921415 -0.12946431 -0.6413377 -0.18536195 0.04765012 -1.1234595
-0.6212247 -0.8870967 -0.27128887 0.7788199 0.8434463 -0.064514965 -1.9393811 0.07410669
0.28362527 -0.5328284 1.7296259 -0.7812387 1.9162982 -0.19984254 0.21270056 -0.9028872
00000000: 645a d9bf 2470 5c3e 2545 9fbf 3880 763d
00000010: 6a8d 12bd bc5c 953e 6af1 85be b825 2ebf
00000020: 5b5e 99bf d44e 9b3f edc4 debd c9a6 06bf
00000030: 742d a2be a395 36be 64ee 56bf c4e6 8c3c
00000040: 47bc 01c0 a76a 6ebe 5bb0 ddbf 7d1f 303e
00000050: f385 89bf e07f 1140 c4d9 d4be 0e4e e6bf
00000060: 6ef6 d6be 9371 0cbf 3514 7d3d 1197 7dbf
00000070: 9e18 5b3f 43ed babe 96ba d8be 400d 4b3e
00000080: dbe9 51bf bc44 98be e873 0bbf fa59 febe
00000090: a39a e5be 8cfe 2040 4773 71bf a766 01bf
000000a0: d12a a9bf 6c4c 163f e632 263f 4b92 04be
000000b0: b52e 24bf 86cf 3dbe c62c 433d 85cd 8fbf
000000c0: 9508 1fbf c518 63bf 60e6 8abe be60 473f
000000d0: 19ec 573f 6c20 84bd a43d f8bf 40c5 973d
000000e0: 5537 913e 7167 08bf 6264 dd3f 42ff 47bf
000000f0: 4249 f53f 86a3 4cbe 2dce 593e 9e23 67bf

_CNNDDQN__fc1Value.weight f4 [128, 64]
0.6015658 0.33033377 -0.52153045 1.1310872 -0.27570316 -0.0037449053 0.97188216 0.19392148
-0.026152909 0.2861277 -0.3920076 0.6171173 0.2511537 0.41053277 0.09490401 0.018761942
-0.14169726 0.9613858 0.6619485 0.07697441 -0.6432518 0.3435698 1.4651781 0.19417474
0.5558859 0.6506212 -0.63718116 0.11079152 0.2362248 0.11882372 0.526504 0.8039617
-1.1189911 -0.37609464 -0.09205952 0.63879335 0.26234546 0.26566172 0.86380327 -0.49503693
-0.5139073 0.8086788 1.0899428 -0.23778103 -0.28087765 0.29307732 0.67424804 0.56095177
0.49144584 -0.04771483 -0.49891093 0.89729655 0.26858765 0.15730041 0.36508518 -0.70262635
1.0060488 0.5086587 -0.5014924 -0.64269215 -0.965663 -0.29960024 -0.35913613 0.7479762
0.4448039 -0.1403371 0.50059354 1.1347001 0.16499999 0.0969796 0.43128723 0.66967654
-0.18910418 0.14906394 0.40368444 -0.4634065 0.59865427 1.4169302 -1.0461842 -0.40382886
0.0027788328 0.14014171 -0.5572095 0.082296945 0.22197819 0.18595168 0.46629503 0.9433083
1.330162 0.9685909 0.17309037 -0.40121967 0.0157705 0.30682606 0.2237259 0.04831892
0.10623531 -0.5109129 -0.27522564 1.4439319 0.6957293 -0.35236228 0.36054465 0.62695533
-0.22070223 0.43683004 0.34159526 0.11385902 0.26498413 0.74480665 0.9729169 0.68156135
-0.26972187 -0.13523863 0.019853028 0.28321975 -0.77189183 0.25758874 0.9510248 -0.38707206
0.52253145 0.059716612 -0.007371672 -0.785833 -0.40893593 -0.09146493 -0.17251378 0.015324715
0.30852398 -0.11445433 -0.12317611 0.035881575 0.13231681 -0.23425005 0.52117753 0.14636938
0.09828041 0.5823364 -0.74759424 0.48911944 0.010704694 0.047731332 0.18142106 -0.09200505
-0.15311162 0.42652664 -0.098335885 0.056973275 -0.30798066 -0.2803995 0.9769457 0.7285103
0.6775911 0.2201114 -0.21952562 0.12080107 0.25075045 0.60930735 0.79875314 -0.18749253
-0.46421286 -0.30896938 -0.35919797 0.35626972 0.20033552 -0.4954898 1.0320567 0.1148912
-1.2348213 0.108138934 0.14930324 -0.32659683 0.07735676 -0.015669355 -0.027640702 0.447901
-0.017205399 -0.7148908 -0.046233382 0.34881237 -0.10236032 0.44912162 1.1554374 -0.01267565
1.058386 0.26033822 0.10313077 0.07612742 -0.45473182 0.16485739 0.19905429 1.0826952
-0.80532193 -0.4692395 0.3425492 0.7458254 -0.14243965 -0.091885865 1.4984572 0.042513784
-0.103449985 -0.28359663 0.12182895 0.5836016 1.3149763 0.96237844 0.314386 0.55055237
0.6600621 -0.72087747 -0.0706085 0.5043704 -0.12775303 0.37410152 -0.3118149 1.1036757
0.2719522 1.0264612 -0.31328195 -0.21644191 0.23793083 -0.5179575 1.0130594 0.7384492
0.39490762 -0.3706024 -0.18985082 0.7883555 0.12695748 -0.14438698 -0.0077419174 0.89841974
0.5440652 0.6915577 0.10947179 -0.086804554 0.10640781 0.4023943 0.32532877 0.5252034
-0.41185725 -0.069897 -0.3812557 0.015634675 -0.13984187 0.42244378 -0.12602112 -0.41235244
-0.09393322 0.85086054 -0.41369092 0.0068611554 -0.40793055 0.14050797 -0.94544566 0.27414626
00000000: 3700 1a3f 8221 a93e 0583 05bf 77c7 903f
00000010: f728 8dbe 166d 75bb 45cd 783f 5a93 463e
00000020: a03e d6bc 547f 923e 38b5 c8be 66fb 1d3f
00000030: 3897 803e 5a31 d23e 095d c23d a5b2 993c
00000040: 1619 11be 611d 763f 7575 293f c2a4 9d3d
00000050: 26ac 24bf 61e8 af3e f58a bb3f bed5 463e
00000060: 8a4e 0e3f 1c8f 263f 4e1e 23bf aae6 e23d
00000070: eae4 713e da59 f33d f7c8 063f 6fd0 4d3f
00000080: 1a3b 8fbf 7a8f c0be b489 bcbd f687 233f
00000090: 2552 863e d004 883e 3622 5d3f 7b75 fdbe
000000a0: 6e8f 03bf 9305 4f3f 3f83 8b3f df7c 73be
000000b0: 32cf 8fbe 3b0e 963e 859b 2c3f 899a 0f3f
000000c0: ca9e fb3e a070 43bd 4171 ffbe 3ab5 653f
000000d0: 5284 893e 5c13 213e 72ec ba3e 52df 33bf
000000e0: 35c6 803f 7537 023f ce61 00bf 7987 24bf
000000f0: b135 77bf 3465 99be b1e0 b7be 5e7b 3f3f
00000100: 56bd e33e 87b4 0fbe e626 003f da3d 913f
00000110: c2f5 283e 3e9d c63d aed1 dc3e ec6f 2b3f
00000120: 87a4 41be 38a4 183e baaf ce3e 9e43 edbe
00000130: 6841 193f f85d b53f 5de9 85bf a8c2 cebe
00000140: 141d 363b 4f81 0f3e 48a5 0ebf 4d8b a83d
00000150: 404e 633e 1e6a 3e3e 39be ee3e a77c 713f
00000160: c042 aa3f 93f5 773f 9a3e 313e aa6c cdbe
00000170: 2331 813c 4e18 9d3e 6718 653e 0fea 453d
00000180: e691 d93d 30cb 02bf 60ea 8cbe c3d2 b83f
00000190: 511b 323f d468 b4be 4f99 b83e 2580 203f
000001a0: c4ff 61be 30a8 df3e 93e5 ae3e eb2e e93d
000001b0: 00ac 873e a6ab 3e3f 1511 793f ce7a 2e3f
000001c0: fc18 8abe ff7b 0abe d1a2 a23c 2e02 913e
000001d0: b49a 45bf ace2 833e 5c76 733f 4f2e c6be
000001e0: 9fc4 053f 6899 743d 118e f1bb 5a2c 49bf
000001f0: 0d60 d1be f751 bbbd 74a7 30be 8314 7b3c
00000200: dbf6 9d3e 0867 eabd c243 fcbd 8ff8 123d
00000210: 0f7e 073e 3fdf 6fbe e46b 053f dbe1 153e
00000220: 3d47 c93d 0014 153f 5662 3fbf dd6d fa3e
00000230: be62 2f3c ee81 433d 71c6 393e 256d bcbd
00000240: 4bc9 1cbe b361 da3e 5364 c9bd cf5c 693d
00000250: a4af 9dbe 8690 8fbe 1d19 7a3f a77f 3a3f
00000260: 9c76 2d3f e264 613e 53cb 60be 8d66 f73d
00000270: 5d62 803e 91fb 1b3f 167b 4c3f 0bfe 3fbe
00000280: 4fad edbe 3c31 9ebe cce8 b7be fc68 b63e
00000290: c124 4d3e d7b0 fdbe 6f1a 843f 144c eb3d
000002a0: a00e 9ebf f277 dd3d f3e2 183e b337 a7be
000002b0: 396d 9e3d 055d 80bc c16e e2bc 4853 e53e
000002c0: 56f2 8cbc 1503 37bf 375f 3dbd 8997 b23e
000002d0: 4aa2 d1bd 45f3 e53e 5fe5 933f 88ad 4fbc
000002e0: 3179 873f 0d4b 853e 3a36 d33d b1e8 9b3d
000002f0: 9cd2 e8be 60d0 283e e3d4 4b3e c295 8a3f
00000300: 9429 4ebf 2940 f0be 9c62 af3e 6aee 3e3f
00000310: b3db 11be a82e bcbd 72cd bf3f ef22 2e3d
00000320: 96dd d3bd 9433 91be 7581 f93d ea66 153f
00000330: 2551 a83f 6f5e 763f 34f7 a03e 00f1 0c3f
00000340: d4f9 283f 6d8b 38bf 309b 90bd 6b1e 013f
00000350: b1d1 02be 3c8a bf3e 34a6 9fbe 3f45 8d3f
00000360: 523d 8b3e 1563 833f 7e66 a0be f3a2 5dbe
00000370: 24a4 733e dd98 04bf eeab 813f 020b 3d3f
00000380: 5531 ca3e 99bf bdbe 4168 42be abd1 493f
00000390: 2401 023e 2eda 13be e9af fdbb d6fe 653f
000003a0: db47 0b3f ed09 313f bf32 e03d 96c6 b1bd
000003b0: 56ec d93d a006 ce3e 7e91 a63e bb73 063f
000003c0: f4de d2be 2926 8fbd f233 c3be 4a14 803c
000003d0: b532 0fbe 8d4a d83e ae0b 01be dc1f d3be
000003e0: 0f60 c0bd ffd1 593f 4ccf d3be 8bd3 e03b
000003f0: 46dc d0be 52e1 0f3e ba08 72bf e65c 8c3e

_CNNDDQN__fc1Value.bias f4 [128]
0.22713755 -0.25536832 -0.3148747 -0.6198364 0.071676135 -0.042040426 0.4221136 -0.87145334
-1.5706958 -0.35628694 -1.7578728 -0.08954303 -0.34437147 0.17675558 0.99354124 0.8602405
-1.1747096 -0.087584786 0.45486856 0.013885371 -1.0431335 0.05268737 -0.26010248 -0.30219087
-0.16623184 0.35457686 0.6030497 -0.3465492 0.6871319 -1.5952078 -0.20963903 -0.68717104
-0.08316079 -0.41240877 0.08477727 1.4503332 -0.93623143 -0.0055725677 -0.11310498 -0.061545882
0.18536155 -0.46818906 -0.5859878 -0.43979487 -0.09636272 0.9807467 -0.09592325 -0.81688267
-0.83058697 -0.5616539 -1.9135746 0.99362 -0.5428165 0.027373396 0.46217954 -0.4597652
1.0940536 -0.664655 -0.537038 0.36531803 -0.48436916 -0.6847475 0.16002277 -1.4855491
0.04802521 0.41119823 -0.6118713 0.5778026 -0.3158296 -0.3332524 -0.34281608 -0.13031985
1.7581145 -0.14771634 -0.3588035 0.48102963 -0.05725334 0.21823022 0.09104991 0.45324507
0.41933072 0.35602546 0.9020462 -0.7315546 0.003229726 0.75492865 -0.93539745 -0.08645941
-1.7284787 -0.78363585 -0.49641255 0.37557614 0.15487547 0.42356893 -0.971417 -0.65406805
-0.4789502 -1.4082614 0.82303065 -0.32709903 0.77592 0.5510862 0.0014215084 0.11872026
0.5059321 -0.026903505 0.7475755 -1.2168425 -0.28362548 -0.31391656 -0.02840381 -0.17621928
-0.12464253 -0.2523438 -0.11794632 -1.1050801 0.42344356 -0.29421577 0.0932077 0.3827127
-0.1423771 0.022482738 -0.5156693 0.6697768 -0.45494038 -0.4375202 -0.6044981 -1.1159562
00000000: bf96 683e a3bf 82be 4237 a1be 99ad 1ebf
00000010: f0ca 923d 9532 2cbd 461f d83e 9117 5fbf
00000020: 8f0c c9bf 3e6b b6be fa01 e1bf 5662 b7bd
00000030: 7551 b0be 6aff 343e b858 7e3f b938 5c3f
00000040: e25c 96bf a75f b3bd 88e4 e83e 787f 633c
00000050: 6685 85bf b6ce 573d 272c 85be c3b8 9abe
00000060: ae38 2abe 198b b53e 7761 1a3f e66e b1be
00000070: e0e7 2f3f c52f ccbf 9dab 56be 71ea 2fbf
00000080: 3450 aabd 3e27 d3be b59f ad3d 85a4 b93f
00000090: ddac 6fbf 169a b6bb 95a3 e7bd 8917 7cbd
000000a0: 6bcf 3d3e 7ab6 efbe 4c03 16bf cb2c e1be
000000b0: d159 c5bd 3712 7b3f 6973 c4bd 391f 51bf
000000c0: 59a1 54bf 8dc8 0fbf 03f0 f4bf e15d 7e3f
000000d0: 06f6 0abf 2c3e e03c cca2 ec3e 5866 ebbe
000000e0: f309 8c3f d526 2abf 537b 09bf f70a bb3e
000000f0: 3cff f7be 9d4b 2fbf 02dd 233e 7926 bebf
00000100: 15b6 443d 9388 d23e 99a3 1cbf dfea 133f
00000110: 6bb4 a1be 0fa0 aabe 9785 afbe 9172 05be
00000120: e509 e13f f442 17be 18b5 b7be 8449 f63e
00000130: 7a82 6abd be77 5f3e 6078 ba3d bd0f e83e
00000140: 84b2 d63e f848 b63e 80ec 663f 2a47 3bbf
00000150: d0a9 533b 0143 413f 3576 6fbf a211 b1bd
00000160: ca3e ddbf 5c9c 48bf c929 febe 844b c03e
00000170: ad97 1e3e 07de d83e c9ae 78bf 0171 27bf
00000180: f638 f5be e941 b4bf 23b2 523f 8679 a7be
00000190: b1a2 463f fc13 0d3f e851 ba3a 9c23 f33d
000001a0: c484 013f bd64 dcbc 1c61 3f3f 7fc1 9bbf
000001b0: 5c37 91be acb9 a0be 1baf e8bc d472 34be
000001c0: 9544 ffbd 3533 81be d78d f1bd 4473 8dbf
000001d0: 98cd d83e 73a3 96be aee3 be3d ebf2 c33e
000001e0: 4dcb 11be b82d b83c e702 04bf 7e76 2b3f
000001f0: f2ed e8be a602 e0be 63c0 1abf a7d7 8ebf

_CNNDDQN__fc2Value.weight f4 [128, 128]
0.5908593 0.3714373 -0.13815567 0.21015893 0.08827089 0.17477497 -0.04083586 0.5609208
-0.021123571 0.1807321 0.034343082 -0.03267805 -0.10291134 0.19964997 0.14981683 -0.60194606
0.55047345 -0.6011439 1.0059131 -0.7847453 -0.0765658 0.20196362 0.53467935 0.21434794
0.41833535 0.32467246 0.13463295 0.5476417 -0.341809 0.43925983 0.1955964 -0.019747565
-0.042389423 0.2512105 -0.27443823 0.08951174 -0.4286892 0.43135923 -0.10181785 -0.014907942
0.24464679 -0.1810695 0.088460706 1.1724917 0.27708378 0.76000965 0.18060198 0.06999273
0.4273039 -0.24143302 0.20993 -0.46303692 0.21824443 0.3354138 0.77199394 0.30676675
-0.39228964 0.075281225 0.04014801 -0.015205238 0.31301156 -0.0545058 -0.07173107 0.5436784
0.31812197 0.9977609 0.4610376 -0.035438087 0.5540942 -0.1367289 0.60925496 0.10120815
0.20765328 0.22677244 0.27504513 0.35925168 0.34897125 0.14964089 -0.387922 0.27556702
-0.82991105 0.34271947 -0.20109968 0.05873652 0.15177202 0.43283784 -0.2640296 0.19355161
0.48979545 0.041029494 -0.10268159 0.15850765 0.009068779 -0.2170273 0.4382269 0.2431101
-0.35792425 -0.0934447 -0.018899754 0.19453928 -0.10880922 -0.44458318 0.04077266 0.16611145
-0.37037724 -0.03702896 -0.7231817 0.42728522 -0.27127078 0.34408197 0.56740886 0.23936565
0.22032472 -0.46229535 0.05154885 0.57953095 -0.19672272 0.41896564 0.19624677 0.4045692
0.22904663 0.35774782 0.18761387 0.5224278 0.18482633 -0.13017812 -0.23731828 0.44765493
-0.49654832 -0.34165224 -0.70544887 0.07338487 -0.5919908 -0.5034027 -0.38303438 -0.29749086
-0.21254951 -1.1045151 -1.7668202 -0.69859076 0.6550057 -2.0964558 -1.2120138 -1.4433012
-0.6780949 -0.15415992 -0.5919462 -1.1967247 -0.7652413 -0.117774524 -0.39160424 -0.9713498
-1.2198291 -1.249135 -0.08084687 -1.0675509 -2.4919353 -0.64185905 -1.0993161 -1.2806108
-0.053284667 -0.74186236 -0.21022218 -0.9644057 -0.6033821 -1.1519389 -0.20381083 -0.17794277
-1.9634961 -0.12760298 -1.765882 -0.20992455 -0.86005 -0.60040593 0.34557378 -0.8126543
-1.1503433 -0.74045634 -1.7210337 -0.12126597 -1.1619805 -2.2045941 -1.7072259 0.32506713
-1.1498499 -0.91097206 -1.4308819 -1.36739 -0.41115585 -0.83283406 -0.36180598 0.14905
-1.17975 0.30684447 -0.72490597 -0.66472155 0.50087273 -0.19998315 -1.3242103 0.38285485
-0.54433274 -0.023211226 -0.21953762 -0.007069561 0.41552386 -1.0476502 -0.39613035 -1.268297
-1.6877583 -0.26505375 -1.0883515 -0.8679607 -1.6802772 -0.27765486 -1.0504078 -1.037147
-0.5278957 -1.864823 -0.55194396 -1.2951429 -1.1240387 0.22908746 -1.6403539 -1.1445864
-1.7208289 0.1273221 0.4291511 -0.5074288 0.39233622 -0.45504925 -0.3479838 -1.9099666
-0.8967353 -0.7751135 -0.1541638 -1.3059406 -0.44004706 -1.2915109 -0.7398349 -0.8284822
-0.26774907 -0.36828488 0.63754046 -0.3201842 0.15449475 -1.5258623 -0.58847415 0.5652034
-0.283834 -0.19203098 -1.0232489 -0.76754105 0.041660156 -0.09773066 -0.8446259 -0.8594179
00000000: 8e42 173f 082d be3e ae78 0dbe e733 573e
00000010: 5ec7 b43d 36f8 323e 8143 27bd 8198 0f3f
00000020: 570b adbc d611 393e 55ab 0c3d 6bd9 05bd
00000030: 2ec3 d2bd 0b71 4c3e 9569 193e 2319 1abf
00000040: d4eb 0c3f 91e4 19bf c3c1 803f 11e5 48bf
00000050: 88ce 9cbd 8dcf 4e3e bfe0 083f 077e 5b3e
00000060: 0d30 d63e 783b a63e 38dd 093e 3f32 0c3f
00000070: 9701 afbe aae6 e03e 6c4a 483e a5c5 a1bc
00000080: 88a0 2dbd aa9e 803e 2b83 8cbe ee51 b73d
00000090: 277d dbbe 1edb dc3e e085 d0bd 7140 74bc
000000a0: b084 7a3e 486a 39be e32a b53d 3514 963f
000000b0: eddd 8d3e fe8f 423f baef 383e 5958 8f3d
000000c0: 94c7 da3e 383a 77be e4f7 563e 2d13 edbe
000000d0: 787b 5f3e 5cbb ab3e 65a1 453f 8810 9d3e
000000e0: 30da c8be 0b2d 9a3d 3d72 243d 641f 79bc
000000f0: 0d43 a03e 7941 5fbd bde7 92bd 822e 0b3f
00000100: e2e0 a23e 426d 7f3f 1f0d ec3e 8727 11bd
00000110: 1ed9 0d3f a902 0cbe 22f8 1b3f 3846 cf3d
00000120: 10a3 543e 0937 683e b7d2 8c3e d6ef b73e
00000130: 5cac b23e 763b 193e b69d c6be 1f17 8d3e
00000140: 0d75 54bf ed78 af3e 13ed 4dbe b595 703d
00000150: 206a 1b3e ec9c dd3e e32e 87be 6532 463e
00000160: 78c6 fa3e 8b0e 283d ba4a d2bd d44f 223e
00000170: 3795 143c 683c 5ebe 475f e03e dbf1 783e
00000180: d941 b7be ef5f bfbd a8d3 9abc 4e35 473e
00000190: 5ed7 debd 68a0 e3be 3c01 273d 1f19 2a3e
000001a0: 16a2 bdbe aeab 17bd 7022 39bf 21c5 da3e
000001b0: 01e4 8abe 832b b03e b541 113f 451c 753e
000001c0: ce9c 613e fab1 ecbe e324 533d 245c 143f
000001d0: ae71 49be aa82 d63e eaf4 483e b223 cf3e
000001e0: 338b 6a3e b92a b73e da1d 403e d4bd 053f
000001f0: 1d43 3d3e 6a4d 05be 9003 73be 0733 e53e
00000200: 953b febe 0bed aebe 4c98 34bf cf4a 963d
00000210: b68c 17bf 00df 00bf 151d c4be b950 98be
00000220: 94a6 59be c060 8dbf 2a27 e2bf d8d6 32bf
00000230: 74ae 273f 552c 06c0 4523 9bbf 18be b8bf
00000240: a197 2dbf 19dc 1dbe c989 17bf 462e 99bf
00000250: dbe6 43bf c533 f1bd 5a80 c8be 61aa 78bf
00000260: 5c23 9cbf a8e3 9fbf 0b93 a5bd 82a5 88bf
00000270: de7b 1fc0 e050 24bf 64b6 8cbf 0eeb a3bf
00000280: 0641 5abd b1ea 3dbf 7c44 57be 4be3 76bf
00000290: 4077 1abf bc72 93bf c9b3 50be a136 36be
000002a0: d753 fbbf 5baa 02be 6c08 e2bf 76f6 56be
000002b0: 3d2c 5cbf 34b4 19bf 0cef b03e 1d0a 50bf
000002c0: 733e 93bf 8c8e 3dbf d54a dcbf 4b5a f8bd
000002d0: c7bb 94bf 1218 0dc0 6186 dabf 336f a63e
000002e0: 482e 93bf 7735 69bf 2327 b7bf a306 afbf
000002f0: 0583 d2be 9d34 55bf a23e b9be 90a0 183e
00000300: 0c02 97bf b81a 9d3e 7093 39bf 312b 2abf
00000310: 3239 003f 62c8 4cbe b97f a9bf 8d05 c43e
00000320: 6459 0bbf 7825 bebc 78ce 60be c7a7 e7bb
00000330: 8bbf d43e 6719 86bf 99d1 cabe 8e57 a2bf
00000340: 7708 d8bf 20b5 87be 1a4f 8bbf ac32 5ebf
00000350: 5313 d7bf c728 8ebe c373 86bf 3cc1 84bf
00000360: 2c24 07bf 85b2 eebf 334c 0dbf 3ec7 a5bf
00000370: 80e0 8fbf e795 6a3e 1ef7 d1bf cf81 92bf
00000380: 1f44 dcbf b960 023e b1b9 db3e dbe6 01bf
00000390: 4be0 c83e 37fc e8be ef2a b2be c979 f4bf
000003a0: 7290 65bf d76d 46bf 1ddd 1dbe 1029 a7bf
000003b0: d94d e1be 3b50 a5bf d265 3dbf 6917 54bf
000003c0: 6816 89be d68f bcbe da35 233f 2fef a3be
000003d0: df33 1e3e 754f c3bf 3ea6 16bf 2cb1 103f
000003e0: b152 91be c5a3 44be d2f9 82bf 927d 44bf
000003f0: d7a3 2a3d 0327 c8bd 6739 58bf d002 5cbf

_CNNDDQN__fc2Value.bias f4 [128]
0.3349591 0.3820482 0.15418285 -0.16926055 -0.73393923 0.43680546 -0.2456088 -1.9416345
0.28349587 0.46029925 -0.091395475 0.5018371 -0.026699636 0.15982533 -0.6663089 -0.72542626
0.39272362 0.68395686 -0.55625725 -0.40068212 0.30679166 0.0048214635 0.23593344 0.26946688
1.2010026 -0.59567535 -0.8022089 0.13513076 -0.056882136 0.014059139 0.48393852 0.2535442
-0.1900697 0.28384376 -0.9841066 -0.09264098 1.8852942 0.45937207 0.02621423 0.47791868
-0.89300203 -0.20052332 0.38755673 0.6254428 -0.27231655 0.36286673 -0.102536164 0.35213435
-1.0012408 1.4594122 -0.33108357 0.25671214 0.94636464 -0.29306105 0.7116677 -0.28176415
0.32536545 0.080627605 -0.017743183 1.0484033 -0.26711494 0.04004325 0.45796308 -0.25193855
0.3298876 -0.008269006 0.5037587 -0.6455912 0.21459138 0.14840622 -0.07321266 0.13959034
-0.45928067 0.95189106 -0.28483704 -0.514056 0.7525044 0.18206848 0.34856886 0.75902224
0.6795383 -0.6647622 -0.52699786 -1.9231144 0.64700687 0.39338475 1.0976799 -0.26885584
0.7644095 -0.2565099 -0.33232552 -0.004128093 -0.005240789 1.117754 0.13811871 0.44120112
-0.78999484 -0.21008378 -0.44031146 1.6535597 -0.60013974 0.5101455 0.4383866 -0.15095754
0.5057722 -0.014258141 -0.524597 0.35736296 -0.92662054 0.86854535 0.6516393 -0.092413835
0.69252133 -0.17415237 0.7234465 0.113154486 0.67763615 0.41309115 -0.8167049 -0.106589265
-1.2027476 -0.004946631 -0.08117947 -0.05013756 0.57255197 0.70722896 1.860466 0.13765636
00000000: c27f ab3e d29b c33e 1ce2 1d3e a352 2dbe
00000010: 71e3 3bbf f7a4 df3e e080 7bbe 7b87 f8bf
00000020: 5f26 913e 58ac eb3e 8d2d bbbd 6578 003f
00000030: 32b9 dabc 40a9 233e 3893 2abf 89b5 39bf
00000040: 1213 c93e cc17 2f3f e066 0ebf 3526 cdbe
00000050: cc13 9d3e 5efd 9d3b 8998 713e 90f7 893e
00000060: 74ba 993f 2e7e 18bf 905d 4dbf b85f 0a3e
00000070: 3efd 68bd 4e58 663c cac6 f73e 8cd0 813e
00000080: a2a1 42be f853 913e 69ee 7bbf 8eba bdbd
00000090: 5251 f13f d132 eb3e 3abf d63c c2b1 f43e
000000a0: c89b 64bf fc55 4dbe d66d c63e 051d 203f
000000b0: 136d 8bbe abc9 b93e 7bfe d1bd f44a b43e
000000c0: a928 80bf 05ce ba3f c983 a9be c66f 833e
000000d0: f444 723f 190c 96be db2f 363f 6443 90be
000000e0: 4d96 a63e 1620 a53d 275a 91bc 1432 863f
000000f0: 4ac3 88be 6404 243d 237a ea3e 17fe 80be
00000100: 07e7 a83e ba7a 07bc 55f6 003f 7745 25bf
00000110: d8bd 5b3e cdf7 173e 85f0 95bd c5f0 0e3e
00000120: d626 ebbe 22af 733f 29d6 91be 2d99 03bf
00000130: 21a4 403f 2970 3a3e 9e77 b23e 484f 423f
00000140: 39f6 2d3f db2d 2abf 55e9 06bf 9d28 f6bf
00000150: 3ea2 253f ba69 c93e c680 8c3f 79a7 89be
00000160: 57b0 433f 4455 83be 9226 aabe f444 87bb
00000170: edba abbb 9012 8f3f fe6e 0d3e 1de5 e13e
00000180: 1a3d 4abf 3420 57be 8170 e1be d8a7 d33f
00000190: c2a2 19bf e598 023f 3574 e03e 9d94 1abe
000001a0: 497a 013f fa9a 69bc fd4b 06bf 47f8 b63e
000001b0: 0137 6dbf fd58 5e3f d5d1 263f 7743 bdbd
000001c0: 1449 313f 0055 32be ca33 393f 8abd e73d
000001d0: 9079 2d3f af80 d33e 9313 51bf 794b dabd
000001e0: a2f3 99bf 5917 a2bb 6c41 a6bd 0b5d 4dbd
000001f0: c492 123f f50c 353f c023 ee3f caf5 0c3e

_CNNDDQN__fc3Value.weight f4 [128, 128]
-0.17140116 -0.35866 -0.48506173 -0.27475217 -0.38933882 0.030536119 -0.34757322 -0.43746686
0.12601534 0.36759782 -0.46370572 -0.22626932 -0.38383505 -0.12832515 -0.5124392 -0.21776594
-0.1322254 -0.2826829 -0.1714849 -0.3606632 0.31669644 -0.4988303 -0.17213826 0.033370543
0.074717484 -0.70334584 -0.14381649 -0.40174624 -0.6807387 -0.4978672 -0.24808984 -0.040870503
-0.0069950814 -0.07700533 -0.19117586 -0.35896784 -0.14282805 -0.06994589 -0.8780179 -0.3222149
-0.4473084 -0.7362328 -0.093950436 -0.52945226 -0.18406689 0.043867543 -0.23469768 -0.20749345
-0.56897646 -0.34186247 -0.579194 -0.5324134 -0.050092086 -0.4997593 -0.23255076 -0.05873049
0.09215895 -0.37296948 -0.32955536 -0.2590478 -0.5732496 -0.1603319 0.007665429 -0.42581883
-0.05866864 -0.40914062 -0.017290298 -0.43072182 0.13786551 0.046628293 -0.17296997 0.30004644
-0.36160046 0.20403637 -0.046904426 -0.14845464 -0.10157474 -0.7297958 -0.46931386 -0.008986877
-0.117991775 -0.32546204 -0.25268477 -0.1688362 -0.6340932 0.40334934 0.013281776 0.21918589
-0.38911858 -0.063384816 -0.52809596 0.15175544 0.0087205535 -0.78567016 -0.14613487 0.19359766
-0.7252352 -0.30987054 -0.4295395 -0.49597928 -0.47834682 -0.16133757 -0.07711138 -0.13224569
-0.8290062 -0.22505528 -0.27835205 -0.24864951 -0.64658284 -0.19388446 0.16774403 -0.1386623
-0.02266537 -0.0030812337 -0.30603945 -0.19353282 -0.4810476 -0.2363114 -0.64904654 -0.096962154
-0.24929528 -0.33003342 -0.2725645 -0.80911684 0.2529631 0.17269796 -0.28888142 -0.14797378
-0.078314655 -0.31285033 -0.13683039 -0.10162578 0.07318034 -0.058507323 0.007982051 -0.17491792
-0.09431977 0.029541574 -0.05729312 -0.14886034 -0.12243685 -0.050352532 -0.07194165 0.028434953
0.0023357535 -0.02195066 0.012354839 0.018365752 -0.07740137 -0.15521882 -0.08218752 0.04387507
-0.15088296 -0.046736255 0.028191049 -0.070349075 -0.044597555 0.033054985 -0.17338066 -0.032966856
-0.08827834 -0.0029773226 -0.0065043396 -0.14862625 -0.16116026 -0.048392005 -0.24362873 -0.11789944
-0.32227442 0.034970563 -0.24602401 -0.13494945 -0.05097069 0.029486073 0.040611163 -0.0795209
0.060232926 -0.22196147 0.03193455 -0.099901035 -0.21004143 -0.18646696 -0.139967 -0.0724504
-0.14697215 -0.026585687 -0.023877213 0.035859026 -0.12608187 -0.11238785 0.19480915 -0.15722801
0.059872005 -0.2035611 0.04041554 -0.06278637 -0.036630213 -0.084014624 0.024687553 -0.10008789
-0.039399616 0.14922154 -0.0011393107 -0.14408953 -0.13168025 0.022996671 -0.20123132 -0.08790064
0.052736722 -0.09536872 -0.103408016 -0.056469932 -0.13055973 -0.029225374 -0.046360567 -0.083277255
-0.16605112 -0.09421353 -0.187714 -0.05103914 -0.1507059 -0.049931563 -0.016791835 -0.20200089
-0.19093359 -0.09277313 -0.21650265 0.04683726 -0.2087911 -0.15002319 -0.033241633 -0.110471174
-0.18672797 -0.19155732 0.04957018 -0.092094794 -0.033926535 -0.07754501 -0.07569475 0.088514775
-0.10979576 0.0021601217 -0.1094115 -0.22991204 0.02330664 -0.18440402 -0.010202188 0.06456875
-0.22117482 -0.09308492 0.08951049 -0.040655017 -0.040418 -0.13563272 -0.13024224 -0.27247822
00000000: c983 2fbe 49a2 b7be 035a f8be 51ac 8cbe
00000010: 6b57 c7be e226 fa3c 1ef5 b1be a8fb dfbe
00000020: 2a0a 013e c835 bc3e d66a edbe 25b3 67be
00000030: 0786 c4be ab67 03be 372f 03bf 09fe 5ebe
00000040: 1866 07be d0bb 90be bd99 2fbe d9a8 b8be
00000050: 0926 a23e af66 ffbe 0345 30be 8daf 083d
00000060: 7b05 993d 790e 34bf a144 13be afb1 cdbe
00000070: e444 2ebf 73e8 febe 430b 7ebe d467 27bd
00000080: ff36 e5bb f8b4 9dbd 9bc3 43be a2ca b7be
00000090: 8441 12be ca3f 8fbd c8c5 60bf 5af9 a4be
000000a0: 9b05 e5be c179 3cbf 1669 c0bd 2f8a 07bf
000000b0: 087c 3cbe 74ae 333d 9754 70be 2a79 54be
000000c0: 71a8 11bf 9908 afbe 0f46 14bf 3f4c 08bf
000000d0: 5c2d 4dbd 73e0 ffbe c921 6ebe 628f 70bd
000000e0: d5bd bc3d dbf5 bebe 7bbb a8be eaa1 84be
000000f0: 7cc0 12bf 0c2e 24be 472e fb3b ed04 dabe
00000100: 874e 70bd e17a d1be 62a4 8dbc 9287 dcbe
00000110: 9e2c 0d3e 4ffd 3e3d 0a1f 31be b09f 993e
00000120: b223 b9be e9ee 503e db1e 40bd 7e04 18be
00000130: 6b06 d0bd e6d3 3abf e849 f0be b23d 13bc
00000140: aca5 f1bd f6a2 a6be e65f 81be 66e3 2cbe
00000150: ef53 22bf ce83 ce3e ce9b 593c 4472 603e
00000160: 8d3a c7be e6cf 81bd 4c31 07bf c765 1b3e
00000170: a7e0 0e3c ae21 49bf 61a4 15be 773e 463e
00000180: 04a9 39bf 5aa7 9ebe 9aec dbbe fff0 fdbe
00000190: e0e9 f4be ad35 25be 92ec 9dbd 6a6b 07be
000001a0: c039 54bf e474 66be 2984 8ebe fa9d 7ebe
000001b0: 7486 25bf a689 46be 17c5 2b3e 7dfd 0dbe
000001c0: baac b9bc 86ee 49bb 34b1 9cbe 782d 46be
000001d0: df4b f6be 9efb 71be ea27 26bf 1894 c6bd
000001e0: 4347 7fbe 24fa a8be 938d 8bbe 4822 4fbf
000001f0: 6184 813e bcd7 303e 44e8 93be 7086 17be
00000200: 6f63 a0bd eb2d a0be 441d 0cbe 2d21 d0bd
00000210: 93df 953d 60a5 6fbd 26c7 023c af1d 33be
00000220: b92a c1bd 2c01 f23c 31ac 6abd d86e 18be
00000230: 2cc0 fabd 753e 4ebd 2556 93bd 6bf0 e83c
00000240: 7113 193b dfd1 b3bc f36b 4a3c c673 963c
00000250: 9c84 9ebd aff1 1ebe ee51 a8bd 58b6 333d
00000260: 1081 1abe 846e 3fbd eaf0 e63c 2d13 90bd
00000270: edab 36bd aa64 073d b38a 31be 4108 07bd
00000280: 46cb b4bd 2f1f 43bb 5b22 d5bb 7b31 18be
00000290: 3207 25be b236 46bd cf79 79be 4375 f1bd
000002a0: 2701 a5be 4b3d 0f3d b8ed 7bbe 3030 0abe
000002b0: a4c6 50bd c78c f13c e457 263d dbdb a2bd
000002c0: cdb6 763d de49 63be cdcd 023d ea98 ccbd
000002d0: 1a15 57be 32f1 3ebe 8253 0fbe e060 94bd
000002e0: de7f 16be 3aca d9bc 259a c3bc eae0 123d
000002f0: 9b1b 01be 9a2b e6bd 0d7c 473e 6100 21be
00000300: 593c 753d 5272 50be c48a 253d 2496 80bd
00000310: 9009 16bd dc0f acbd 8d3d ca3c e1fa ccbd
00000320: 7e61 21bd 88cd 183e ec54 95ba 358c 13be
00000330: 30d7 06be 8463 bc3c 950f 4ebe 4005 b4bd
00000340: 7602 583d ad50 c3bd 95c7 d3bd 044d 67bd
00000350: 73b1 05be 0d6a efbc 94e4 3dbd 448d aabd
00000360: 4e09 2abe 06f3 c0bd 1938 40be 6b0e 51bd
00000370: a652 1abe 0a85 4cbd 088f 89bc 52d9 4ebe
00000380: 1884 43be d7ff bdbd dfb2 5dbe 6dd8 3f3d
00000390: 56cd 55be ae9f 19be 6128 08bd b63e e2bd
000003a0: 9e35 3fbe 9a27 44be 1a0a 4b3d 329c bcbd
000003b0: 8df6 0abd ebcf 9ebd d905 9bbd 3c47 b53d
000003c0: 99dc e0bd d490 0d3b 2313 e0bd 106e 6bbe
000003d0: 91ed be3c 68d4 3cbe 1427 27bc 9f3c 843d
000003e0: a77b 62be 4ea3 bebd 4751 b73d e085 26bd
000003f0: 588d 25bd 4ee3 0abe 395e 05be 4482 8bbe

_CNNDDQN__fc3Value.bias f4 [128]
0.03075125 0.014497425 -2.35021 2.4033308 2.4748056 -0.0048118373 -0.030542377 2.7628438
0.34476086 0.94094896 1.4298779 0.90257156 0.8981773 0.31965044 -0.075640775 -0.21538217
-0.48847818 -0.00600316 -0.5972412 1.351244 -0.06291659 2.4088576 0.004608968 -1.0170577
-1.1040825 -0.4358122 -0.88157964 2.612347 -0.71600795 -0.7198445 0.08625062 0.1267359
0.08527369 2.9708345 1.7819698 0.06576361 -0.5064808 0.23317541 1.2640849 0.06693075
0.2038346 -0.0028266085 -0.77959037 -0.5545196 -0.26592752 -2.0264864 0.06495207 -1.4378809
0.03579225 1.0802405 -0.5995499 -0.018275248 -0.57378167 -0.03828295 0.16682543 -0.42234826
0.46390197 -0.082243286 -0.9070784 0.13058147 1.1199734 1.9214166 0.3958736 -0.4995971
0.16985749 0.3929443 -0.6341732 0.82575953 -0.13086618 0.07118168 1.0298473 -0.12439614
-0.0073425565 -1.05792 -3.1979573 -0.6474976 0.12061154 0.44800746 2.4380836 3.149275
-2.0727603 -0.09851845 -3.072723 0.38401437 0.21273611 0.17746374 0.19886525 -0.76946
0.090076745 -0.0001315969 0.17663075 -1.5018687 -0.626289 0.048096247 0.104811735 0.41376507
-0.05887896 0.011483748 0.25350678 -0.028155254 -0.064128645 -0.90487736 0.17446722 0.42868474
0.22871119 -0.11506142 0.040167272 -1.4092085 0.18494107 -0.039133225 -0.5890952 -0.118222065
0.011314264 -0.59407043 0.12355474 -0.42825058 0.04644407 3.039771 -0.37186757 -0.029222868
0.19918244 0.9981946 0.088230774 -0.62192243 -2.6930413 -0.10060696 -0.01748515 0.13437285
00000000: 0cea fb3c 9c86 6d3c d769 16c0 2cd0 1940
00000010: 3763 1e40 9eac 9dbb 0234 fabc 6fd2 3040
00000020: 7f84 b03e 08e2 703f 3d06 b73f ee0e 673f
00000030: f3ee 653f 39a9 a33e 8de9 9abd 258d 5cbe
00000040: d019 fabe 28b6 c4bb cde4 18bf 90f5 ac3f
00000050: 6ada 80bd b92a 1a40 d306 973b f22e 82bf
00000060: 9352 8dbf c722 dfbe 34af 61bf b130 2740
00000070: 4c4c 37bf bb47 38bf 2aa4 b03d 0ec7 013e
00000080: f9a3 ae3d 2722 3e40 9617 e43f 12af 863d
00000090: baa8 01bf 89c5 6e3e 89cd a13f fd12 893d
000000a0: 04ba 503e 9f3e 39bb 3c93 47bf fff4 0dbf
000000b0: a727 88be f4b1 01c0 9705 853d 7b0c b8bf
000000c0: e59a 123d 5245 8a3f 1a7c 19bf f9b5 95bc
000000d0: 5be3 12bf 95ce 1cbd 49d4 2a3e 083e d8be
000000e0: 8f84 ed3e 2b6f a8bd 4a36 68bf 26b7 053e
000000f0: 4a5b 8f3f fbf0 f53f f2af ca3e 31cb ffbe
00000100: 1fef 2d3e ff2f c93e 2d59 22bf fa64 533f
00000110: c901 06be b3c7 913d 09d2 833f 67c3 febd
00000120: d499 f0bb ec69 87bf 55ab 4cc0 67c2 25bf
00000130: 2f03 f73d 3c61 e53e 9009 1c40 b98d 4940
00000140: 1ba8 04c0 0bc4 c9bd 7ea7 44c0 889d c43e
00000150: 7fd7 593e 0eb9 353e 55a3 4b3e 55fb 44bf
00000160: 287a b83d 46fd 09b9 b1de 343e 3c3d c0bf
00000170: 7a54 20bf 9200 453d 89a7 d63d 04d9 d33e
00000180: 102b 71bd 5526 3c3c a4cb 813e d9a5 e6bc
00000190: e155 83bd 0ba6 67bf 89a7 323e 917c db3e
000001a0: 4433 6a3e 52a5 ebbd 7086 243d f260 b4bf
000001b0: 3161 3d3e 294a 20bd f1ce 16bf 691e f2bd
000001c0: 765f 393c 0015 18bf 440a fd3d a943 dbbe
000001d0: 233c 3e3d 9c8b 4240 6d65 bebe cc64 efbc
000001e0: 7bf6 4b3e ae89 7f3f 56b2 b43d 4f36 1fbf
000001f0: ca5a 2cc0 060b cebd 043d 8fbc 0999 093e
