code/models/DuelingDoubleDQN/model140.pth (torch, 434555 bytes, 21 tensors)

_CNNDDQN__conv1.weight f4 [16, 1, 5, 5]
00000000: b6d9 823d 8dd5 333d ef92 163d 3c53 a73d
00000010: be81 a93d 64e1 cd3d 8a42 733d 040c 093e
00000020: 0f7b 19bd d9b0 423e dacd c73d 6ced a63d
00000030: 542c a33d 9f85 c53d 0f10 a43d 3e8e 8a3d
00000040: 056d cc3d fa18 233e 69b8 a0bd aca1 413e
00000050: 7cbc 2f3e 4809 f63d 8846 8b3c f56f aa3d
00000060: 7afe 183f 1991 703c abff d5bb 64e2 cf3b
00000070: 05ec 40bc 7894 62bc 174f 7dbc d174 c83b
00000080: 22fa 00bb 8ec9 aabb 80f6 eeb8 d31b 66bc
00000090: 49cf 0d3a 6fc0 08bc 79b6 58bb 2077 833b
000000a0: 688c b03c 7d31 4bba e833 893b c351 8c3c
000000b0: 75ab 78bb 3b97 a9bc 779f 233a 29bc 473f
000000c0: 4eb7 513d d79d 723c f6d5 17bb 7260 aabb
000000d0: 8563 95bc 3595 05bd 8fa1 653f f90a e1bb
000000e0: b274 bdba 5958 8fbb 799f 9038 55de 1d3c
000000f0: 015b 0dbc 6621 27ba 0d07 953a 9b78 1a3c
00000100: bb6e d53c 2e7d 9eba b4e3 2ebc 9cae c0bb
00000110: 5b20 7b3c 9281 1a3b 7859 0ebb 5a27 56ba
00000120: 62e6 193b 6661 d0bb 9742 3e3c dec0 873e
00000130: 16c1 2fbe 7cdd 4b3d 4002 1d3b 3562 a6bc
00000140: 6ea5 5dbe 6924 a63e 6bdf 04be bb2f 06be
00000150: 6284 e13c 10e9 00be e562 19be af62 66be
00000160: b970 8e3e 7e7f 9cbd 4ab2 8f3e e81a 56be
00000170: 312d 1dbf 59be b5bd d19c 5cbb afe3 47be
00000180: 45bb 17bf a6b3 373f 9f4d f5bd 4d1b 983a
00000190: 0d3d 3bbc 17b2 4a3c 29a3 6239 13fd 413e
000001a0: 1c14 08bc 73f3 db39 6177 d23b f6ec 143e
000001b0: 962d 28bf b621 143e 5854 69bb 1acc ff3c
000001c0: a51b 103d 772b 42bf 37c3 033e 605f 193c
000001d0: 0e5c f53b 5370 5e3c 82cc 833c 6dd4 d8bc
000001e0: 3217 183c e2ac 743c c7d8 f4bb a80d 603c
000001f0: abb3 f63b 87b2 a83c 7f7c 373c cc4f 0abd
00000200: dcd8 cc3a 2dd6 c6bc fbf4 b7bb 7962 14bd
00000210: 3556 5c3e b2be babd 9e38 5dbc 1c6e 6b3c
00000220: 4383 453c c552 fbbd b3b9 eebc 78f3 58bd
00000230: a27f 253c 4f40 aa3c 3c7b 16bd ed19 8fbd
00000240: a0ed 953e 6c43 bb3a b764 813b 9ada e63b
00000250: e47f 08bc bc7b 43bd 253f a0bc a923 5dbe
00000260: 1850 843e 3469 74be bbbe ee3c 09a4 eb3c
00000270: 5e76 a83e 05fa a2bf 908a 8d3e 904a 8a3a
00000280: 3d1f 96bc c661 443e c05c b93e c539 e73c
00000290: f0bd f7bc 3023 4fbc aed5 c7bd cf45 0e3e
000002a0: c8d7 61bd f760 b73c 6090 9b3c 5bc2 9cbc
000002b0: 4f20 003d 3e33 83bc 1c04 813c 96ff 10be
000002c0: c459 a13e 7b14 e3be 1689 9e3e 104e 693e
000002d0: 6e91 3f3e 0fbd bfbe dee6 a43e a0be 04be
000002e0: 6bf7 d4bc 352a 24be 2832 8e3e bf06 f0bd
000002f0: 0a72 903c c141 88bc b4a5 efbc e0f9 adbd
00000300: d7ba d33c da91 79bc 2dfb 98bc cda6 323e
00000310: 791a d8bd b08b a43c 7f19 aa3c a7da 6dbc
00000320: f0a3 edbb 6471 ae3c 1e6f 873c 1955 14bd
00000330: c4d8 d93b e51a 6cbb 6a13 11bc e533 623c
00000340: 8561 183d 21da 61bc 1ae2 07bb 6e7c c3bb
00000350: ce43 09bb 666e 82bd 40b7 e33d 58de 5ebb
00000360: ca06 ca3c f703 86bd cfd0 613e aa6f 88be
00000370: ee62 e73c a67f 8c3c 3943 e63d 2477 58be
00000380: 3ed1 1e3f d7dc dd3b 2a1e 7fbc e7e0 3bbc
00000390: 2515 853b 4464 54bc 6729 893c 2ff8 7b3b
000003a0: 0548 903a 4ab3 133b 5c4f 1cbc 7f6b cd3b
000003b0: fd8e 983b 7726 a33c 4f3b 173b 94a5 d4bb
000003c0: 3243 9a3b f352 8cbb 3a69 e7bb f9a6 003c
000003d0: a20c 533c 3a97 a3be 888d e13e bdf2 8cbe
000003e0: 483a fcbd 4eb3 5eb9 bdb1 94bd e134 57bc
000003f0: e679 e5bc 5e19 e1ba 1e5b 11bd 1d1a 6bbd
0.06389181 0.04390483 0.03676122 0.081701726 0.082766995 0.100527555 0.05938963 0.1338349
-0.037470873 0.19012775 0.0975606 0.081507534 0.07967439 0.09644627 0.080108754 0.06765412
0.09981731 0.15927497 -0.078476734 0.18909329 0.17161745 0.12013489 0.017001405 0.08322135
0.597633 0.0146830315 -0.006530722 0.0063441265 -0.011775021 -0.013829343 -0.015460751 0.006117441
-0.001968034 -0.0052120155 -0.000113946386 -0.01404472 0.0005409611 -0.008346661 -0.0033067747 0.0040120035
0.021551326 -0.000775121 0.004187096 0.01712883 -0.0037943993 -0.020701995 0.00062417187 0.78021485
0.051200204 0.01480814 -0.0023168302 -0.0051994855 -0.018235931 -0.032612998 0.89699644 -0.006867763
-0.0014454334 -0.0043745455 6.896159e-05 0.009635528 -0.008627654 -0.0006375521 0.0011369899 0.009428169
0.026053777 -0.001209175 -0.010674406 -0.00588019 0.015327538 0.0023575765 -0.0021720808 -0.0008169316
0.0023483266 -0.006359267 0.011612556 0.26514333 -0.171635 0.04977177 0.002395764 -0.0203105
-0.21645138 0.32449654 -0.12975852 -0.13104145 0.027528945 -0.12588906 -0.14979132 -0.22498582
0.27820376 -0.07641505 0.2806571 -0.20908701 -0.6139708 -0.088741966 -0.0033662806 -0.19520448
-0.59270126 0.71758497 -0.11977696 0.0011604816 -0.01142813 0.0123715615 0.00021613821 0.18944196
-0.008305576 0.0004195232 0.0064229225 0.14543518 -0.6569456 0.14465985 -0.0035603251 0.031225253
0.035182614 -0.7584757 0.12867437 0.009361118 0.0074877804 0.013576585 0.016088728 -0.02646848
0.009282874 0.014933797 -0.007472131 0.013675131 0.0075287423 0.020592941 0.011199116 -0.033767506
0.0015628594 -0.024272049 -0.0056139207 -0.036226723 0.2151726 -0.091184035 -0.013502268 0.014369514
0.012055221 -0.122716464 -0.029141283 -0.052966565 0.010101231 0.020782618 -0.03673862 -0.06987367
0.29282856 0.0014287061 0.0039487737 0.0070451023 -0.008331273 -0.047725424 -0.01956136 -0.21595635
0.25842357 -0.23868257 0.029143682 0.028764741 0.32902807 -1.273255 0.27644777 0.0010550786
-0.018325442 0.19177923 0.36203575 0.028225789 -0.030241936 -0.012642667 -0.09757553 0.13893817
-0.055137426 0.022385104 0.018989742 -0.019135645 0.031280812 -0.016015645 0.01574903 -0.14159998
0.31513798 -0.44351563 0.30963963 0.22783685 0.18707821 -0.37448928 0.32207388 -0.12963343
-0.025996884 -0.16031726 0.2777264 -0.11720037 0.017632503 -0.016632916 -0.029253818 -0.084949255
0.025845928 -0.015232528 -0.018674457 0.17446442 -0.10551924 0.02008614 0.02076411 -0.014517463
-0.007252209 0.021294303 0.016532477 -0.036213968 0.006648155 -0.0036026773 -0.008854726 0.013806318
0.037202377 -0.013784916 -0.0020734132 -0.005965761 -0.0020944956 -0.06368713 0.111189365 -0.003400704
0.02466144 -0.06543725 0.2205231 -0.26647693 0.028245416 0.017150711 0.112432905 -0.21139199
0.6203803 0.006770711 -0.0155711565 -0.011467195 0.0040613585 -0.012963358 0.016743375 0.003844749
0.0011007792 0.0022537285 -0.009540405 0.006268918 0.0046557174 0.019915802 0.0023076122 -0.006489465
0.0047077173 -0.0042823493 -0.0070621045 0.007852309 0.01288143 -0.31951314 0.44053292 -0.27528945
-0.12315804 -0.00021238366 -0.072604634 -0.013135166 -0.028012227 -0.0017173698 -0.035487287 -0.05739795

_CNNDDQN__conv1.bias f4 [16]
00000000: f586 e6bc c919 8dbe 2a52 8cbe 7224 3cbe
00000010: cb80 33bd 50a9 8bbd a070 b5be 4859 1dbe
00000020: 56b2 54bd b61c c93c d0e5 873d 350d 69be
00000030: 82aa 93be 4c59 1fbe f03e 3bbd 1f19 4fbe
-0.028140524 -0.27558735 -0.27406436 -0.18373278 -0.043824 -0.06819403 -0.3543749 -0.1536609
-0.051927887 0.024549823 0.0663563 -0.22758944 -0.28841025 -0.15561408 -0.04571432 -0.20224427

_CNNDDQN__conv2.weight f4 [32, 16, 3, 3]
00000000: 328c 973c c0b7 91bd e57e e4bd 27bd 1abd
00000010: f6ad b73d 5f27 d5bd 3035 9b3e 97db 703e
00000020: 211f 0d3e 2046 433f a764 b53f 0cc9 b23f
00000030: b21a f63e e401 8b3f 82b2 b43f c817 36be
00000040: 5a7f a03e 8005 ac3e 7c13 25bc 2426 17be
00000050: aeb0 9e3d f38e 6c3c d929 61bd a522 473c
00000060: dd85 a13d a8f5 05be 2baf 0e3d 7a05 87be
00000070: 85d3 98be 779d 3ebd e21c aabd 55f7 80be
00000080: 3160 25be 1a2c edbe 4219 a5be d374 dc3c
00000090: 4122 f03d fd2c cb3d bff3 703e fdc8 163e
000000a0: 7086 413e 0c52 223e d44c b73d 0a30 273e
000000b0: a69e b03e 62ef 893e 29ab d53e 01ab 823e
000000c0: 1a0f 17bd 571b 443f 94c0 133f 5846 ecbd
000000d0: 8c84 913f f851 2b3f 0d86 23bc d601 0cbe
000000e0: 3380 f8be 9c59 a43e b3c1 b03c 17bf 8abe
000000f0: ab13 88bd c8bf 903d f4e6 f1be a985 7c3e
00000100: cad7 f33e e886 323d 6bd0 843d d3b6 dcbd
00000110: 5882 293e 8d10 8fbc 761f 99bd 4add 7ebe
00000120: a053 523e 50e4 973e fe45 4e3d d821 b1bc
00000130: 77e1 b7bc 7e42 f7bc 0270 01be c27b 4abe
00000140: 8f8a 75be 902e babd eacb dcbd de9c bc3d
00000150: ae44 4ebd d956 403e e061 963e 2447 f9be
00000160: 7aa9 873d dcfa fabe 5f10 99bd 883b 4ebe
00000170: 3546 91be f2b2 adbd fe45 cbbd 3c58 21be
00000180: 3ee2 323f fd49 3e3c 3064 7dbe b554 1ebd
00000190: 6868 edbd 6f1b 6dbe d300 35be fc72 32be
000001a0: f77e c53d 5a24 babd df10 6e3c 2dde 85bd
000001b0: 739a 20bd 376c 2dbe 5889 14be 9ed7 2ebe
000001c0: 6914 61be da25 fbbd 633d 02bc 61a1 22be
000001d0: 41a3 7e3d 4812 29be bd90 e7be 1cb8 283f
000001e0: 69ee e3bd 67b6 303e 1812 ea3e fd9d 033e
000001f0: 5492 4c3e 98c9 803d 216c ee3d 0aea 4b3e
00000200: 0e80 0b3e 63e6 47bd 6f87 233e 8aec ae3d
00000210: b2a7 a4be 0590 c83e 7755 b93d d2f7 44be
00000220: aeb5 633e 0e28 ac3e f990 fbbd 52a0 ef3d
00000230: cf3c 463e 671f 923e 822e 0e3e c1da a73e
00000240: d13a 163d 074c a73e 803c 87bd 3f74 493e
00000250: 0499 7ebe 2f18 1d3e 311b 89bb d2f1 153e
00000260: 4aa5 a8be 7630 f03e 8e05 7abf 3f3d 3c3f
00000270: 9708 1abf 0e59 503f 3af9 c3be 9bfe c13e
00000280: ed67 543d c56b 1b3e ca68 5abf 2348 0ebf
00000290: 7700 febe 820a c2bf 9731 413f 7a79 bfbe
000002a0: 1115 153f bd81 b1bf 19aa 1cbf 3783 22bf
000002b0: 1ce9 633e 5ca9 273e 755f fabe 1ed5 c9bd
000002c0: 993d 8d3c aac7 5bbf 0b7c f1bd d174 f3be
000002d0: c407 c53e 3523 c0bc c5f4 333f 4703 87be
000002e0: e072 d0be 4f30 bc3e d9dc f3be 9c5e 51bc
000002f0: bdef 763d 0617 07c0 57fc 953f 3e15 d7bf
00000300: 7093 ddbd 1610 e5bf 0ef5 903e f1a9 3ebf
00000310: ab97 bbbf 6cf7 6f3f 428b e6bd 50d4 5ebf
00000320: 545c 4d3e a6ed d73e 8322 d7be d2e2 53be
00000330: 3bb9 463d 6e84 8ebe 93fe 623e 12f6 4abf
00000340: f94d c73e f4e4 7cbf 7a3e 2d3e d4e3 013f
00000350: 0cab b73e 8500 14bd e599 8ebd 0ea3 7bbf
00000360: e900 b13c 786c 933d f1dc 0ebe d60c 4a3d
00000370: 8b41 c33d 57ed 113f d90f c03d 9502 cebc
00000380: 5c10 f83e b4d6 a4be 033f b7bd 68ff 14bd
00000390: ff8c 173e 397f bf3d beca 973e 06a2 a9bd
000003a0: bbca 923d 50a1 10be 948e 75bd 22e3 5c3c
000003b0: a771 53be a183 6cbe a1dc a7bc 0ebe 5dbc
000003c0: 60be 643e 7339 aebd 439f 693d e1d7 2b3f
000003d0: 6638 26bf 6e99 663f 17e3 593f cc5d ccbc
000003e0: 3928 833e 2bff bebc cbbf 3ebb a8db 0d3f
000003f0: a9d3 9a3d b5b2 b8bb 7120 68be de3a b03d
0.018499468 -0.07115126 -0.11157016 -0.037778046 0.08968727 -0.104079 0.30314016 0.23521267
0.13781406 0.7627888 1.4171342 1.3967605 0.48067242 1.0859952 1.4116976 -0.1778251
0.31347162 0.33597946 -0.010075446 -0.14760643 0.07748543 0.014438379 -0.05497155 0.012154256
0.078868605 -0.13081992 0.034835022 -0.26371366 -0.29848877 -0.04653689 -0.0830629 -0.251887
-0.16149975 -0.4632271 -0.32245833 0.026911175 0.117252834 0.0992069 0.23530482 0.14725108
0.1889894 0.15851611 0.08950201 0.16326919 0.3449604 0.26940447 0.41732147 0.2552109
-0.036879636 0.7660422 0.57715726 -0.115368545 1.1368575 0.6692195 -0.009980691 -0.13672575
-0.48535308 0.32099617 0.021576738 -0.27098915 -0.06644376 0.07067829 -0.47246516 0.24660362
0.4762557 0.043585688 0.06485065 -0.107770585 0.16553628 -0.017463947 -0.07476704 -0.24889103
0.20539713 0.29666376 0.05035972 -0.021622583 -0.022446377 -0.030183073 -0.12640384 -0.19773772
-0.23978637 -0.09090912 -0.10781081 0.092096075 -0.050358467 0.1878313 0.29371548 -0.48687088
0.06624122 -0.49019516 -0.07473826 -0.20139897 -0.28373876 -0.08481397 -0.09925459 -0.15756315
0.6987647 0.01161432 -0.2474525 -0.038655 -0.115921795 -0.23154996 -0.17676096 -0.17426676
0.09643357 -0.09088965 0.01453039 -0.06536517 -0.039209794 -0.16935812 -0.14505517 -0.17074439
-0.21980442 -0.12263079 -0.007949206 -0.15881874 0.06216741 -0.1651088 -0.45227614 0.6590593
-0.111294575 0.17257081 0.4571693 0.12853236 0.19977695 0.06288451 0.11641718 0.19913498
0.13623068 -0.0488037 0.15969633 0.0854121 -0.3215919 0.39172378 0.09049504 -0.19235161
0.22237274 0.3362431 -0.12283511 0.117005005 0.19359134 0.28539583 0.13884929 0.32784083
0.036677185 0.32675192 -0.06603336 0.1967325 -0.24863058 0.15341257 -0.0041841497 0.14643028
-0.32938606 0.46911973 -0.97664726 0.73530954 -0.6016936 0.81385887 -0.38276082 0.3788956
0.051856924 0.1517783 -0.85316145 -0.5557882 -0.4960973 -1.5159457 0.75466293 -0.37397367
0.5823527 -1.3867718 -0.6119705 -0.6348147 0.22256893 0.16373199 -0.48900953 -0.09855102
0.017241286 -0.8585154 -0.117912374 -0.4755006 0.38482487 -0.023454288 0.70295364 -0.26369688
-0.40712643 0.36755607 -0.4762943 -0.012778904 0.060287226 -2.1107802 1.1717633 -1.6803358
-0.10819137 -1.7895534 0.28311962 -0.7447806 -1.465566 0.9373691 -0.1125703 -0.87042713
0.20054752 0.421735 -0.42018518 -0.20691994 0.048516493 -0.2783541 0.22167425 -0.79281723
0.38926676 -0.98786855 0.16918364 0.50738263 0.35872686 -0.036133308 -0.06962947 -0.98295677
0.02160688 0.07198423 -0.1395147 0.049328648 0.09533986 0.57002777 0.09378023 -0.025147716
0.4844998 -0.32195055 -0.089475654 -0.036376387 0.1479988 0.09350438 0.29646868 -0.08282857
0.07167574 -0.14124036 -0.059950426 0.013481887 -0.20648824 -0.23097087 -0.020490946 -0.013534082
0.22338247 -0.08507051 0.05703665 0.6712628 -0.6492981 0.90077865 0.85112137 -0.02494707
0.25616625 -0.023315033 -0.0029106017 0.55413294 0.07559902 -0.005636538 -0.22668625 0.08604978

_CNNDDQN__conv2.bias f4 [32]
00000000: 5b69 87be 48f4 96be 1d19 d9bd a23d 8bbe
00000010: 258a e0be 992e d2bd 9be7 a7bd 1b1d 8fbe
00000020: 8d94 d3bf fc70 b4be 1309 01be 1802 95be
00000030: 0bbc ecbe 079f b9bd b158 4e3b e5fe 3dbe
00000040: bc1f 9ebd 7448 d8bd 2bb3 12be 6a3f 22be
00000050: 497a bc3c c7d1 6cbf 72bc 9abf ac93 9fbe
00000060: 537b 91be f175 54be a232 b2be 7fff 32be
00000070: ebc2 40bd a60a 94be f48a 7fbe 23b8 9dbe
-0.26447567 -0.29483247 -0.10600493 -0.2719546 -0.43855396 -0.10262794 -0.08198472 -0.27951893
-1.6529709 -0.3524245 -0.12601118 -0.2910316 -0.46237215 -0.09063535 0.003148597 -0.18554266
-0.077208966 -0.10560694 -0.1432616 -0.15844503 0.023007529 -0.92507595 -1.2088759 -0.31167352
-0.284144 -0.20748116 -0.34804255 -0.17480277 -0.04706089 -0.28914374 -0.2495535 -0.30804548

_CNNDDQN__conv3.weight f4 [64, 32, 3, 3]
00000000: a122 073e 67a9 f5bd 4c98 1ebe b7b1 133f
00000010: a938 363d 0096 f83d 1b47 583f 5787 a93e
00000020: de47 b93e 5a59 d33b 7e1b fcbd 32df 213d
00000030: 086f 053e 02ce dc3e d7e9 ca3e cd0a 0a3d
00000040: c497 c23d f640 a13d 63a6 073e 9942 2d3c
00000050: 66bc 58be 6799 33be 1cb9 42be cf51 1f3f
00000060: 80ce 9ebd 427f 76be 3686 b03d bf7a aebb
00000070: 6dd6 e23d 8099 953e ba98 d83e 1eb6 023f
00000080: 592b 733e 2da6 d83b 0f89 803c 62fd f1bd
00000090: 0696 14c0 ffb2 b73e 9661 83be 47ed 2c3e
000000a0: 9b2f 833f 263e 433f fded 85bf ae62 5bbd
000000b0: ad24 853e 9898 f23d a443 b73a 8f8d a03e
000000c0: 1b7c b7bd 3182 77be 0304 763e ba55 43be
000000d0: ffde debd 4e40 ff3e 4b08 23be 5603 57be
000000e0: b48b cebe a99d 35be 444a 60bd 9e05 f6bc
000000f0: 69d1 8f3e 5ad6 33be 0fc6 dbbb 915e 7fbd
00000100: baa3 3a3e 68bc 3fbd 8bc8 923e d568 7d3d
00000110: c899 7b3e 8eaf 26bd 618b 553e bcdc 8dbe
00000120: 80ae 553e 234e ac3e 802c 0c3f f841 6d3e
00000130: 3df9 033e f3af 573e 02df 2c3f 2683 5c3e
00000140: 5259 903e b449 153e 24b7 99bf 4170 96be
00000150: ea7b 02be 31c9 cabe e01c 993e fac9 1c3e
00000160: cf3d 43bc d3a8 633e 6e76 05be 5a0e 673c
00000170: 9b67 38be dd2d 84be 49d4 b5bd 3b13 01be
00000180: 99db 00be b8fc 3f3d 2c67 8c3e 66d3 02be
00000190: 9dcd 04be 5b0d 723e 13ab 45be 99bd 1bbf
000001a0: b511 b2be 30ff 443e 1bd6 0a3e f916 fa3e
000001b0: 8fed 0abc e2aa 20bf f493 403f 2f59 ac3e
000001c0: acc6 a0bd e1c6 053f 5ede e23d 2afc 07be
000001d0: 7584 1b3e 0d32 cc3e 33d9 0f3e 0fa6 ef3d
000001e0: 2489 a53c e4f4 a03e caf7 573e 9cfd e83b
000001f0: 5918 6fbe e4c6 763e 3b2b d33e 2267 66be
00000200: eda3 ac3e 9b21 013f cc5e 873e cd3e 063d
00000210: da5e 843e 2ec6 373f 9fc3 f7be c273 633e
00000220: 8c1d e83e 97e7 f73e 699a cbbe 386d 813e
00000230: f782 243f 1e6d b1bd 7f3c 173f 5396 81be
00000240: 7cc6 efbc b30b 3b3e 2dfd 50be 135d 5dbc
00000250: aeca 7d3e 7291 e93d e4b4 223e 77d5 1abe
00000260: 82eb f2be 080d 8abe 29f8 48be 6bba 9ebc
00000270: ac5b 1e3f 1dfb 103d 9eb2 9ebd 7876 be3e
00000280: 77e0 c0bc 17fb bfbe b16b 95be 9faf 8ebe
00000290: 5b5c d83e 0c10 f2bd 89cd 8b3e ae0b 21be
000002a0: 4bf7 323e 2297 4a3d b34d 9e3e 3dd2 dd3e
000002b0: 0b78 c03e 43dc ff3d 77fd bc3e 9bba c93e
000002c0: a7ff 513e e28a 303e 6f8c 8fbe 7624 a63e
000002d0: af05 e8bc 3f58 3fbd caae b3be 016f 303f
000002e0: a0f0 6cbd 6fdc eabd 3ae9 f83e ada7 ea3d
000002f0: d7e8 18be d6be 523f 520c 49be d63f c33f
00000300: 4629 e23d aa43 b1be 8617 243f cb86 073f
00000310: 778b a23e 88d6 e9be 25d1 423e 5893 693e
00000320: 2ed2 3a3f 83f6 0f3f aa6f 9c3e 6b0a 88bf
00000330: c194 c83e af8a a23e 9668 543f 26d8 183e
00000340: b531 a3be aa6b 1dbe 7270 11be 89a8 d7bd
00000350: 516d 21be 5ae0 823d d0f5 c0be ff14 36bd
00000360: 1013 1b3f e6e6 f73e 8bd5 b73e ead8 913e
00000370: 9d41 063e 99c5 a9be 1b1d c03e 96a6 b8be
00000380: b91b 6e3f d2da 3abe b905 42be 1e86 d43e
00000390: f9c6 b93e 5465 003e f8fc 663e f285 9b3e
000003a0: 474b 0c3e d3ff 173e 9ef0 03bf f359 d53e
000003b0: 5298 853e b8a9 59be 8bbe 14be 6e0c a23e
000003c0: 9153 b03e 1897 273f 8223 063f 55ea cb3e
000003d0: 4a49 173e afd8 81bc 9dde 6ebf e0a0 a03d
000003e0: 7aa3 323d 096b 233c 3ef7 6a3e 373c 0c3f
000003f0: cf20 1b3e ca07 5e3e 1592 22be 2d90 863e
0.13196804 -0.119952016 -0.15487784 0.57693046 0.04448763 0.12137985 0.844835 0.3311107
0.36187643 0.0064498605 -0.12309931 0.039519496 0.13030636 0.4312592 0.3963153 0.033701707
0.09501603 0.078737184 0.13247065 0.01057496 -0.21165618 -0.17538987 -0.19015926 0.62234205
-0.077542305 -0.24071983 0.08619349 -0.005324691 0.11076055 0.29218674 0.4230402 0.5105914
0.23747005 0.0066116066 0.015690355 -0.11815907 -2.3216567 0.3587875 -0.2566039 0.16887389
1.0248903 0.76266706 -1.0463253 -0.053560905 0.26004544 0.11845511 0.001398195 0.31358
-0.08959218 -0.24170758 0.24024968 -0.19075671 -0.10882377 0.49853748 -0.15921132 -0.20997366
-0.4034096 -0.17735924 -0.054758325 -0.030031975 0.28089455 -0.17562237 -0.00670696 -0.062346045
0.18226519 -0.046810538 0.28668627 0.061867554 0.24570382 -0.040694766 0.2085395 -0.2770747
0.20867348 0.33653364 0.547554 0.23169696 0.12888046 0.21063213 0.6752778 0.21534404
0.28193146 0.14578897 -1.2009015 -0.29382518 -0.12742582 -0.39606622 0.29904842 0.15311423
-0.011916592 0.2223237 -0.13033459 0.014102543 -0.18008272 -0.2581624 -0.08878381 -0.12604992
-0.1258377 0.04687187 0.27422464 -0.12775955 -0.1296906 0.23637907 -0.19303541 -0.6083618
-0.34779134 0.19237971 0.13558237 0.48845652 -0.00847949 -0.62760746 0.7522576 0.33661792
-0.07850394 0.5225659 0.110775694 -0.13279787 0.15187247 0.39881936 0.14047699 0.11701595
0.020206995 0.31436837 0.21090618 0.0071103107 -0.23349132 0.24099308 0.4124392 -0.2250028
0.33718815 0.504419 0.26439512 0.032774735 0.25853616 0.71786773 -0.48391435 0.22212127
0.45335042 0.48418877 -0.39766243 0.2527864 0.64262336 -0.086633906 0.59076685 -0.2531
-0.02926945 0.18266182 -0.20409079 -0.01351096 0.24784347 0.114046946 0.15889317 -0.15120493
-0.47445303 -0.26963067 -0.19625916 -0.019376 0.6185863 0.03539573 -0.07748912 0.3719976
-0.023544533 -0.37496254 -0.29183725 -0.27868363 0.42257962 -0.11819467 0.27305248 -0.15727112
0.17477147 0.049460538 0.30918655 0.43324462 0.37591586 0.124931835 0.36912128 0.3940018
0.2050768 0.1724048 -0.2803683 0.32449692 -0.028323023 -0.046715017 -0.3509429 0.6891938
-0.057846665 -0.114678256 0.48615438 0.11457763 -0.14932571 0.8232244 -0.19633606 1.5253856
0.110430285 -0.34621936 0.64098394 0.5294005 0.31747028 -0.45671487 0.19025095 0.22810113
0.7297696 0.5623552 0.30553943 -1.0628179 0.3917599 0.31746432 0.82972085 0.14926204
-0.3187386 -0.15373102 -0.1420305 -0.105301924 -0.15764357 0.06390448 -0.3768754 -0.044453617
0.6057596 0.4841835 0.35905108 0.28485805 0.13110967 -0.33158568 0.37522206 -0.36064595
0.9301105 -0.18247536 -0.18947496 0.41508573 0.36284617 0.12538654 0.22557437 0.3037563
0.13700591 0.14843683 -0.5153903 0.41670188 0.26092774 -0.21256149 -0.14525811 0.31650108
0.34438756 0.65464926 0.5239793 0.3982722 0.14774051 -0.015850393 -0.9330843 0.078431845
0.043612935 0.00997425 0.22945878 0.5477938 0.15149234 0.21682659 -0.15876038 0.26281872

_CNNDDQN__conv3.bias f4 [64]
00000000: 871f 84bf 2c85 793e b22d 82bf fee7 283f
00000010: cd78 4a3d 88ad cf3e 8f49 81bd 61f0 1fbc
00000020: f402 86bf 68f1 1e3f b0bc 413e a17d 1bbd
00000030: ad7d 45be 5360 823e cd38 42bf a4b2 a93e
00000040: 4244 a6bf f3c4 aa3d d91e bcbf f74d d73e
00000050: ae0f 0ebf 6b2f 8a3f b92b 013d 6ac5 9cbf
00000060: 57b9 903e 6075 76be f5a2 b63e 2de6 8abe
00000070: 7258 103f 1720 b3be 5e66 5abd a4ac d73e
00000080: e8c0 8fbf 9b33 a9be 8f42 65bf f217 24bd
00000090: bc91 683d 67ab b93f bc34 ddbe 5a85 3abe
000000a0: 997b 30bf c01e f73e cd33 343f b393 43be
000000b0: 1a4b 03bf 622b da3c 5f92 833e efe6 26bf
000000c0: 1eaf cfbe 21ad 7dbf a296 63be cae2 603f
000000d0: fcfc 52be 7fbc 90bd 6489 91bf 1b48 c8be
000000e0: d59c bc3e 89ba 7bbe f3e0 1c3f ced9 44bf
000000f0: 4670 463f 9ff5 e2be 798b 17bd 57e6 21bf
-1.0322121 0.24367207 -1.0170195 0.6597899 0.04943161 0.4056208 -0.06312858 -0.009761901
-1.0469651 0.62087107 0.18919635 -0.037961606 -0.19286223 0.25464115 -0.7586792 0.33144104
-1.2989581 0.08338346 -1.4696914 0.4205167 -0.55492675 1.0795721 0.031535838 -1.2247746
0.28266403 -0.24068213 0.356712 -0.27128735 0.56384957 -0.3498542 -0.05332028 0.42123902
-1.1230745 -0.33047184 -0.89554685 -0.0400619 0.056779608 1.4505433 -0.43204296 -0.18214932
-0.68938595 0.48265648 0.7039154 -0.19099312 -0.5128647 0.026632015 0.2569761 -0.65196127
-0.4056329 -0.990923 -0.2222543 0.8784605 -0.20604318 -0.07067203 -1.1370053 -0.39117512
0.36838403 -0.24582876 0.61280745 -0.76894844 0.77515066 -0.4432802 -0.036998246 -0.63242096

_CNNDDQN__fc1Value.weight f4 [128, 64]
00000000: 8126 7a3e ee94 b1bd afdc 9fbe e597 2b3f
00000010: 0731 02be ef8d 48be 75f5 833f eafc 973e
00000020: 32eb e4be 1f54 5abe a1b3 dcbe f9b7 df3e
00000030: 354a 043e 4a36 273f b13a a93e 9fb5 8a3c
00000040: ba92 1bbe 3d9f df3e 33f7 1e3f 3c8b 8dbd
00000050: 7912 c2bd b31b 73be f7f9 6b3f a551 973e
00000060: 67bc e53e 7426 1e3e 6c0b 02bf 883f 493e
00000070: 2329 9d3c 5b71 ba3d 8fff 2f3f 09d4 323f
00000080: 97e3 f5be 4cce a3be cfd2 063e a622 723e
00000090: fc03 943e 2d82 1e3e da44 de3e 4afe 95be
000000a0: 72da 54be 83b3 b9bc 21f4 4b3f a377 21be
000000b0: 11bd 73be dbd9 b53e 3acf 913e 017c ac3e
000000c0: 61cb 133f 62b5 9eba 4ef1 1abe d308 583e
000000d0: dfbe ed3e ce65 a53d 67c4 9c3d f55f 82be
000000e0: 1d78 263f 47bd 513e 64ac 9fbe 970a 23bf
000000f0: 60bb 51bf 8e4d f5be f175 adbe 3d5a 373f
00000100: 976d b53e 7fc0 f3bc d650 6c3e 7aa8 073f
00000110: 4a0e cf3d da7d 54be ae99 013f edb4 2b3f
00000120: 569a 86be 1a80 92bd 2198 a93e 9915 efbe
00000130: 159c 993e fff4 173f 6750 2abf 1482 06bf
00000140: 7b11 213e 2c9d 9bbd 2c8e aebe 40cb 783d
00000150: 5d1d 14bc b8ff 37be e780 bb3e 5fa5 e73e
00000160: 7419 033f 34d9 5f3f 05f8 293d 03b0 4cbd
00000170: 731d c33b 6f48 143f 9538 4b3d 8f0d 30be
00000180: 611f 753e 9668 94bd 4c03 34be b3ee 543f
00000190: 53bb 533e a7fe 3abe 0924 dd3d dfe2 c33e
000001a0: 97df 2a3e a671 64be 98b8 633e 4c1b 9cbd
000001b0: dbcf 25be 32bf 0b3f a17c 233f cc95 243f
000001c0: c6b9 febc 939e 63be 9b2e ae3d 0540 673e
000001d0: 91e9 15bf 7f86 c13d 8a22 353f 7bc7 7fbe
000001e0: 1aea ff3e 8338 613c 112a c83c 6c24 1cbf
000001f0: b212 bfbe eb81 e2bd 3c3e 6cbe 4fca a9bd
00000200: 29be 503e ace6 febd 722a 70be e786 d1bd
00000210: d46d 383e 1c42 e0be 821f 033f dff6 e63d
00000220: 70bc ad3d c943 a73e 5bf0 c0be 770a 673e
00000230: 8566 273e b6bd a63e ea0f 0bbc 07d0 e2be
00000240: 6762 81bd e3d3 d33e 1139 e43d 1654 343e
00000250: 7b64 71be 9fa0 20bf 4c79 123f a38d 853e
00000260: 5e30 d73e 7f87 513d 3cbf 6e3e c156 823e
00000270: 4439 92bd 5a76 ee3e 018d 1c3f 6217 183d
00000280: 4ec5 cebd 2abd bcbe 2e71 43bd 92d7 0a3e
00000290: b0c7 e33e cc37 0bbf ddd0 313f 105f 543c
000002a0: e6a9 03bf 9070 c73d c544 8e3e 593d 84be
000002b0: 9406 a53e a292 12bd 63f5 9ebe e38f f73e
000002c0: 8b36 b43e 123e a7be 5271 02be 29d5 b23e
000002d0: 0561 20be dd1e 1a3f ad13 9b3f 202d 05be
000002e0: e48c 583f 93d4 0a3e 9e00 443e 1cb9 ec3d
000002f0: 7e12 00bf 6268 debd a136 9e3e cfaa 6d3f
00000300: 6de3 053d 35e9 2cbe cb65 003f 5704 c53e
00000310: f1f4 053e 9115 8fbd 15fe 773f 3ffc e5be
00000320: a8bd 733c f3a7 d7be 2e14 613e dace 923d
00000330: 9028 703f 6b50 1a3f 3123 793e 86b7 c03e
00000340: a98e d03e 0dbb 14bd 304f 0c3d aae3 163e
00000350: 36c8 48bd b0ac 763e f901 fbbd 3c3a 723f
00000360: 697a 293e 2891 3c3f 2559 1c3e 91dd 93bd
00000370: 38ad 263e 1dfd 03bd 22bd 3f3f dc22 8c3d
00000380: a4da e9bc b7f8 01bf e5f2 5ebd b76f 033f
00000390: c0f3 6bbe 1632 20be 7d85 093e 8bc6 ac3e
000003a0: cd18 f33a d182 be3e 376d ab3d 64a7 54be
000003b0: 3368 c93e 5f21 4c3e c3f1 913e d91f 923e
000003c0: c0ce 06bd dbe7 143d e3b5 87bd ba1d 35be
000003d0: 69d0 7cbe 1efe d13d 13a8 9cbe 2736 95be
000003e0: aa78 b3be 5d3a 183f c2b8 f1be 0ee6 f53d
000003f0: 313a 13bf 1eac 4abe e358 4dbf b9a9 8b3e
0.2442875 -0.08670984 -0.31223056 0.6702865 -0.12714015 -0.19585393 1.0309283 0.29685146
-0.4471069 -0.21321152 -0.43105796 0.43695047 0.12918933 0.65317214 0.3305259 0.016932307
-0.1519269 0.43676177 0.62095946 -0.069113225 -0.0947618 -0.23741035 0.9217829 0.29554477
0.44870302 0.15444356 -0.5079868 0.19653141 0.019184655 0.09103652 0.68749326 0.6985479
-0.480252 -0.3199333 0.13166355 0.2364603 0.2890929 0.15479346 0.43411905 -0.2929557
-0.20786455 -0.022668606 0.79669386 -0.15768294 -0.23802592 0.35517773 0.28478414 0.33688357
0.57732207 -0.00121085 -0.15131113 0.21097116 0.46434686 0.08076058 0.07654648 -0.25463834
0.6502703 0.2048236 -0.3118621 -0.63688034 -0.81926537 -0.47910732 -0.33879045 0.7162207
0.35435173 -0.029754875 0.23077711 0.5299145 0.10110147 -0.20751134 0.5062512 0.67072946
-0.26289624 -0.0715334 0.33123878 -0.46696165 0.30001894 0.5935821 -0.66528934 -0.52542233
0.15729325 -0.075983375 -0.34092844 0.06074071 -0.009040204 -0.17968643 0.36621782 0.45243356
0.51210713 0.874408 0.041496295 -0.049972545 0.0059544384 0.57923025 0.049614508 -0.17192672
0.23937751 -0.07246511 -0.17579383 0.83176726 0.20676927 -0.18261205 0.10797889 0.38259026
0.16686855 -0.22308978 0.22238386 -0.07622394 -0.16192572 0.54588616 0.63862044 0.6429107
-0.031094443 -0.2222846 0.08504983 0.22583015 -0.5855952 0.09449481 0.7075583 -0.2497844
0.49983293 0.013746384 0.024434121 -0.60993075 -0.3731895 -0.11059936 -0.23070616 -0.082905404
0.2038504 -0.12446341 -0.23453692 -0.10230809 0.18010646 -0.43800437 0.5121995 0.11277556
0.08483207 0.32668903 -0.37683377 0.22562586 0.16347702 0.32566613 -0.008487681 -0.44299337
-0.06317597 0.41372594 0.11143697 0.17610201 -0.23573487 -0.6274509 0.57216334 0.26084623
0.4202909 0.05115461 0.23315138 0.25456813 -0.07139829 0.4657467 0.61152655 0.037131675
-0.10096227 -0.3686307 -0.04771536 0.13558796 0.44488287 -0.54382014 0.69459325 0.012962118
-0.5143112 0.097382665 0.27786842 -0.25828055 0.3223158 -0.03578437 -0.3104659 0.48351964
0.35197863 -0.32664543 -0.12738541 0.34928253 -0.1566201 0.60203344 1.211538 -0.13005495
0.8458998 0.13557653 0.1914086 0.11558744 -0.50028217 -0.10859753 0.30901054 0.9283876
0.032687593 -0.16885836 0.50155324 0.38479874 0.13081719 -0.06986535 0.96872073 -0.4491901
0.014876761 -0.42120323 0.21980354 0.0716836 0.93811893 0.6027896 0.2432983 0.37640017
0.4073384 -0.036311198 0.034255207 0.14735284 -0.04901906 0.24089313 -0.12256236 0.9462011
0.16550602 0.7365899 0.15268381 -0.07219995 0.16277015 -0.03222381 0.7489797 0.068425864
-0.028546639 -0.50770134 -0.05443086 0.5134234 -0.23042202 -0.15644106 0.13429828 0.33745226
0.001854682 0.3720918 0.083704405 -0.2076698 0.3933731 0.19934605 0.28504762 0.28539923
-0.032912016 0.036353927 -0.06626489 -0.17687121 -0.24688877 0.10253547 -0.3059698 -0.29142877
-0.35052997 0.59464055 -0.47211272 0.1200677 -0.5751067 -0.1979222 -0.80213755 0.27277926

_CNNDDQN__fc1Value.bias f4 [128]
00000000: ea5f 963d fe3c c0bd f991 adbe 575b 0ebf
00000010: 1950 6ebd f5f6 b43d d02a c93e c10e 12bf
00000020: f6c1 8bbf 226c 24be 862d 96bf a610 1ebc
00000030: db43 0cbe aa21 cd3d 5c47 313f 7f0f 413f
00000040: 0289 02bf eb93 adbd 1285 993e 9fde e43c
00000050: 93f8 3ebf 4a44 163c ba2d 18be bfa2 b5be
00000060: 3456 1ebe 6e6e cd3e dea8 c23e ec63 d3bd
00000070: 8ba5 003f 1bb7 93bf 6543 1ebe e366 10bf
00000080: 3450 aabd 85cc 91be 7b0f b83d 7493 8d3f
00000090: 15d7 25bf bad0 7f3d f709 24be 173d eebd
000000a0: 8269 eb3d bd97 04bf 0b4b 9dbe 555d c4be
000000b0: 59d0 5bbe 9134 4a3f dab1 00be 81d9 2abf
000000c0: 1c06 13bf 19e9 16bf ee4c 9cbf 30d6 413f
000000d0: 47a5 86be 1e9a 903d aa2d d43e d2d1 84be
000000e0: 2f30 503f cfd0 cfbe 6326 0ebf e589 333e
000000f0: a4f2 bfbe 89e1 25bf bd30 953e c086 80bf
00000100: 8f42 553c d70e 8d3e 58de b7be e156 bf3e
00000110: 095c 7fbe d51e a8be 2d91 cebe b44f 65be
00000120: 33eb 6b3f 7f90 a23c d52b b4be f210 923e
00000130: 9547 22be a53e a03e 8cd3 e43d 92b9 ac3e
00000140: 9068 8a3e 879a a83e 7c8b 083f a893 83be
00000150: a0bc 26be cd94 303f 7623 45bf 8b2c 01bd
00000160: 2b8a 9cbf a629 4fbf f136 b3be 595e a93e
00000170: c02c 253e 79f3 9e3e 1b04 3fbf bfbb e8be
00000180: 293f f9be a057 8cbf a8cb 2e3f 7403 46be
00000190: 7cf0 1c3f 834a 563e 4d04 e43d a0b3 b8bb
000001a0: 24c8 943e aaf1 35be 56ac 023f 1153 45bf
000001b0: 2150 6ebe 0453 6ebd 623d ae39 d3c0 79be
000001c0: 045d 00be 0806 a1be 0db1 8dbd 3973 32bf
000001d0: 521a 973e e5b0 78be 855f bf3d 5a4a 453e
000001e0: aa7c 58bd a8ec 74be 0cd2 c5be 3b46 073f
000001f0: ba17 bd3d d1b0 88be a521 88be f4de 5bbf
0.07342513 -0.09386633 -0.3390043 -0.55608124 -0.058181856 0.08836166 0.39290476 -0.5705376
-1.0918567 -0.16056874 -1.1732643 -0.009647524 -0.1369776 0.100161865 0.6924951 0.7541427
-0.5099031 -0.08475479 0.29984337 0.027938185 -0.74598044 0.009171555 -0.14861193 -0.35475728
-0.15462571 0.40123314 0.3801946 -0.10321793 0.502526 -1.1540254 -0.15455396 -0.5640699
-0.08316079 -0.2847635 0.08987328 1.1060624 -0.64781314 0.062454917 -0.16019426 -0.11632746
0.114947334 -0.51794034 -0.30721316 -0.38352457 -0.21466197 0.7898646 -0.12567845 -0.66738135
-0.574312 -0.5894943 -1.2210977 0.7571745 -0.26297972 0.070606455 0.4144109 -0.2594133
0.8132352 -0.40588996 -0.55527323 0.17533071 -0.37489808 -0.64797264 0.29138747 -1.0041122
0.013016357 0.27550384 -0.35911822 0.3737097 -0.24937452 -0.32836023 -0.40345135 -0.22393686
0.9215576 0.019844292 -0.3518969 0.28528553 -0.15847619 0.31297794 0.11173162 0.3373533
0.270329 0.32930395 0.53337836 -0.2569859 -0.16282892 0.6897705 -0.77007234 -0.03153662
-1.2229666 -0.80922925 -0.35002854 0.33079794 0.16130352 0.3104513 -0.7461564 -0.4545574
-0.48681 -1.0964241 0.68279505 -0.19337255 0.6130445 0.20926861 0.11133633 -0.0056366473
0.29058945 -0.17767969 0.51044214 -0.77079874 -0.23272754 -0.05818464 0.000332336 -0.24389963
-0.12535483 -0.31449914 -0.069185354 -0.69707066 0.29512268 -0.2428623 0.09344391 0.19266644
-0.052853264 -0.23918402 -0.38636816 0.5284154 0.09233041 -0.266974 -0.2658817 -0.85887074

_CNNDDQN__fc2Value.weight f4 [128, 128]
00000000: a173 a1bc 03e7 af3e 7cf9 393e cfe7 e23c
00000010: dc15 db3d 822f 463c 88d3 74be bdf9 bd3e
00000020: fc25 e03d 6380 443e 6a54 10bd db4d 3ebd
00000030: 0d12 333d 8683 da3e d222 a93d 8414 2cbf
00000040: 5e34 ad3e db0d f2be 65a1 453f 78ee c1be
00000050: de8c c23c 5cfc 703d 9891 de3e 3c15 bf3d
00000060: 23bc 873e 4265 1d3e d4af 9fbd 2e18 7a3e
00000070: 44ca 12bf 3026 f23e 7cda a23e 57ab 1abe
00000080: 88a0 2dbd efab dcbd 18a6 e1be ddd1 d13e
00000090: 1a0f bcbd fb1d a53e c712 98be 4a19 81bd
000000a0: 52f2 8b3d 1e57 513d 23e9 9ebc ae92 273f
000000b0: 4d38 b13d 56f9 f83e a5d8 bd3d 0fae 18bb
000000c0: 0838 4d3e 1e58 66be e5ff 04bc ebe3 a8be
000000d0: 703b d63e 7484 043f b03a 353f 1d56 7b3e
000000e0: a0b5 48bf 5acb f23d 71b0 ebbc b222 acbe
000000f0: e06b fc3d e5b2 f3bd df9a bdbd 4b7f 1f3f
00000100: 4692 973d f22c 223f f49a c73e be1e 7fbd
00000110: 839a b63e 54fb 27bc 45ec c73e a7b8 183d
00000120: bae4 093e 4fce 733e db98 b33d 0c69 c2bd
00000130: 23a6 af3d b931 fe3c 37f8 b6be f7ea ba3d
00000140: 2361 dabe d12d ca3e c79f 27be 8185 79bd
00000150: 6ff7 803e 7205 473e eaa4 06bc 631a a13d
00000160: 9788 3d3e 9e0a 8d3d ac69 95bd 3d13 1d3e
00000170: 268a c03d ad0a c6be cbaf d73e 2675 803e
00000180: 79ac 0dbc 8ae7 85be e4d2 bbbc 775b e63c
00000190: b645 4fbe 91f8 013d ebf4 20bc c293 07bf
000001a0: 3886 36be d97e 05be cb4b 84bf 4ae2 0b3e
000001b0: 4fc5 adbe fd26 1d3e 9052 013f a794 033e
000001c0: 0947 4f3e d05e dabb c296 d1be dbe2 b43e
000001d0: e2a7 9abd 4f3a 0f3e 3bd5 71bd 2433 18bd
000001e0: 61c5 5c3e e1b9 d5bd ef41 973d e3a7 433c
000001f0: e086 783e 9524 c83d dfd3 b1bc fb9c 633d
00000200: fffc 39bf b32c c0be 8ef1 2fbf 5781 ccbd
00000210: b68c 17bf 4154 c3be 87af 66be f129 4dbe
00000220: 7a35 2bbe 9c15 58bf 7cd8 d8bf 5abf 42bf
00000230: 0df3 3b3f c931 04c0 85f7 8abf 186c b0bf
00000240: 69b9 e8be a22f 3bbe 032e 14bf 9e4a 8abf
00000250: b9d8 36bf 2420 3fbe 9139 eebe 4f9c 55bf
00000260: d641 9abf b883 8cbf 8c4c 0bbc 46f2 57bf
00000270: e3b7 0dc0 75a1 2bbf 51a6 53bf b768 58bf
00000280: 0641 5abd 3cd5 0ebf a582 ce3d e6d8 79bf
00000290: bd6d 00bf 2b15 9ebf 9b48 04be a602 d13d
000002a0: e39c cfbf 63a8 65be 57b3 f9bf 5a86 14be
000002b0: 6c66 0dbf 3e6e 2dbf ef4d 3b3e 42ac 5abf
000002c0: 4ffc adbf ce02 38bf 8e41 e4bf b1c5 c6bd
000002d0: 4e18 75bf fbb5 fcbf 9650 aebf 4c3c ab3e
000002e0: 4166 84bf cda4 56bf 41b2 bebf d245 b5bf
000002f0: f78c 9abe cc1b 40bf 2c14 eabe 58a1 953e
00000300: 0984 8abf 6265 a83e e196 0bbf 3340 3fbf
00000310: f7bd f83e 15d5 32be fec8 a4bf 044c d93e
00000320: a066 02bf dc44 debb d4fa d1bd 459c eabd
00000330: e7df e43e a892 6dbf 9bbf 96be 837d 8abf
00000340: 1404 b5bf 61e6 91be 0ea5 83bf fdea 39bf
00000350: beb6 c9bf de81 d3be 1b82 3bbf 69aa 54bf
00000360: 5dd4 00bf 43fd d7bf d713 cebe e9d3 b2bf
00000370: a514 57bf cdd8 8a3d 7557 b7bf 4456 8abf
00000380: 8767 eabf 049c ccbd f224 fa3e 3071 12bf
00000390: 3a81 d83e 0815 9bbe 7ee7 3dbe af72 dcbf
000003a0: 15d3 1abf 2e05 56bf 82b1 7bbe 708c 9cbf
000003b0: 50ae 37be 5eed 97bf 8344 45bf 6407 2cbf
000003c0: 4451 c4be 0d4d a7be b792 3a3f 7149 93be
000003d0: 7019 6d3e a38b aabf d392 27bf 0f92 d83e
000003e0: 36c8 d83a 5921 b9bd bf07 70bf 2918 65bf
000003f0: aad2 b13c dd05 ddbc e813 1dbf 0757 4ebf
-0.019708456 0.34355935 0.18161577 0.027698426 0.10697529 0.012096288 -0.23908818 0.37104598
0.10944745 0.191896 -0.035236754 -0.046460968 0.043718386 0.4267847 0.082585946 -0.67218804
0.33829015 -0.47276196 0.77199394 -0.3787725 0.023748811 0.05883442 0.43470454 0.09330222
0.26510724 0.15370658 -0.077972084 0.24423286 -0.5733988 0.4729476 0.31807315 -0.15104423
-0.042389423 -0.10774981 -0.44072032 0.40980425 -0.09182568 0.32249436 -0.29701826 -0.06303652
0.06833328 0.051108472 -0.019398278 0.6545819 0.08653317 0.48627728 0.09269837 -0.0023297106
0.20040905 -0.22494552 -0.008117651 -0.32986388 0.41842222 0.5176461 0.70792675 0.24544568
-0.7840214 0.118551925 -0.028770657 -0.3362022 0.12325263 -0.11899356 -0.09258055 0.6230361
0.07400946 0.6334983 0.38985407 -0.062285177 0.35664758 -0.010252792 0.39047447 0.037285473
0.13466159 0.23809169 0.08769389 -0.09492692 0.0857661 0.031029569 -0.35736248 0.09126847
-0.42652234 0.3948808 -0.16369544 -0.060918335 0.25188777 0.19435671 -0.0082180295 0.07866361
0.18509136 0.06886791 -0.07295546 0.1533937 0.0940135 -0.3868002 0.42126307 0.25089377
-0.008647078 -0.26153213 -0.022927709 0.028119786 -0.20241436 0.031731192 -0.009824018 -0.52959836
-0.17824638 -0.1303667 -1.033563 0.13660541 -0.33939597 0.15346904 0.50516605 0.12849675
0.20241942 -0.0066641346 -0.40935332 0.35329327 -0.07551552 0.13987087 -0.059041243 -0.037158147
0.21559669 -0.10435844 0.07385623 0.011941883 0.242702 0.097726025 -0.021707473 0.05556963
-0.72651666 -0.37534103 -0.6872796 -0.09985607 -0.5919908 -0.38150218 -0.22527896 -0.2003553
-0.16719618 -0.84407973 -1.6941066 -0.7607323 0.7341774 -2.0655386 -1.0856787 -1.3782988
-0.45453957 -0.18279889 -0.5788271 -1.0804021 -0.7142444 -0.18664604 -0.46528295 -0.83441633
-1.2051342 -1.0977697 -0.008502137 -0.84354055 -2.2143486 -0.6704324 -0.82675654 -0.8453478
-0.053284667 -0.5579412 0.10083512 -0.97596586 -0.5016745 -1.235021 -0.12918322 0.10205583
-1.6219753 -0.22427516 -1.9507855 -0.14504376 -0.5523441 -0.6774634 0.18291448 -0.85419095
-1.3592623 -0.7187928 -1.7832506 -0.097056754 -0.9574021 -1.9743036 -1.3618343 0.3344444
-1.0343705 -0.83845216 -1.4898149 -1.4161932 -0.30185673 -0.75042415 -0.45718515 0.29224658
-1.0821544 0.3288985 -0.545271 -0.74707335 0.48582432 -0.17464097 -1.2873838 0.42440808
-0.50937843 -0.006783111 -0.1025292 -0.11455587 0.44702074 -0.92801905 -0.29443058 -1.0819553
-1.414187 -0.28496078 -1.0284746 -0.7262419 -1.5758893 -0.41310018 -0.732454 -0.83072525
-0.5032404 -1.6874164 -0.40249512 -1.397092 -0.84015876 0.06779633 -1.4323565 -1.0807576
-1.8312844 -0.09990695 0.48856312 -0.5720396 0.42286092 -0.30289483 -0.18545339 -1.7222499
-0.60478336 -0.83601654 -0.24579433 -1.2230358 -0.17937589 -1.1869314 -0.77057666 -0.6719878
-0.3834325 -0.32675973 0.7288012 -0.2876697 0.23154235 -1.3323864 -0.6545841 0.42298934
0.001653916 -0.09039564 -0.9376182 -0.8948999 0.021706898 -0.026980335 -0.613585 -0.80601543

_CNNDDQN__fc2Value.bias f4 [128]
00000000: 1f8a 473e 0e92 cc3e 54ac 403e 9af6 f93d
00000010: 5059 f4be c58c dc3e e1e2 06bf 68e8 b7bf
00000020: 9a7c 9d3e b4be 0d3f 4a1f 61be 36ef 0b3f
00000030: 3451 af3c 8f9e de3d 9c99 11bf 786e 75bf
00000040: 3ff1 443e d081 913e c0b5 05bf 1044 a6be
00000050: 8177 d23e 4d41 c1be 8998 713e 63fc 403e
00000060: 9314 613f 7cf1 13bf 3c5c 27bf 03c7 ca3d
00000070: 0be5 30be 65e2 99bc 5bdf d63e 7337 53b8
00000080: c600 04be 195f 353e 2d52 53bf 6c6e 65be
00000090: f173 d03f 1531 cb3e 7b38 fdbc 5211 f33e
000000a0: 29b5 26be d910 3cbe c345 f63e 6385 303f
000000b0: b465 80be 4b16 d63e d6d6 b3bd 19cd 403e
000000c0: b0d7 56bf dde8 033f e8ad 6fbe 0265 433e
000000d0: 3442 843f 409e a4be 9fd9 133f 178c 7dbe
000000e0: 5789 253e 982d 31bd d397 9dbc 19f5 503f
000000f0: 105f d2be 3bdb 81bd 89c8 f13e adf1 d3be
00000100: 8e7f ce3e 05fe 55be c4b4 fe3e 3436 24be
00000110: 046a 0a3e a7ce 063d 5a4f 763d c5f0 0e3e
00000120: 2298 c3be 3e9f 043f 5a74 a03c 9492 c5be
00000130: ac1b 0b3f 2023 47be b3b3 693e 52b4 cf3e
00000140: f300 eabd 66d9 96be a98a 05bf fe40 f3be
00000150: 3276 163f 1350 9e3e 7cbb 433f ca23 d1bd
00000160: e7f6 2b3f 9c1b abbe 96a6 49be fad2 65bd
00000170: 36c3 c33d 117e 7b3f 0aff 603e aaa0 d03e
00000180: a802 3abf d5ad bbbe 75ed ecbe 0b8a 883f
00000190: 6876 afbe 053e d43c f0d0 063f 76b2 46be
000001a0: 256e b13e 3beb 90be 04a6 2cbf 103a 333e
000001b0: e2d3 2dbf eb2a 153f f5de 4a3f c5b2 f0bd
000001c0: 5490 e13e 6c5d dbbd 9750 fc3e b34f 59be
000001d0: cf1e 083f f0ad 6f3e 232e 0fbf c3d2 babd
000001e0: 9fac 61bf 784b 95bc 4dbd b8bd 646f d6b9
000001f0: 6152 e93e ebff 2a3f 81c0 9a3f 307f 29bd
0.19486283 0.3995518 0.18815738 0.12205239 -0.4772439 0.4307615 -0.5268994 -1.43678
0.30759126 0.55369115 -0.21984592 0.5466188 0.021401025 0.108700864 -0.56875014 -0.95871687
0.19232653 0.28419352 -0.52230453 -0.32473803 0.411068 -0.37745133 0.23593344 0.18846278
0.8792202 -0.5779035 -0.65375113 0.0990124 -0.17274873 -0.018784711 0.41967282 -5.035796e-05
-0.1289092 0.17712058 -0.82547265 -0.22405404 1.6285383 0.39685884 -0.030910721 0.47474152
-0.16280045 -0.18365802 0.481001 0.6895353 -0.25077593 0.41813883 -0.08781211 0.18828239
-0.83922863 0.51527196 -0.23406184 0.190815 1.0332704 -0.32151985 0.5775394 -0.24760471
0.16165672 -0.043256372 -0.019237434 0.8162399 -0.41088152 -0.06340643 0.4722331 -0.4139532
0.40331692 -0.20897682 0.49747288 -0.16036302 0.13517004 0.032911923 0.06013427 0.13959034
-0.38202006 0.51805484 0.01958673 -0.38588393 0.543391 -0.19446993 0.22822456 0.4056726
-0.11425962 -0.29462737 -0.52164704 -0.47510523 0.587741 0.30920467 0.76457953 -0.10211904
0.6717362 -0.33419502 -0.19692454 -0.056109406 0.09558718 0.9823924 0.2197229 0.40747577
-0.72660303 -0.3665606 -0.46274915 1.0667127 -0.34270024 0.02590848 0.52662563 -0.19404015
0.34654346 -0.28304467 -0.6744082 0.17502618 -0.6790143 0.5826861 0.79246455 -0.117528476
0.44055426 -0.10711178 0.49280235 -0.21221809 0.5317201 0.23406196 -0.55929774 -0.09122231
-0.88154024 -0.018224463 -0.09020481 -0.00040900253 0.45570663 0.6679675 1.2089998 -0.04138106

_CNNDDQN__fc3Value.weight f4 [128, 128]
00000000: c983 2fbe 49a2 b7be 035a f8be 51ac 8cbe
00000010: 6b57 c7be e226 fa3c 1ef5 b1be a8fb dfbe
00000020: 2a0a 013e c835 bc3e d66a edbe 25b3 67be
00000030: 0786 c4be ab67 03be 372f 03bf 09fe 5ebe
00000040: 1866 07be d0bb 90be bd99 2fbe d9a8 b8be
00000050: 0926 a23e af66 ffbe 0345 30be 8daf 083d
00000060: 7b05 993d 790e 34bf a144 13be afb1 cdbe
00000070: e444 2ebf 73e8 febe 430b 7ebe d467 27bd
00000080: ff36 e5bb f8b4 9dbd 9bc3 43be a2ca b7be
00000090: 8441 12be ca3f 8fbd c8c5 60bf 5af9 a4be
000000a0: 9b05 e5be c179 3cbf 1669 c0bd 2f8a 07bf
000000b0: 087c 3cbe 74ae 333d 9754 70be 2a79 54be
000000c0: 71a8 11bf 9908 afbe 0f46 14bf 3f4c 08bf
000000d0: 5c2d 4dbd 73e0 ffbe c921 6ebe 628f 70bd
000000e0: d5bd bc3d dbf5 bebe 7bbb a8be eaa1 84be
000000f0: 7cc0 12bf 0c2e 24be 472e fb3b ed04 dabe
00000100: 874e 70bd e17a d1be 62a4 8dbc 9287 dcbe
00000110: 9e2c 0d3e 4ffd 3e3d 0a1f 31be b09f 993e
00000120: b223 b9be e9ee 503e db1e 40bd 7e04 18be
00000130: 6b06 d0bd e6d3 3abf e849 f0be b23d 13bc
00000140: aca5 f1bd f6a2 a6be e65f 81be 66e3 2cbe
00000150: ef53 22bf ce83 ce3e ce9b 593c 4472 603e
00000160: 8d3a c7be e6cf 81bd 4c31 07bf c765 1b3e
00000170: a7e0 0e3c ae21 49bf 61a4 15be 773e 463e
00000180: 04a9 39bf 5aa7 9ebe 9aec dbbe fff0 fdbe
00000190: e0e9 f4be ad35 25be 92ec 9dbd 6a6b 07be
000001a0: c039 54bf e474 66be 2984 8ebe fa9d 7ebe
000001b0: 7486 25bf a689 46be 17c5 2b3e 7dfd 0dbe
000001c0: baac b9bc 86ee 49bb 34b1 9cbe 782d 46be
000001d0: df4b f6be 9efb 71be ea27 26bf 1894 c6bd
000001e0: 4347 7fbe 24fa a8be 938d 8bbe 4822 4fbf
000001f0: 6184 813e bcd7 303e 44e8 93be 7086 17be
00000200: 6f63 a0bd eb2d a0be 441d 0cbe 2d21 d0bd
00000210: 93df 953d 60a5 6fbd 26c7 023c af1d 33be
00000220: b92a c1bd 2c01 f23c 31ac 6abd d86e 18be
00000230: 2cc0 fabd 753e 4ebd 2556 93bd 6bf0 e83c
00000240: 7113 193b dfd1 b3bc f36b 4a3c c673 963c
00000250: 9c84 9ebd aff1 1ebe ee51 a8bd 58b6 333d
00000260: 1081 1abe 846e 3fbd eaf0 e63c 2d13 90bd
00000270: edab 36bd aa64 073d b38a 31be 4108 07bd
00000280: 46cb b4bd 2f1f 43bb 5b22 d5bb 7b31 18be
00000290: 3207 25be b236 46bd cf79 79be 4375 f1bd
000002a0: 2701 a5be 4b3d 0f3d b8ed 7bbe 3030 0abe
000002b0: a4c6 50bd c78c f13c e457 263d dbdb a2bd
000002c0: cdb6 763d de49 63be cdcd 023d ea98 ccbd
000002d0: 1a15 57be 32f1 3ebe 8253 0fbe e060 94bd
000002e0: de7f 16be 3aca d9bc 259a c3bc eae0 123d
000002f0: 9b1b 01be 9a2b e6bd 0d7c 473e 6100 21be
00000300: 593c 753d 5272 50be c48a 253d 2496 80bd
00000310: 9009 16bd dc0f acbd 8d3d ca3c e1fa ccbd
00000320: 7e61 21bd 88cd 183e ec54 95ba 358c 13be
00000330: 30d7 06be 8463 bc3c 950f 4ebe 4005 b4bd
00000340: 7602 583d ad50 c3bd 95c7 d3bd 044d 67bd
00000350: 73b1 05be 0d6a efbc 94e4 3dbd 448d aabd
00000360: 4e09 2abe 06f3 c0bd 1938 40be 6b0e 51bd
00000370: a652 1abe 0a85 4cbd 088f 89bc 52d9 4ebe
00000380: 1884 43be d7ff bdbd dfb2 5dbe 6dd8 3f3d
00000390: 56cd 55be ae9f 19be 6128 08bd b63e e2bd
000003a0: 9e35 3fbe 9a27 44be 1a0a 4b3d 329c bcbd
000003b0: 8df6 0abd ebcf 9ebd d905 9bbd 3c47 b53d
000003c0: 99dc e0bd d490 0d3b 2313 e0bd 106e 6bbe
000003d0: 91ed be3c 68d4 3cbe 1427 27bc 9f3c 843d
000003e0: a77b 62be 4ea3 bebd 4751 b73d e085 26bd
000003f0: 588d 25bd 4ee3 0abe 395e 05be 4482 8bbe
-0.17140116 -0.35866 -0.48506173 -0.27475217 -0.38933882 0.030536119 -0.34757322 -0.43746686
0.12601534 0.36759782 -0.46370572 -0.22626932 -0.38383505 -0.12832515 -0.5124392 -0.21776594
-0.1322254 -0.2826829 -0.1714849 -0.3606632 0.31669644 -0.4988303 -0.17213826 0.033370543
0.074717484 -0.70334584 -0.14381649 -0.40174624 -0.6807387 -0.4978672 -0.24808984 -0.040870503
-0.0069950814 -0.07700533 -0.19117586 -0.35896784 -0.14282805 -0.06994589 -0.8780179 -0.3222149
-0.4473084 -0.7362328 -0.093950436 -0.52945226 -0.18406689 0.043867543 -0.23469768 -0.20749345
-0.56897646 -0.34186247 -0.579194 -0.5324134 -0.050092086 -0.4997593 -0.23255076 -0.05873049
0.09215895 -0.37296948 -0.32955536 -0.2590478 -0.5732496 -0.1603319 0.007665429 -0.42581883
-0.05866864 -0.40914062 -0.017290298 -0.43072182 0.13786551 0.046628293 -0.17296997 0.30004644
-0.36160046 0.20403637 -0.046904426 -0.14845464 -0.10157474 -0.7297958 -0.46931386 -0.008986877
-0.117991775 -0.32546204 -0.25268477 -0.1688362 -0.6340932 0.40334934 0.013281776 0.21918589
-0.38911858 -0.063384816 -0.52809596 0.15175544 0.0087205535 -0.78567016 -0.14613487 0.19359766
-0.7252352 -0.30987054 -0.4295395 -0.49597928 -0.47834682 -0.16133757 -0.07711138 -0.13224569
-0.8290062 -0.22505528 -0.27835205 -0.24864951 -0.64658284 -0.19388446 0.16774403 -0.1386623
-0.02266537 -0.0030812337 -0.30603945 -0.19353282 -0.4810476 -0.2363114 -0.64904654 -0.096962154
-0.24929528 -0.33003342 -0.2725645 -0.80911684 0.2529631 0.17269796 -0.28888142 -0.14797378
-0.078314655 -0.31285033 -0.13683039 -0.10162578 0.07318034 -0.058507323 0.007982051 -0.17491792
-0.09431977 0.029541574 -0.05729312 -0.14886034 -0.12243685 -0.050352532 -0.07194165 0.028434953
0.0023357535 -0.02195066 0.012354839 0.018365752 -0.07740137 -0.15521882 -0.08218752 0.04387507
-0.15088296 -0.046736255 0.028191049 -0.070349075 -0.044597555 0.033054985 -0.17338066 -0.032966856
-0.08827834 -0.0029773226 -0.0065043396 -0.14862625 -0.16116026 -0.048392005 -0.24362873 -0.11789944
-0.32227442 0.034970563 -0.24602401 -0.13494945 -0.05097069 0.029486073 0.040611163 -0.0795209
0.060232926 -0.22196147 0.03193455 -0.099901035 -0.21004143 -0.18646696 -0.139967 -0.0724504
-0.14697215 -0.026585687 -0.023877213 0.035859026 -0.12608187 -0.11238785 0.19480915 -0.15722801
0.059872005 -0.2035611 0.04041554 -0.06278637 -0.036630213 -0.084014624 0.024687553 -0.10008789
-0.039399616 0.14922154 -0.0011393107 -0.14408953 -0.13168025 0.022996671 -0.20123132 -0.08790064
0.052736722 -0.09536872 -0.103408016 -0.056469932 -0.13055973 -0.029225374 -0.046360567 -0.083277255
-0.16605112 -0.09421353 -0.187714 -0.05103914 -0.1507059 -0.049931563 -0.016791835 -0.20200089
-0.19093359 -0.09277313 -0.21650265 0.04683726 -0.2087911 -0.15002319 -0.033241633 -0.110471174
-0.18672797 -0.19155732 0.04957018 -0.092094794 -0.033926535 -0.07754501 -0.07569475 0.088514775
-0.10979576 0.0021601217 -0.1094115 -0.22991204 0.02330664 -0.18440402 -0.010202188 0.06456875
-0.22117482 -0.09308492 0.08951049 -0.040655017 -0.040418 -0.13563272 -0.13024224 -0.27247822

_CNNDDQN__fc3Value.bias f4 [128]
00000000: 0cea fb3c 9c86 6d3c 94cb e8bf 60a8 c63f
00000010: 28b2 cb3f 74fe c33d 0234 fabc 92e8 ec3f
00000020: 7cd9 b33e 248c 843f 8d76 a33f 34bc 323f
00000030: 6e8b 593f 58e9 e03e 558d fc3c fbe6 34be
00000040: 7280 79be 1c36 253d 2098 f6be e9de af3f
00000050: 6ada 80bd a2a3 ca3f 86fa de3c f1c7 81bf
00000060: eaa2 66bf 2b5d abbe 2e9f 59bf 3fd7 cf3f
00000070: 8b55 3cbf 7936 35bf 7a70 e43d 0ec7 013e
00000080: f9a3 ae3d 6fef 353f 2025 ab3f 12af 863d
00000090: 1a40 f2be 89c5 6e3e f686 8c3f fd12 893d
000000a0: 04ba 503e 9f3e 39bb 741f 25bf 3684 d6be
000000b0: c1fb 81bd c7ae 62bf 9705 853d 75b7 7bbf
000000c0: e59a 123d cbf9 863f 0657 febe f9b5 95bc
000000d0: 9507 c6be 95ce 1cbd 0f63 3d3e f45f d2be
000000e0: 9131 e53d b8ed 87bd 9d12 2abf 26b7 053e
000000f0: fcd4 833f 0257 d63f ebbd d43e 39a0 9fbe
00000100: 6bd4 923e 2410 ce3e 19f0 ebbe 3b72 ca3e
00000110: 8a7f 35be b3c7 913d 72d0 f83e 415c a3bd
00000120: 0a3a 31bd 83b3 83bf 9f44 1bc0 838e 00bf
00000130: 8d84 fd3d b8c0 f03e a69c c73f 2e05 f53f
00000140: c860 1dc0 475e 683d 4111 14c0 bd8f 093e
00000150: 0e0c 603e 0eb9 353e 55a3 4b3e 7f7c 41bf
00000160: 26e3 d13d 2b1c 053e b1de 343e 7857 7ebf
00000170: d2cb bcbe e673 163d 5756 1d3e dcbd f03e
00000180: 102b 71bd 5526 3c3c cb82 823e 73e5 743d
00000190: e155 83bd 9d3f 50bf 89a7 323e 9036 5dbd
000001a0: 2429 893e ec5f c13c 28d7 703e 5121 90bf
000001b0: 3161 3d3e 294a 20bd 4af9 03bf e568 59be
000001c0: 60d3 fe3d 1350 e0be 5c2a bfbe f846 ccbe
000001d0: 233c 3e3d 19c0 e53f 2cc1 afbe cc64 efbc
000001e0: 4e89 923e 1db6 923f 56b2 b43d 05a0 f3be
000001f0: 4223 03c0 060b cebd 6590 20bc 0999 093e
0.03075125 0.014497425 -1.8187127 1.5520134 1.5913744 0.095700175 -0.030542377 1.8508475
0.35126865 1.0355268 1.2770554 0.69818425 0.8497838 0.43928027 0.030829111 -0.17666237
-0.24365404 0.040334806 -0.48162937 1.3739902 -0.06291659 1.5831187 0.027219068 -1.0139142
-0.9009234 -0.3346952 -0.85008514 1.6237563 -0.7356803 -0.70786244 0.11154266 0.1267359
0.08527369 0.7106847 1.3370705 0.06576361 -0.4731453 0.23317541 1.0978687 0.06693075
0.2038346 -0.0028266085 -0.6450112 -0.41897744 -0.06346846 -0.8854794 0.06495207 -0.9832681
0.03579225 1.0544981 -0.4967577 -0.018275248 -0.3867766 -0.03828295 0.18494819 -0.4108883
0.11191095 -0.06637138 -0.6643465 0.13058147 1.0299373 1.6745303 0.41551146 -0.31176928
0.28677687 0.4024669 -0.46081617 0.39540276 -0.17724434 0.07118168 0.4859653 -0.079765804
-0.04326824 -1.0289158 -2.4260633 -0.50217456 0.12378798 0.47022033 1.559468 1.9142206
-2.459032 0.056730535 -2.313553 0.13433738 0.21879598 0.17746374 0.19886525 -0.7558059
0.10248403 0.12999026 0.17663075 -0.99352217 -0.36874253 0.036731623 0.15364967 0.4701985
-0.05887896 0.011483748 0.25490412 0.059789132 -0.064128645 -0.81347066 0.17446722 -0.054007113
0.267892 0.02360531 0.23519576 -1.1260167 0.18494107 -0.039133225 -0.5155226 -0.2123142
0.1244266 -0.43811092 -0.37337005 -0.39897895 0.04644407 1.7949249 -0.34327066 -0.029222868
0.2862038 1.1461827 0.088230774 -0.47583023 -2.049027 -0.10060696 -0.009800051 0.13437285
