code/models/DoubleDQN/model140.pth (torch, 266187 bytes, 14 tensors)

_CNNDQN__conv1.weight f4 [16, 1, 5, 5]
000000 1c 00 0f bd e9 89 9b bc cc b1 85 bd e3 50 94 bc
       -0.034912214 -0.01898666 -0.06528053 -0.018104976
000010 9e fa 43 be 1b 5d f9 bc 40 30 73 ba 93 f7 14 bd
       -0.19138572 -0.030439904 -0.0009276904 -0.036368918
000020 b6 21 ee bc d9 5e 2c 3d 6e 7e b2 bc 15 ef 21 bd
       -0.029068809 0.04208264 -0.021788802 -0.039534647
000030 29 d7 7d 3c 2d 8a 2e 3d 14 65 41 3d 6e 58 7b 38
       0.015493193 0.042612243 0.047215536 5.992542e-05
000040 68 00 44 3c 16 ad ab 3b b9 53 68 bc af 06 ea 3d
       0.0119629875 0.0052391393 -0.014180117 0.11427056
000050 bc 94 02 bd e5 c7 ad 3c 0a c4 31 3b 77 0f 5e 3d
       -0.031880125 0.021213481 0.0027124905 0.054213967
000060 72 4f 2c be 2f 43 4e 3d f7 3c b5 bc 51 94 f9 3c
       -0.16827181 0.05035704 -0.022123797 0.03046623
000070 50 14 74 be f1 ac 34 bd e3 dd 0e bd 9e 67 4f 3d
       -0.23835874 -0.044110242 -0.034879576 0.050635926
000080 9e 5a 81 be 1c b1 16 3f fd 6d 9d be 51 0c a9 3c
       -0.25264448 0.58864 -0.30747977 0.020635756
000090 ef 8f 2a bd 40 9b 1b 3c 2c 5d 40 be 4d 84 23 bd
       -0.041641172 0.009497464 -0.18785542 -0.039921094
0000a0 5b e1 bb bc 8f 96 24 3c a4 bc e9 bc 70 b7 10 bc
       -0.022934606 0.010045662 -0.028532334 -0.008832797
0000b0 9a 57 18 bc 3a 78 9d bc 00 c4 fe 3b 6e 45 0f 39
       -0.00929823 -0.019222368 0.00777483 0.00013663407
0000c0 c2 0b 15 ba 25 70 bb 3c 64 92 12 3c 21 16 85 bc
       -0.0005685651 0.022880623 0.008946035 -0.016245903
0000d0 17 7f 44 3d 5a 99 fa 39 7c 24 80 bc 6f b0 70 3d
       0.047972765 0.00047797972 -0.015642397 0.05876201
0000e0 c7 22 21 3c 2c d6 e6 3c 02 c1 a8 bc af 04 10 3b
       0.009834952 0.028178297 -0.020599846 0.0021975448
0000f0 0d d8 7a 3d af e4 11 3d a7 e6 2d bb 27 05 e3 3d
       0.0612412 0.03561848 -0.0026535185 0.11084967
000100 af 45 b7 bd 03 52 64 3d ac ea 18 3d ad 8f 1b 3e
       -0.08948838 0.055742275 0.037333176 0.15191527
000110 87 b5 4c be 55 77 78 3d 1f c7 0b 3e 11 d6 1c 3e
       -0.19991122 0.06066068 0.13650177 0.15316035
000120 02 76 35 3d e0 fd ed 3d c4 f2 cf bd bb 9a 00 bd
       0.044301994 0.116206884 -0.10153726 -0.031397562
000130 de 9d 99 3c 36 3d 0a 3d 94 eb 9e bb 88 21 48 bc
       0.018752035 0.03374978 -0.0048498604 -0.012215026
000140 f5 09 62 bd 64 bb eb bc 49 1f d0 bb 2f 9f 10 3c
       -0.055185277 -0.028775878 -0.0063513857 0.008827015
000150 a0 bd d5 3a b8 f4 e8 bd 05 5d ef bd 59 66 51 bc
       0.0016307123 -0.113748014 -0.11687664 -0.012780749
000160 a9 dd 7a bc b5 fa 4c 3c b4 67 f7 be d4 4a 32 bd
       -0.015311637 0.012510945 -0.48321307 -0.043528393
000170 fb ef 58 bc 63 ff 81 3b 26 a3 bf 3c 2f aa 19 3f
       -0.01324081 0.003967212 0.023393225 0.60025305
000180 5d df 34 3d d0 a2 b7 bb 0d c6 97 bb a4 ad f2 bc
       0.04415833 -0.0056041256 -0.004631764 -0.029623814
000190 86 30 43 bc 3b 31 48 bb 6d 1c 23 3d 4c a1 df bb
       -0.011913424 -0.0030546922 0.03982203 -0.006824648
0001a0 59 94 01 3e 82 71 97 bc 65 f3 a1 3c 0e 95 48 3c
       0.12654246 -0.018486742 0.01976938 0.012242569
0001b0 53 29 72 3d 28 27 3a 3e d7 16 d9 ba 3e 42 d6 bb
       0.05912144 0.18179 -0.0016562593 -0.0065386584
0001c0 2c 0d 41 3d 46 f2 a9 3d b0 b1 db 3d da 44 28 bc
       0.047131702 0.08298163 0.107272506 -0.010270322
0001d0 76 fc c2 3b 01 25 64 3d 14 61 4a 3d 6b ea 4b 3e
       0.005950506 0.055699352 0.049408987 0.19913642
0001e0 d1 20 ae 3b cb a0 64 3c 8f 0b a5 3c 97 8d 21 3e
       0.0053139706 0.013954352 0.020147113 0.15776668
0001f0 e8 33 06 3c 49 b6 6e 3e 63 ad aa bc c8 eb 04 3d
       0.008191086 0.23311724 -0.02083463 0.03245142
000200 4c e0 39 bd 61 95 75 bc 2d d2 3c 3d 63 04 14 3e
       -0.04537992 -0.014989228 0.046098877 0.14454798
000210 47 e8 ef ba a2 66 0c 3d 98 04 ba 3c d4 10 a8 3d
       -0.0018303477 0.034277566 0.022707269 0.08206335
000220 8a 5f 22 bc 0e 0a 85 3d 31 f4 2e bd a6 3d f1 3d
       -0.009910474 0.064960584 -0.042713348 0.11779337
000230 b1 4d 66 bb bd 16 d3 3c 77 6f 2f bc 18 46 ce 3d
       -0.0035141523 0.025767678 -0.010707728 0.10071963
000240 7a f6 d8 bd 21 93 94 3c ba 30 f8 bc 42 32 53 3d
       -0.10593887 0.018136563 -0.030296672 0.0515616
000250 19 08 69 bd 22 8c 3f 3e ca 5a 55 3c 5f d9 ee 3b
       -0.05689249 0.187058 0.013022134 0.0072890962
000260 1c 06 73 3b cf 39 3c 3c 1b f9 04 bc a9 f2 f9 39
       0.00370825 0.011488392 -0.008116032 0.00047673777
000270 3c d6 8c 3c e3 2c 6e bc f5 89 2b ba 73 91 b5 bb
       0.017191999 -0.014537069 -0.00065436895 -0.0055410205
000280 61 07 72 3c 04 db 22 bd 07 97 8a bc 70 e0 8c 3b
       0.014772267 -0.03975965 -0.016917719 0.004299216
000290 a9 d6 ab 3b 51 e8 0e 3f 1d 57 c8 be 8b 73 2e bd
       0.0052440953 0.55823237 -0.39128962 -0.04259066
0002a0 bc 93 48 bc 18 8a da 3b 19 4f b4 bc e1 ad c2 bc
       -0.012242254 0.006669294 -0.022010373 -0.023764553
0002b0 18 d7 07 bc 18 54 15 bc 6a 76 4a 3c 76 f2 a9 3b
       -0.008291028 -0.009114288 0.012357334 0.0051863743
0002c0 e3 51 82 bc 81 89 19 3c ad 70 e2 3b 01 ea 54 3f
       -0.015908187 0.009371162 0.0069104047 0.8316956
0002d0 fd c0 98 3b f0 e6 56 bc 89 28 f3 3b f0 82 14 bc
       0.004661678 -0.013116583 0.0074206037 -0.009064421
0002e0 7f 91 ec bd 16 64 8c 3a 62 79 9c 3b 2d 04 0a 3c
       -0.11551189 0.001071098 0.004775212 0.008423847
0002f0 56 3a ae 3b 41 d7 e5 bc 46 2e b0 3b 0d 59 39 3a
       0.005317013 -0.028056743 0.00537661 0.00070704595
000300 28 4f 91 bb 2d cb ce 3b 94 72 34 bb 21 69 1f bc
       -0.004434485 0.0063108415 -0.0027534114 -0.0097296545
000310 63 5e 5c bc b7 3d a5 bb 2c 2f c0 bb 8a aa 57 bb
       -0.013450238 -0.0050427574 -0.0058649983 -0.0032908046
000320 0d 26 2a 3f e6 6e 83 3c 0f f0 c7 b9 50 a3 3a bc
       0.6646431 0.016044091 -0.00038135095 -0.011391476
000330 91 c5 33 3c 1e 56 0f bf ba 51 aa bc 15 22 ae bc
       0.0109723965 -0.5599078 -0.020790923 -0.021256486
000340 41 de 02 3d e3 6f fd 3c 6d 81 ae bd 69 4c 96 bd
       0.03195024 0.03093714 -0.0852078 -0.07338793
000350 45 a9 94 3c 12 77 b0 3b 79 c5 8b 3c b1 6a 4b ba
       0.01814712 0.005385288 0.017061936 -0.00077597337
000360 1b 2f dc 3c f0 a9 10 bc 1c 7d c4 3b 99 79 f8 bc
       0.02687793 -0.008829579 0.0059963595 -0.03033142
000370 6f b4 ac bb 96 d6 f4 3c 32 14 43 3c d7 b3 0b 3c
       -0.005270533 0.029887479 0.01190667 0.008526764
000380 40 13 6e 3c e7 9c 2f bb 08 35 31 bc 23 1f 21 3c
       0.014530957 -0.0026796402 -0.010815866 0.009834084
000390 0d 3a d2 3a 45 f0 a1 3b d7 e0 e5 ba 76 50 14 bc
       0.0016039029 0.0049419724 -0.0017538321 -0.0090523865
0003a0 1e 0f c8 3b db d8 b5 3b 7a f8 07 3c 78 89 1c bc
       0.0061053177 0.005549533 0.0082989875 -0.0095542595
0003b0 69 b0 66 bb c1 aa 3f bc c6 5c 2a 3c 96 87 90 bb
       -0.0035200363 -0.011698426 0.0103980955 -0.0044106944
0003c0 93 d8 0d 3c c7 ab 17 bc 9e 50 07 3c 11 cb 05 bd
       0.008657592 -0.0092572635 0.008258967 -0.032664362
0003d0 d4 44 49 3f 4c 0d 38 bc 0a 0b 0c 3a b0 c1 91 bc
       0.7862065 -0.011233639 0.0005342221 -0.017792553
0003e0 3a e7 ad 3c f4 ed 46 3f de 9f b0 3b d2 be 23 3d
       0.021228421 0.7770684 0.0053901514 0.039976902
0003f0 04 03 ae 3c 09 e0 9d bc 89 3f bf 3b 36 4d ce bb
       0.021241672 -0.019271867 0.0058364314 -0.0062958254

_CNNDQN__conv1.bias f4 [16]
000000 5a 8e df 3d be 17 ea bd bf 01 a6 bd e2 74 5f be
       0.10915823 -0.1143031 -0.08105802 -0.21821931
000010 85 a3 dc bc 8d ce d6 bc 7a ce 66 be 97 d1 8f be
       -0.026933441 -0.026221538 -0.22539702 -0.28089592
000020 55 5d 8a be 56 a9 ec be 05 c6 9c be 25 b1 ba be
       -0.27024332 -0.46222943 -0.30619827 -0.36463276
000030 e6 41 95 bd 10 b7 de bd 01 40 82 be 73 e4 9c be
       -0.0728796 -0.1087476 -0.25439456 -0.30643043

_CNNDQN__conv2.weight f4 [32, 16, 3, 3]
000000 33 7c e6 3d a3 c6 09 3d 2d 08 8f 3d 79 d9 ec 3d
       0.11254158 0.0336367 0.06983981 0.11564917
000010 4e 54 72 3c 24 28 35 be 51 c7 79 be de f4 87 be
       0.014790608 -0.17691094 -0.2439244 -0.26554006
000020 9f 72 4a be 31 e3 ed 3d 60 c4 c2 3d 1b 40 e9 bc
       -0.19770287 0.11615599 0.09510112 -0.02847295
000030 78 4a 5a 3e ef 32 9e bc 7d 47 31 bc 67 49 b1 3e
       0.2131747 -0.019311396 -0.010820267 0.34626314
000040 ba 8d 86 be 62 fa 80 3c 3d 71 5a bd fb 31 c7 bd
       -0.26280004 0.015744392 -0.05333065 -0.0972633
000050 aa 43 7e be 21 9f ed 3d fa 18 8d 3d 56 15 67 be
       -0.248305 0.11602617 0.068895295 -0.22566733
000060 d1 e1 c9 3e b7 bc a6 bc 4a 1a 9f bd ba 1c 81 be
       0.39430097 -0.020353658 -0.07768686 -0.2521723
000070 28 a2 5e bd b4 9a a1 be ae 58 26 bf 31 6f d2 be
       -0.054353863 -0.31563342 -0.64979064 -0.41100457
000080 57 25 5f be 9c 46 0d 3e b4 a7 22 be ec b4 c4 3d
       -0.21791588 0.13796467 -0.15884286 0.096048206
000090 6b 77 ea 3d 4e 4c 6b 3e 92 93 23 be 25 03 b3 3d
       0.114485584 0.22978327 -0.15974262 0.08740834
0000a0 03 48 1e 3d 06 14 13 be 8e 12 8d be cd a7 46 bf
       0.038642894 -0.14363107 -0.2755322 -0.77599794
0000b0 53 8e 11 bf b5 a6 fe 3d 07 14 4d be db 94 ec 3c
       -0.56857795 0.124341406 -0.20027171 0.028879574
0000c0 9d 71 0c 3e 0f c9 6b 3e d3 99 4d 3e 45 89 4d be
       0.13715215 0.23025917 0.2007821 -0.20071895
0000d0 4c 37 30 be 2d 64 6a be c7 04 5e 3f c2 bd 7a 3f
       -0.17208594 -0.22889777 0.8672604 0.979458
0000e0 b4 eb 2b 3f 2e 99 90 3f f0 60 68 3f 74 8f 94 3f
       0.6715653 1.1296747 0.90772915 1.1606278
0000f0 27 cb a6 3f 6a 48 64 3f 3c 11 cd 3f 13 b9 0e 3e
       1.3030747 0.89172995 1.6020885 0.13937788
000100 0e 4c f6 3c 4e af 69 bd e0 4f fc 3d 8a 64 f0 3d
       0.030065563 -0.05705195 0.123199224 0.11737926
000110 86 02 0b 3e 38 c1 cc 3d 74 42 92 3e c8 47 a6 3e
       0.13575181 0.09997791 0.28566325 0.3247664
000120 4d 65 b8 bd 3c 39 79 3d 81 86 6c 3e f8 d1 8c bd
       -0.090036966 0.0608456 0.23098184 -0.06875986
000130 d8 52 91 bd 2d 82 05 bd bb 2d e3 bb d9 90 26 3c
       -0.07095879 -0.03259485 -0.0069329417 0.01016637
000140 49 f9 ec 3d 57 7d 27 3f 56 01 b6 3e 95 6e c1 3e
       0.11570985 0.6542563 0.35547894 0.3777968
000150 5a dc e3 bf aa 37 e3 bd a3 ee c4 bd 01 2e 74 bd
       -1.7801621 -0.110946015 -0.09615829 -0.059614185
000160 f0 54 08 bf a1 e1 89 be 25 42 d8 3e a9 b2 41 be
       -0.53254604 -0.26929954 0.42237964 -0.1891581
000170 a0 33 ff 3e 5e 1c 1b 3f 02 a5 b9 be ad 7c de 3e
       0.49844074 0.6059016 -0.36258703 0.43454495
000180 78 32 ba 3d aa cb ba be c2 17 3c 3f 11 27 ac bd
       0.090916574 -0.36483508 0.7347375 -0.08405889
000190 80 83 f0 be 17 fe 10 3f 2a 3e b9 bc 60 89 7f be
       -0.46975327 0.5663771 -0.02261265 -0.24954748
0001a0 b6 27 26 3f e1 d8 0b be 3d 4f 8f 3e 30 e8 4e 3f
       0.64904344 -0.13656951 0.27990142 0.8082304
0001b0 f4 fb 9f 3e 3f 60 bb 3e be 25 c7 3e d7 b8 82 3f
       0.31246912 0.36596867 0.38895983 1.0212659
0001c0 bb a3 8f 3e 1c 7c 2c 3e ee 83 23 bf 6d 26 3c 3e
       0.28054604 0.16844219 -0.63873184 0.18374033
0001d0 7a bc 09 bd d5 8e 32 3e 37 ef d6 3c ff b4 75 3e
       -0.03362701 0.17437299 0.026237113 0.23994826
0001e0 fe 37 f7 bc da e4 05 3e 09 bf 2e 3e b2 14 a7 3d
       -0.030178066 0.13075581 0.17065062 0.08158244
0001f0 e7 4c 5c 3b 77 c4 c2 3d b3 13 e2 3e 03 88 27 3e
       0.0033615173 0.09510129 0.44155654 0.16360478
000200 fb a4 37 3e 11 92 03 40 9a 50 3f 3f cc 0e fd 3e
       0.17934029 2.0557902 0.74732363 0.49425352
000210 2a cb 1d 3f 1b 3f 39 3f d4 ba ce 3e ef f4 81 3d
       0.6163813 0.72361916 0.40376914 0.063455455
000220 eb 13 99 3c 85 e2 56 3d d9 1e ae 3d 5d ae af 3d
       0.018686255 0.05246212 0.085019775 0.08578179
000230 30 0c 0c 3e af 53 a4 be f4 0d 8f be 8a a3 65 bd
       0.13676524 -0.32095096 -0.27940333 -0.056064166
000240 ab 2f 4f 3c 69 33 d4 bd 17 36 ed 3c 55 87 02 3d
       0.012645642 -0.10361368 0.028956456 0.031867344
000250 11 fd 6e bd a9 f6 bb bc 55 b8 68 3d 25 29 bd bd
       -0.05834681 -0.022944765 0.056816418 -0.09236363
000260 ba 8f 69 be ba e5 2b 3e dc d4 ab 3d ae 59 d2 3d
       -0.22808734 0.16786852 0.08390209 0.10271011
000270 7c e9 85 3e 1c bc 17 3e c3 d0 33 bc 70 2d ab 3e
       0.26154697 0.14817852 -0.010975066 0.33433104
000280 6d 49 57 3e c1 07 05 3d fd 8c 31 bc ff 88 e6 3d
       0.21024103 0.032478098 -0.010836837 0.11256599
000290 db b5 a7 bc 17 a1 e6 bd f1 2a a5 3a ed bf d1 bc
       -0.020472458 -0.11261194 0.0012601299 -0.025604213
0002a0 26 0d 91 3d ff 33 94 3d c4 96 e1 bd 27 ae 26 be
       0.07082586 0.0723648 -0.110150844 -0.16277371
0002b0 53 20 b1 bd 53 2a 4d 3d 5d bf 87 bd 35 bd bd bd
       -0.086487435 0.05008919 -0.066282965 -0.09264604
0002c0 95 72 07 bc 40 cf 8d 3f 03 90 1c 3e 8d 94 b0 3e
       -0.008267065 1.1078873 0.15289311 0.34488335
0002d0 72 b6 3b 3d e8 18 e7 3d 4e bd 08 be 16 03 cc bd
       0.04582829 0.11284047 -0.13353464 -0.09961526
0002e0 75 54 39 be 5e 58 76 3c 9f 41 de 3d bc 58 65 3e
       -0.18098624 0.015035717 0.1085236 0.2239713
0002f0 39 5d 9e be 8f 81 98 3c f2 b6 80 3c e3 d0 4d bd
       -0.30930498 0.018616466 0.015712235 -0.050248038
000300 88 58 5e bb 8e 05 0f bd ef 0f a8 bd fa 02 b4 3d
       -0.003392728 -0.034917407 -0.08206164 0.0878963
000310 bf 60 d9 3c 12 d5 0b 3d 08 54 ce 3e bd 45 e2 3e
       0.02653539 0.034138747 0.40298486 0.4419383
000320 0e 44 3f 3e 34 52 7c 3e 2b bc c9 3e cf 72 b3 3e
       0.18678305 0.24640733 0.39401373 0.3504853
000330 27 42 8f 3f a6 91 73 3e 97 82 48 3e ac 80 24 3e
       1.1192063 0.23786029 0.19581066 0.1606471
000340 48 5c f0 3d d7 94 9f 3c c6 39 d4 3d 69 db f6 3d
       0.11736351 0.019480152 0.10362582 0.12053568
000350 94 12 0d 3d e7 60 ec 3d 59 7f 8e 3e 0c 0c 03 3e
       0.034441546 0.1154192 0.27831534 0.12797564
000360 98 4f 5a 3e cb 04 8e 3e 1e 27 83 3e f2 51 8b 3e
       0.21319425 0.27738032 0.25615782 0.27210957
000370 16 21 8b 3e d7 c6 28 3d 87 de c7 3e 86 6c c9 3e
       0.2717368 0.041205253 0.39036962 0.3934061
000380 00 4f 8c 3e b0 10 80 3d 81 d4 4a 3e 79 5d be 3e
       0.27404022 0.06253183 0.19807626 0.3718069
000390 59 23 bc bb 44 b0 23 3e 8c 26 a9 bb 7d c2 ce bd
       -0.0057415185 0.15985209 -0.005162066 -0.100956894
0003a0 56 60 72 be 07 70 fa 3e ff d7 ae 3e 50 df 57 3e
       -0.23669562 0.48913595 0.34149167 0.2108128
0003b0 69 c4 a7 3e 78 ce a5 3e ae fc 79 3e 7d c6 c6 3e
       0.32767037 0.32384086 0.24412796 0.3882331
0003c0 94 4b 19 3f 7e 83 01 3e 30 65 c2 3e 1b 29 3e 3e
       0.5988095 0.12647817 0.37967825 0.18570368
0003d0 51 67 db bd f1 8c d0 bd f2 6a 56 be 8f 40 1a 3d
       -0.107130654 -0.101831324 -0.20939234 0.037659224
0003e0 f6 27 a6 3c 10 0c fd 3e 15 fd c4 be 09 81 d0 bb
       0.020282727 0.49423265 -0.38474336 -0.0063630384
0003f0 b9 72 bf bd 4c 39 5b 3d 6c 18 63 3b de 59 12 bd
       -0.093480535 0.05352144 0.0034652008 -0.035730235

_CNNDQN__conv2.bias f4 [32]
000000 21 99 0c be 17 e0 46 be b3 39 a9 be f1 0d 65 be
       -0.13730289 -0.19421421 -0.33051834 -0.223686
000010 08 6a d5 bd 18 ed 58 be 74 c5 ef bd 9e e2 04 bd
       -0.104206145 -0.21184194 -0.11707583 -0.03244268
000020 cd 01 be bf 3f ca 51 bc fe 18 4a be 82 a6 46 be
       -1.48443 -0.012804567 -0.19736096 -0.19399455
000030 77 47 57 be 03 4d e4 bc 50 c5 ac bc a6 7b ed be
       -0.21023355 -0.027868753 -0.02109018 -0.463834
000040 cc b6 01 bd 0a e1 38 be 14 b3 88 bd d9 54 44 be
       -0.03166847 -0.18054596 -0.066747814 -0.19172992
000050 21 d0 0d bd cb 22 1e 3d c7 46 ab bd d3 b8 b1 bd
       -0.034622315 0.0386074 -0.08363109 -0.086778305
000060 a7 81 c9 be 4c 56 9d bf a7 20 f3 bd a2 63 61 be
       -0.3935673 -1.2291961 -0.11871462 -0.22010663
000070 91 0a 7d be b9 9f 51 bd 37 58 0d bc 38 31 7b bd
       -0.24711062 -0.051177714 -0.008626989 -0.061326236

_CNNDQN__conv3.weight f4 [64, 32, 3, 3]
000000 5a 05 01 3e 1e c9 19 3f c1 48 bc 3e 27 30 3a be
       0.12599698 0.60072505 0.36774257 -0.18182431
000010 8f 37 5a 3c 29 3f 53 3e 8f 62 e7 bc f1 8e 8f bd
       0.01331891 0.20629562 -0.028245239 -0.07009686
000020 a5 a7 8c be 40 9f 25 3e 02 45 a7 3e 98 b0 9d 3e
       -0.27471653 0.1617403 0.32669836 0.30798793
000030 69 0e 49 be d3 bf 26 be df e6 43 be cc 68 e0 be
       -0.19634403 -0.16284113 -0.19131039 -0.43829954
000040 7b 45 d1 bd c5 38 83 bd a9 f3 6c bd 2d 57 88 3e
       -0.102183305 -0.06407312 -0.05784956 0.2662901
000050 e4 36 ed 3d d9 0c 02 be f8 c1 aa 3d 4c b8 22 3e
       0.11582735 -0.12700213 0.08337778 0.15890616
000060 a9 fa 86 3e a5 d1 19 3f 1a b1 d0 3e bf 43 e8 bd
       0.26363114 0.6008552 0.40760118 -0.113410465
000070 1d 54 4e be 68 98 cc bd 3c 6c 20 bf 57 63 05 bf
       -0.20149274 -0.09990007 -0.6266515 -0.52104706
000080 3f 12 cf be 4c 4e 46 bf 50 05 09 bf 05 02 6f be
       -0.40443608 -0.7746322 -0.5352373 -0.23340614
000090 9c bb c7 3d fd b4 d3 3c 44 5e d3 bc 4f e3 3e 3f
       0.097525805 0.025843138 -0.025801785 0.74565595
0000a0 f8 61 e6 3e 94 5c ec 3e 53 d3 d1 3f 99 a7 65 3f
       0.4499662 0.46164382 1.6392616 0.8970886
0000b0 ac b9 d2 3f d3 04 79 be 9a 6b 6f bc 5f 87 2d be
       1.6462913 -0.24318247 -0.014613057 -0.16946171
0000c0 f6 ac 7c be 91 25 ff bd f8 7a fa bd af 55 07 be
       -0.24675354 -0.12458337 -0.12230486 -0.1321628
0000d0 15 c3 d9 3d 85 68 05 3e 3b 95 a2 3e 5e 9f 0d 3e
       0.10632912 0.13028152 0.3175448 0.13830325
0000e0 9c ea a6 3d a2 33 8f be ec 43 0e be 9e 98 a2 be
       0.08150217 -0.2796908 -0.13893098 -0.31757063
0000f0 db 69 24 bf 0b 53 1d bf 1a c0 04 bf 78 f0 b3 3e
       -0.6422402 -0.6145484 -0.51855624 0.351444
000100 bb 5b 29 3e c9 13 84 be 0e bf 14 3f ef 19 42 3e
       0.16538899 -0.25796345 0.58104026 0.18955205
000110 84 76 91 3d 72 7f 5c 3f b0 fe 02 3f 25 f1 47 3f
       0.07102683 0.86131966 0.5116987 0.7810233
000120 10 dc 59 be 6b 37 4d be 3f f0 26 3e fb 10 85 bc
       -0.21275353 -0.20040672 0.16302584 -0.016243448
000130 4c a2 95 3e 88 d0 4a 3d 15 77 47 3e 92 ab ef 3d
       0.29225385 0.049515277 0.1947902 0.11702646
000140 1f 8c 89 3e a2 82 0a bf ad 6d 6f 3e 37 51 10 3f
       0.26864716 -0.5410558 0.23381682 0.56373924
000150 c5 4d c0 be 0e 81 9e bc 75 1c 4f 3d 16 ee 31 bf
       -0.37559333 -0.019348647 0.050564248 -0.69503915
000160 6a 58 96 be e9 9d 85 bd eb c6 ae 3d fe 63 98 3d
       -0.2936433 -0.065242596 0.08534034 0.07440947
000170 22 27 3f 3e 81 43 0c 3d 76 db a8 3d be 70 96 3e
       0.18667272 0.034244064 0.08244984 0.2938289
000180 7a c1 a8 3d aa 22 93 3e e9 4a 4d 3e cc 86 ef 3e
       0.08240028 0.28737384 0.20048107 0.4678253
000190 46 b6 52 3d 64 fc d1 bd aa 08 b8 3e 1d 5a bf 3b
       0.05144336 -0.10253218 0.3594411 0.0058395998
0001a0 ba 84 3a 3d 08 8f 1f 3e 0e 0d 28 bd 8b 8a dd bd
       0.045536734 0.15581906 -0.041028075 -0.108174406
0001b0 be af b7 be b9 cd e2 be 97 37 f2 be 53 9f 1f bf
       -0.35876268 -0.4429758 -0.47308037 -0.62352484
0001c0 31 35 07 bf ff 05 f6 bd 11 f1 20 bf c9 a1 0f bf
       -0.5281554 -0.120128624 -0.6286784 -0.5610624
0001d0 bb d5 15 bf 92 fd b6 be 84 ab 3f bc 7e b4 e1 bc
       -0.5852925 -0.35740334 -0.011698607 -0.027551886
0001e0 25 f6 9e be 83 a1 13 bd 1a d2 1d 3c e5 98 8f be
       -0.31047168 -0.0360427 0.009632612 -0.28046337
0001f0 f0 53 d4 be bf 2c 31 bf f8 56 89 be 2f 44 e2 be
       -0.4147029 -0.692089 -0.26824164 -0.44192645
000200 fa 0a f9 bb 41 65 3c be a3 53 cc be 0c 49 ba be
       -0.0076001855 -0.18398 -0.3990756 -0.36383855
000210 60 2d cf be 14 cb 4e be 9a 19 22 be 14 f1 be 3e
       -0.40464306 -0.20194656 -0.15830079 0.37293303
000220 c7 44 d6 3e f6 bc 27 3e 3f 70 f5 3e 22 34 9a 3e
       0.41849348 0.16380677 0.479372 0.301179
000230 00 85 d7 3b b3 0c 50 3f 8d e1 81 3f df cd 9c 3e
       0.006577134 0.8126938 1.0146958 0.30625817
000240 7d 22 1e 3e 55 45 53 3d 0a af 4c 3d 6e 30 87 3e
       0.15442844 0.051579792 0.049971618 0.26404136
000250 a1 95 85 3e 1c 62 16 3f a0 18 57 3f b2 ee 09 3f
       0.2609072 0.58743453 0.8402195 0.53879845
000260 32 54 73 3f 79 1c 12 bf 69 48 fd be 2f 41 0c be
       0.95050347 -0.57074696 -0.49469307 -0.1369674
000270 98 43 e8 be cc 4e 96 be d8 40 96 bd 0b 92 02 bf
       -0.4536407 -0.29356992 -0.07336587 -0.51004094
000280 5c e0 7a 3e d2 67 a3 bc be ea 5e 3d d3 51 d4 3d
       0.24499649 -0.019946966 0.054423086 0.10367169
000290 04 06 1c be 26 7c ae be 8b d5 c8 bd 92 bb df bd
       -0.1523667 -0.34079093 -0.09806355 -0.10924448
0002a0 65 95 35 bf 4b 1f 2c bf 15 97 8d be 25 39 ac be
       -0.7093108 -0.6723525 -0.2765433 -0.33637348
0002b0 7c 5f ce 3b 12 24 5e 3e 95 07 d2 bd 1c 52 08 3c
       0.0062980037 0.21693447 -0.102553524 0.008320358
0002c0 76 ea 81 bd f3 b5 0b bf 95 e7 07 bf 13 64 89 be
       -0.06343548 -0.5457451 -0.5308774 -0.26834163
0002d0 d3 41 d0 be a0 8e 45 3d 06 e4 2a 3e b6 39 50 be
       -0.4067522 0.04823172 0.16688547 -0.20334515
0002e0 97 e0 ba 3c d1 7e ad bc 89 31 84 3d 31 c9 3c be
       0.02281217 -0.021178635 0.064547606 -0.18436123
0002f0 8b 1b 82 bd 9e c6 03 bf 0c dd 87 be 39 72 d1 3c
       -0.0635291 -0.5147494 -0.26535833 0.02556716
000300 dc e6 b9 3d 6e 1b 6e 3d a0 52 8a bc 15 c6 b1 3e
       0.09077236 0.058131628 -0.016885102 0.34721437
000310 ab fb 9f 3e c3 19 1e be 5c 81 ac 3d 58 83 bb 3d
       0.31246695 -0.15439515 0.08423111 0.09155911
000320 35 84 cd 3e 6c 53 d8 bd 31 9e 71 3e 72 3d a5 3e
       0.40139928 -0.105627865 0.23595501 0.32273442
000330 23 e0 70 ba c8 30 06 3e 61 fb 7a 3e ee 7f 90 bd
       -0.00091886724 0.13104546 0.24509956 -0.07055651
000340 04 4a 0d bf 43 3a f3 bd 8c 9c b5 3d e5 f5 f8 3d
       -0.55191064 -0.11876347 0.088677496 0.12156276
000350 18 fc fd 3d 29 4d 42 3f 64 02 8d 3e 0d 3e 95 3e
       0.12401599 0.7589899 0.27540886 0.29148903
000360 41 b3 b8 be 20 77 de be 2e 23 9a be e4 c2 d1 be
       -0.3607426 -0.4345026 -0.30104965 -0.40969002
000370 75 83 06 bf bd 40 1e bf e1 9e c6 bc 45 54 27 be
       -0.5254434 -0.6181753 -0.024245681 -0.1634074
000380 eb 25 c0 be bc 49 17 be 98 97 ea bc 46 64 dd 3d
       -0.3752893 -0.14774221 -0.028636739 0.10810141
000390 6e 4f e2 bd 5b 8b 72 3b f6 65 ea 3d d9 26 6e be
       -0.11050306 0.0037009332 0.11445229 -0.23257007
0003a0 a8 2b d6 bd 18 2c 72 3d f2 37 af be 3e c5 1e bf
       -0.104575455 0.059124082 -0.3422237 -0.6201972
0003b0 3e 89 3f be 73 1d 96 be 0d 42 00 bf e8 4a 1b 3e
       -0.18704697 -0.29319343 -0.50100785 0.15165293
0003c0 9a 2d c5 bd b1 62 16 bc 81 00 47 3e 37 6c c3 be
       -0.096278384 -0.009178803 0.19433786 -0.381685
0003d0 7f cc 64 be 3c 29 ea be 0a c0 0d be d8 d3 23 be
       -0.22343634 -0.45734584 -0.13842788 -0.1599878
0003e0 3c 1c 70 be 16 39 fe be 45 9f bc be 87 83 06 bf
       -0.2344827 -0.49652928 -0.36840263 -0.52544445
0003f0 b9 d0 cc 3c 70 8a cd 3d 6f 4a bd bd 7f 0d 88 bd
       0.02500187 0.100361705 -0.09242713 -0.06643199

_CNNDQN__conv3.bias f4 [64]
000000 34 7a e5 3e a1 38 35 bf 7c 0f 50 bf 51 fb 8e bf
       0.44819796 -0.70789534 -0.8127363 -1.1170446
000010 53 d5 71 be 72 79 75 3d e4 60 56 bf 20 ca 82 bf
       -0.23616533 0.059930272 -0.83741593 -1.0217934
000020 e0 f5 77 3e 8e ef b0 bf b9 0f 29 bf 48 6f 84 3f
       0.24214888 -1.3823106 -0.66039616 1.034646
000030 89 53 40 3e 90 d1 bd 3e 6c 32 2c be c6 a5 bd bf
       0.18781866 0.37073946 -0.1681611 -1.4816215
000040 09 f6 d8 be 3d 15 64 bf 9d 84 d4 bf f7 75 8c 3f
       -0.4237521 -0.8909491 -1.660297 1.09735
000050 62 66 8d 3e f2 83 0a c0 35 11 c5 be 37 f3 23 bf
       0.27617174 -2.1643033 -0.3848969 -0.6404299
000060 33 80 0a 40 89 22 32 be 09 a0 18 bf b8 61 45 bf
       2.1640747 -0.17395987 -0.59619194 -0.7710223
000070 71 05 91 bd fd 79 82 bd 71 a7 08 bf 1b 8e 1b bf
       -0.07081116 -0.06370924 -0.53380495 -0.6076371
000080 2f 8f 55 bf 66 73 6a 3f 04 ee 35 3c de 27 d4 3d
       -0.83421606 0.91582334 0.011104111 0.103591666
000090 ca 79 83 bf ed a3 8a be f7 f4 51 3f 9d a3 c5 3d
       -1.0271542 -0.2707819 0.8201441 0.096503474
0000a0 88 92 88 be e4 58 6f be 16 f8 43 c0 1e 36 09 bf
       -0.26674294 -0.23373753 -3.062017 -0.535982
0000b0 f6 fb 92 3f 96 6f 5a 3e 75 ed 78 3f ec 59 c0 be
       1.1483142 0.21331629 0.9723733 -0.37568605
0000c0 78 f8 de 3e 91 c3 2c 3e 29 7e cb be 8a 49 64 3e
       0.43548942 0.16871478 -0.3974469 0.22293678
0000d0 59 d8 23 bf 7c 18 a4 3e aa a9 04 be 1b 59 9a 3e
       -0.64001995 0.3204993 -0.12955347 0.30146107
0000e0 01 7e 36 3f e4 81 24 bf e2 a8 01 bf 67 bc 9a bf
       0.71286017 -0.642607 -0.5064832 -1.2088746
0000f0 0d eb 80 bf f1 8d e8 be 5d 26 91 bd 57 fe f2 3e
       -1.0071732 -0.45420793 -0.07087395 0.4745967

_CNNDQN__fc1.weight f4 [128, 64]
000000 a2 90 b4 be 76 83 fa be e6 3c 2e 3e fc 2d bf bb
       -0.35266596 -0.48928422 0.17015418 -0.005834339
000010 5a df 25 bd 2f d8 40 bd 1d 6f de 3d 16 68 46 be
       -0.040496208 -0.04708117 0.10861037 -0.19375643
000020 f9 22 06 3f 46 99 dd 3e be 28 a2 bd 8e 7c c3 3e
       0.52397114 0.43281 -0.07917927 0.38180965
000030 6d 75 0c 3d 5d 4b 64 bf e1 04 2c bd ed 48 63 3e
       0.034291673 -0.89177495 -0.04199684 0.22195788
000040 85 ba 46 be cc 1e b0 bc 4f cf 42 bd 84 2c f2 be
       -0.19407089 -0.02149906 -0.047560986 -0.47299588
000050 3b 7c 29 bf 0f dc ac bd e9 30 b0 3e 21 67 cc 3c
       -0.66205186 -0.0844041 0.34412315 0.02495152
000060 d1 42 c9 3d 38 4e 14 3f 67 c6 a4 3e 92 cb 2b 3f
       0.09827197 0.5793185 0.3218262 0.671075
000070 3c fb 1a 3e 1e 8c c5 3e 58 14 62 3f ad 2e 8a be
       0.15134901 0.38583463 0.8831229 -0.26988736
000080 35 89 f6 bc 4c 1b cc 3d 41 2c 91 3e 83 55 92 3d
       -0.030094722 0.09966144 0.28354076 0.07145216
000090 e9 01 a7 be 88 5c 22 be 58 9c 00 3e 56 e4 45 3e
       -0.32618645 -0.1585561 0.1255964 0.19325384
0000a0 4b f5 75 3e 65 db c0 3e 42 a3 9e 3e fb be 07 bf
       0.24019353 0.37667385 0.3098393 -0.5302579
0000b0 a4 bc 20 3e 94 ea 4a be c1 df e7 be 66 30 69 3d
       0.1569696 -0.19816047 -0.45287898 0.056930922
0000c0 78 cd 97 3e 10 7a 4e bf 57 4d 72 3d 3b 4b ca be
       0.29648948 -0.80655 0.05915579 -0.3951052
0000d0 69 3b 99 bb 4e 91 50 be 7d 4c c3 bd 46 57 13 be
       -0.0046762717 -0.2036793 -0.09536073 -0.14388761
0000e0 80 33 5d 3e 89 c5 83 be 71 b1 43 be c5 85 d2 3e
       0.21601677 -0.25736645 -0.19110657 0.41117683
0000f0 84 60 34 be ce c1 4b 3e 40 c3 57 be 20 21 db 3e
       -0.17614943 0.1989815 -0.21070576 0.4279871
000100 cd 0d b2 3d f2 ca b0 3e 06 07 5c 3e 90 37 d6 bd
       0.086940385 0.34529835 0.21487054 -0.104598165
000110 58 6b e1 3e fd de 9c 3d f7 3c 81 3e cc 72 87 bd
       0.4402721 0.07659719 0.25241825 -0.06613693
000120 74 e6 8d bd a4 5d 23 3e 73 f2 a6 be 8a 8e b8 bd
       -0.06928721 0.1595369 -0.3260685 -0.09011562
000130 d4 c2 cf bd be be f7 3d 3a 88 69 3f a8 74 af 3d
       -0.101445824 0.12096928 0.9122349 0.08567172
000140 27 d5 96 3e f6 f9 c2 3e 6d 43 e4 bd 3b ed 39 be
       0.29459497 0.3808133 -0.11145673 -0.18156902
000150 0c 1e e3 3e 23 f5 6f 3d 40 89 30 be 69 14 fa 3e
       0.4435886 0.05858339 -0.17239857 0.48843697
000160 cc 80 04 bd 6f b2 fc bd fe e3 52 be 9f 77 07 be
       -0.032349393 -0.12338721 -0.20594785 -0.13229226
000170 35 cd ba 3d 6a 73 5c 3b a3 e9 3a be 14 64 71 3e
       0.091211714 0.0033638128 -0.18253188 0.23573333
000180 ef 91 c9 3e 83 76 a8 be 13 b1 f6 3d 9d be ca bd
       0.3936915 -0.32902917 0.12045493 -0.09899638
000190 bb c9 8e 3e a6 2a ef be f4 96 06 bf 3f f8 bd 3e
       0.27888283 -0.46712226 -0.52574086 0.3710346
0001a0 6e 17 28 3e 68 2b bb 3e 07 55 ce bd fc 3d f8 bd
       0.16415188 0.36556554 -0.100748114 -0.121211976
0001b0 0e 10 40 3e 49 e1 f3 3e f0 29 bb 3e 41 90 92 bf
       0.18756124 0.47632816 0.36555433 -1.1450273
0001c0 8a 68 a7 3d 51 66 04 3e ac fa 3e be fa d3 b2 3e
       0.08174236 0.12929656 -0.18650311 0.3492735
0001d0 ea 68 49 be ed 28 02 3e 6f 24 b4 3d 68 9c 4d bf
       -0.19668928 0.12710924 0.08796012 -0.8031678
0001e0 e8 aa 85 3e c0 26 16 be 17 1f a6 be 70 04 a3 be
       0.26106954 -0.1466322 -0.32445595 -0.31839323
0001f0 73 50 25 be 58 d8 3d be d2 03 1d be bd 55 1a be
       -0.1614397 -0.1853956 -0.15333489 -0.15071769
000200 7d d6 3b 3f a1 7d 01 3f 2d 92 c6 be b5 06 13 3f
       0.7337416 0.5058232 -0.38783398 0.5743211
000210 dc db 30 bf 52 3c 15 3e c7 99 46 3f 2f 14 fb 3d
       -0.6908548 0.14573792 0.77578396 0.12259709
000220 c0 08 60 3d ef 08 6e 3e 06 7d 93 3e 0c 3a db be
       0.054695845 0.23245595 0.28806323 -0.42817724
000230 3d a1 1f 3f b3 77 c5 3e c4 84 20 3f b5 30 4c 3e
       0.62355405 0.38567886 0.62702584 0.19940455
000240 f6 60 2c 3f 57 d1 a0 3e b9 9a f2 3e 48 d7 0f bc
       0.6733545 0.31409714 0.4738367 -0.008779354
000250 58 8d ad 3f 8a 67 a9 3d 03 63 85 be ae 94 9d 3c
       1.355876 0.08271702 -0.26052102 0.019235935
000260 4b bd 8e bf fb 65 e1 3e 0c d7 6c bf ee 9e 25 3f
       -1.1151518 0.44023117 -0.92515635 0.6469563
000270 4d 18 a4 3e 82 f3 b2 3e c4 b2 0f 3e e9 1e 9f 3d
       0.3204979 0.34951407 0.14033037 0.077695675
000280 7b c4 3f be 1b d5 a6 bd 3b 71 1f bf 9f e8 55 be
       -0.18727295 -0.081461154 -0.6228215 -0.20889519
000290 dd f0 aa 3f f1 94 87 3f 88 56 88 3f 0f 3c 3d 3f
       1.3354756 1.0592328 1.0651407 0.7391977
0002a0 00 10 bd 3e 70 86 58 3f 8b 69 e9 bd 20 71 6a be
       0.3692627 0.84580135 -0.11397084 -0.22894716
0002b0 e2 86 01 3f 2b f0 8d bb 16 16 fe 3e ac 8a 7c 3f
       0.5059644 -0.004331609 0.49626225 0.98649096
0002c0 6e 7d 8d 3e 67 bd a6 3e 5b ec f4 3e 30 40 8f 3f
       0.27634758 0.32566378 0.47836575 1.1191463
0002d0 a7 1b 0e 3f 89 72 71 3f 8e 80 fd 3f 50 f3 50 3f
       0.55510944 0.9431539 1.9804857 0.81621265
0002e0 8c ef 56 be a2 03 be 3e 41 eb 1f 3f 95 b3 39 3e
       -0.20989817 0.37112147 0.62468344 0.18134911
0002f0 11 6d 33 be de 2a 25 3f 61 5b 45 3f f9 2d a2 3f
       -0.17522074 0.64518535 0.7709256 1.267028
000300 01 95 77 3e 4f ab 3b 3e 13 c7 85 bd d2 1c df 3e
       0.24177934 0.18327068 -0.06532111 0.43576676
000310 27 3b df be 29 da 9c be ec bb 12 3e f8 78 f8 3d
       -0.43599817 -0.30635193 0.14329499 0.12132448
000320 a6 7f 12 3d 2c d1 04 3f 28 e8 4d 3f b1 4d c4 be
       0.035766266 0.5188167 0.8043237 -0.38340524
000330 07 8a f9 3d 7c df ca be 04 ec 1a 3f 36 5a 26 be
       0.1218453 -0.3962363 0.6051638 -0.1624535
000340 7c b2 0f 3e 1f d3 7c be 41 b9 62 3d 53 bb 51 3d
       0.1403293 -0.24689911 0.055352453 0.051204037
000350 bb 54 0f 3f 7f c6 85 3e ad 3b 0e 3e 0c bb 99 3d
       0.55988663 0.26128003 0.13889952 0.075063795
000360 1f dc 67 bd fa 47 2f be 54 e0 32 be 31 81 95 3e
       -0.05660641 -0.171173 -0.17468387 0.29200128
000370 44 df 9c bc 94 8c 97 3b 23 1d 4b be 55 a2 71 3d
       -0.01914943 0.0046249125 -0.19835334 0.058992703
000380 43 b4 e1 3d a7 78 e7 bd c3 d9 ec bb e5 43 07 3e
       0.1102071 -0.113023095 -0.0072281077 0.13209493
000390 c0 b6 cf be c4 76 08 3f 55 5f 6e 3e 4e 2e 82 be
       -0.40569115 0.5330622 0.23278554 -0.25425953
0003a0 93 60 93 3e fb 21 1f be 3d 31 36 bc d5 74 d4 3d
       0.28784618 -0.15540306 -0.011120138 0.103738464
0003b0 d5 07 6c 3e 10 d7 99 bd 0b 14 29 bd aa 00 56 3f
       0.23049863 -0.07511723 -0.04127888 0.83594763
0003c0 8e ee 87 bf 3a 02 1c bd ea b2 11 3d 06 20 96 be
       -1.0619676 -0.03808806 0.035571016 -0.29321307
0003d0 7e fc 22 3f 72 90 b0 bd 9d 69 07 be 2c 4d fd 3e
       0.6366652 -0.08621301 -0.13223882 0.4947294
0003e0 d6 96 75 be c9 95 04 3d a3 2e 95 be fc 44 ea 3e
       -0.2398332 0.03236941 -0.29137143 0.45755756
0003f0 68 c6 7d bd b7 33 63 be 48 a5 f9 3e 06 32 bf 3c
       -0.061956793 -0.22187696 0.48758912 0.023339283

_CNNDQN__fc1.bias f4 [128]
000000 39 06 6b 3e 5a 2e a5 be 46 e0 90 bd 62 b1 eb be
       0.22951593 -0.32261926 -0.07074027 -0.4603377
000010 c0 22 39 be 2f d4 d2 bc 9f 48 9a 3e 69 8e 22 3f
       -0.18079662 -0.025735943 0.3013353 0.6349855
000020 53 cf 80 3f 5c 83 1c 3f c7 84 07 3f 32 37 bb be
       1.006327 0.6113794 0.5293698 -0.36565548
000030 0c 44 33 3d 36 49 2c bf f2 ff c3 3d 39 fe a2 bd
       0.043766066 -0.6729921 0.09570302 -0.079586454
000040 fa 2d 98 3e b6 ee 6e be c4 5f 88 3e 07 b8 65 3c
       0.29722577 -0.23333248 0.26635563 0.014020926
000050 37 ee f2 be 38 d8 b2 3d 43 4b c6 bd ce 67 0e be
       -0.47447369 0.08732647 -0.09682324 -0.13906786
000060 b0 82 b3 be cf 16 00 bf 6d 11 f8 be 7f f1 20 be
       -0.35060644 -0.50034803 -0.48450795 -0.15717123
000070 52 13 7f bf a7 ed fc bd c3 00 54 3f e7 94 19 bf
       -0.99638855 -0.12350016 0.8281366 -0.5999283
000080 47 68 b7 3e 02 2c a8 3e 95 9d 2a 3e 87 e2 4e be
       0.35821745 0.32846075 0.16661675 -0.20203601
000090 d8 73 98 bd dd 80 13 bd 00 d4 e3 be 37 21 b0 bd
       -0.074439704 -0.036011565 -0.4449768 -0.08600085
0000a0 96 da 25 bf 9b 1e 17 be b5 cd 85 be 01 05 45 3e
       -0.6478666 -0.14757769 -0.26133505 0.1924019
0000b0 8d 95 24 bc 85 5e a8 bd 52 0f 9b be 5c b3 68 3e
       -0.010045421 -0.08221153 -0.30285126 0.2272467
0000c0 ad a2 9c be b9 a9 39 be f6 11 e6 bd d2 84 08 3d
       -0.30592862 -0.1813115 -0.112338945 0.033329792
0000d0 a4 0a 9d 3e 9e db 22 be 71 22 09 3e 03 40 8d 3c
       0.3067218 -0.1590409 0.13392045 0.017242437
0000e0 89 33 b0 3e 1a 3d 02 bf 61 03 cd 3d 0d ee 3d 3d
       0.34414318 -0.50874484 0.1001041 0.0463696
0000f0 3b 1e 3e bf aa c0 40 be c2 5c 68 3d a3 0d 26 be
       -0.7426488 -0.18823496 0.056729086 -0.1621614
000100 60 64 65 3f 9e 4e d3 3e 03 b6 a4 3e 3d 2e a0 be
       0.89606285 0.41270918 0.32170114 -0.31285277
000110 8d eb bc be 53 81 a5 3d 7d 8a 05 bf 6d e7 68 3e
       -0.3689846 0.08081307 -0.5216444 0.22744532
000120 f5 e1 bd be d5 96 07 bf 8b b1 92 bd 90 ff 73 bf
       -0.37086454 -0.52964526 -0.0716277 -0.9531183
000130 72 c9 1a be de 44 15 bf b4 ea d6 be 25 17 18 bf
       -0.15115908 -0.5830821 -0.4197594 -0.59410316
000140 a1 27 85 3e 82 1f cf 3e 68 f6 ae 3e 68 66 b3 be
       0.26006797 0.40453726 0.34172368 -0.35039067
000150 91 79 77 3e f2 39 76 bd 71 49 9e bf 29 0e 28 3f
       0.24167468 -0.060113855 -1.2366163 0.65646607
000160 c7 1b 00 bf c0 59 2f 3e 0e ec 68 3d aa 8a 73 bd
       -0.50042385 0.1712408 0.056865744 -0.059458412
000170 46 95 eb be d8 5c 12 bf f3 c2 a4 3e 8f e2 07 bf
       -0.46012324 -0.5717292 0.32179984 -0.53080076
000180 b7 d6 37 be ad 08 d1 be fa 2d 63 be 16 e4 77 be
       -0.17953001 -0.40826932 -0.22185507 -0.24208102
000190 27 f7 58 bf 91 fc a0 bd 23 e2 45 3f 1d c4 3e bd
       -0.84752125 -0.07860673 0.7729818 -0.046573747
0001a0 48 7b 82 be 39 30 3d be 69 5c 35 be 92 0d 2f 3d
       -0.2548468 -0.18475427 -0.17711033 0.04273755
0001b0 35 37 8a 3e 66 1c 53 bf 6c 73 7f 3e 80 07 99 3e
       0.26995245 -0.8246521 0.24946374 0.29888535
0001c0 54 55 b0 be bf bf 0d bf f1 d8 83 be e5 39 9c be
       -0.344401 -0.55370706 -0.2575145 -0.3051292
0001d0 2f c5 cf 3d 11 90 17 bf e1 52 a4 3c 57 41 92 bc
       0.10145032 -0.592042 0.020059051 -0.017853422
0001e0 fd 26 ee 3e 37 ba 49 be 18 82 23 3c 36 33 dd 3d
       0.4651412 -0.19699942 0.009979747 0.10800783
0001f0 40 d1 2e 3b 1a c8 6c 3f e8 1f e6 be 73 70 dc 3e
       0.0026675016 0.9249283 -0.44946218 0.43054542

_CNNDQN__fc2.weight f4 [128, 128]
000000 ed 18 a0 be 9e 80 eb be 51 d2 53 bf b1 35 95 3d
       -0.31269017 -0.45996565 -0.8274279 0.072856314
000010 b9 a5 5e 3e 8c d5 89 bf 58 e9 3c bf b8 0b d0 3e
       0.21742906 -1.0768294 -0.73793554 0.4063394
000020 a1 ea 85 3d 6c 90 02 3e 4e d0 54 be 83 2b e8 bd
       0.065388925 0.12750405 -0.20782587 -0.11336424
000030 7d 74 d9 3e 10 52 96 bb eb ff 6f bf c1 a6 82 be
       0.42471686 -0.0045874193 -0.93749875 -0.25517848
000040 63 14 c6 3b 93 10 09 3b 43 8b 25 3f 96 3f 11 bf
       0.0060449108 0.002091442 0.6466562 -0.5673765
000050 e1 d2 87 bf a1 8b a8 bd 34 c5 9a bd 83 f1 b0 3e
       -1.061123 -0.08229757 -0.07557145 0.3455926
000060 c9 9b 70 3e a7 06 f3 be 77 16 05 be 44 1f a7 bf
       0.23496927 -0.47466013 -0.12996851 -1.3056417
000070 05 7d ef bd 6a 4b e3 be dc 1e 1a 3d 40 68 c8 bf
       -0.116937675 -0.44393474 0.037627086 -1.5656815
000080 d9 c4 80 3e 01 c3 1d bf 0f 6b 2d 3f 97 53 1e 3e
       0.25150183 -0.6162568 0.67741483 0.15461574
000090 f1 2e 1f bf b4 51 d2 3e 39 71 5e be 25 e3 c3 be
       -0.62181 0.4107796 -0.21722879 -0.38259235
0000a0 6e 11 83 be 13 76 7e bf ba 63 9f bd e1 ae 12 3f
       -0.25599235 -0.99398917 -0.07782693 0.57298094
0000b0 22 be 0f bf ba a7 ea bd b8 81 0d 3f bf df 0d 3d
       -0.56149495 -0.114577726 0.5527606 0.03463721
0000c0 4f af 88 be d3 c3 86 3e bd 3e a6 3e de 6b 38 be
       -0.2669625 0.26321277 0.3246974 -0.18009898
0000d0 5f 93 85 bd 8c fb cf be 11 fc d8 be 33 2a 30 bd
       -0.065222494 -0.40621603 -0.4237981 -0.043008994
0000e0 72 ea 35 3f 35 72 f8 be 39 be 1c be 29 50 33 bd
       0.7106086 -0.48524633 -0.15306939 -0.04377762
0000f0 20 72 16 be b7 3a 91 be b5 73 39 3d 2b 73 aa be
       -0.14691973 -0.28365108 0.045276362 -0.3329099
000100 f8 ef 7c bd 12 87 dc be 1a 04 1f 3e 73 69 9c be
       -0.06175229 -0.430718 0.15528908 -0.305492
000110 e1 cd 40 be e0 a5 cf be 9e ba aa bd f8 7f c9 be
       -0.18828537 -0.4055624 -0.08336376 -0.39355445
000120 40 41 e2 be 1e f5 18 bd b4 b4 13 bd c2 dc 51 bf
       -0.44190407 -0.037343137 -0.036061004 -0.81977475
000130 23 aa 1d 3f d1 75 3c be 3c 12 aa be 6d 98 3a bf
       0.61587733 -0.18404318 -0.33217037 -0.72888833
000140 f2 ae da 3e 7d 6a e7 be c3 64 89 3b 38 77 38 bf
       0.42711598 -0.45198432 0.00419292 -0.72056913
000150 3b af 1c be d5 31 95 3f d0 c2 80 3e d7 32 68 bb
       -0.1530122 1.1655833 0.2514863 -0.0035430694
000160 4f 28 3a be 40 26 f3 bf 32 eb d9 3e 42 39 86 be
       -0.18179439 -1.8996048 0.42562252 -0.2621556
000170 90 af d8 3e a3 bd 75 3d 2f 92 0d be 82 25 cb be
       0.42321444 0.059995305 -0.13825296 -0.39677054
000180 71 02 12 3f af 4a ad be c5 12 fe be d5 56 cd 3e
       0.57034975 -0.33846042 -0.49623695 0.4010531
000190 d9 6e e7 be 12 09 b8 3d 3f aa cb 3d 1a e1 98 be
       -0.45201758 0.08986105 0.09944581 -0.2985924
0001a0 d6 29 78 3e 99 7c 7f 3c e1 88 0d 3f 3e 71 cc be
       0.24234709 0.015593671 0.55286986 -0.39930147
0001b0 6d 47 44 bf c7 16 22 3e 79 9f 4f bd ee 4e 28 be
       -0.7667149 0.15829001 -0.050689194 -0.1643636
0001c0 29 73 49 bf d5 f8 a2 be 71 5c d9 3e a7 d2 0c 3f
       -0.78691345 -0.3183047 0.4245334 0.5500893
0001d0 ff 60 9d 3e bf 1f cb bd 67 b0 42 be 89 ae d1 3d
       0.30738065 -0.099181645 -0.19012605 0.10238368
0001e0 49 8e 68 3e 6f 5e cc bf 10 2d 73 bf 59 94 0d 3e
       0.22710527 -1.5966319 -0.94990635 0.13826121
0001f0 d7 c1 95 be 08 67 af 3e f1 a5 02 be b8 08 bc bd
       -0.2924945 0.34258294 -0.12758614 -0.091813505
000200 62 1c 85 bf e7 de a7 bf 68 79 17 bf 5b 5d 75 bf
       -1.0399287 -1.3114899 -0.59169626 -0.95845574
000210 49 76 ee bf 2f 06 4b bf 4a a2 00 bf 71 2f ac 3f
       -1.8629848 -0.7930631 -0.50247633 1.3451978
000220 78 55 30 3f 8d f7 01 c0 03 17 1d bf fa 02 f1 bf
       0.68880415 -2.0307343 -0.6136324 -1.8829033
000230 18 52 5a bf db f8 3c be a6 83 55 3e 2b 4d f7 be
       -0.85281515 -0.18454306 0.20851001 -0.48301062
000240 d3 8f 55 bf f0 c6 5e 3d 23 42 f2 3c 39 e0 3e bf
       -0.83422583 0.05438894 0.029572552 -0.74560887
000250 77 63 c5 be 30 64 35 bd 0d 29 b1 3d df 88 85 bf
       -0.38552448 -0.044285 0.08650408 -1.0432395
000260 1e d6 bd bf 9f 43 45 bf 61 88 62 bf 79 c3 4d 3d
       -1.4830968 -0.77056307 -0.8848935 0.050235245
000270 dc 37 86 be bc 9a 05 3f 86 8d 93 be 0b fb bd bf
       -0.26214492 0.5218923 -0.2881891 -1.4842237
000280 35 58 0d 3f c4 9b 93 be 25 5f 9a be 41 6e 72 bf
       0.5521272 -0.28829777 -0.30150715 -0.94699484
000290 72 c2 d8 be c2 0b 99 be 49 61 e2 bf 6e c3 ba bf
       -0.4233585 -0.29891783 -1.7685939 -1.459089
0002a0 2e 5d 52 bf 89 d9 20 3f 3a 26 64 be 99 5c 64 bf
       -0.8217343 0.6283193 -0.22280207 -0.8920379
0002b0 3e ec 0b 3e 1d 6d 46 bf 52 87 82 be 77 3b a4 3d
       0.13664338 -0.77510244 -0.25493866 0.080191545
0002c0 e8 eb 94 bf 84 10 1b bf a6 c7 07 bf e2 93 9f bf
       -1.1634493 -0.60572076 -0.53039014 -1.2467005
0002d0 8c df 69 bf 83 a4 1c 3c e3 22 8b be 0c 22 ae be
       -0.9135673 0.009560707 -0.27175054 -0.3401035
0002e0 ee e7 4a bf 1e 92 e8 be ae 6b 0f bf ef d1 26 bf
       -0.79260147 -0.4542398 -0.5602368 -0.65164083
0002f0 64 c9 f3 bf 64 cd ef bf ff 63 1c bf ce c4 81 bf
       -1.9045835 -1.8734555 -0.6109008 -1.0138185
000300 b7 0a 88 bf de 1f 32 bf 1c 38 1a be 26 a3 ed 3e
       -1.062827 -0.69579875 -0.15060467 0.46413535
000310 37 f6 89 bd 73 6c b9 39 38 e9 54 bf a5 a3 30 bf
       -0.06736415 0.0003536675 -0.83168364 -0.689997
000320 f1 46 ea 3e b6 01 1b 3b de 7a 0f be 92 a4 d1 be
       0.4575725 0.0023652143 -0.14011714 -0.4094587
000330 53 b2 37 bf 1f 3f 2e bf b2 85 a9 bd b4 7e e6 bf
       -0.71756476 -0.68065065 -0.082774535 -1.8007417
000340 48 59 df 3d ed 08 ac 3d 64 34 08 be a2 65 5a bf
       0.10905701 0.0840014 -0.13301235 -0.8531133
000350 a2 4f 47 3e 7c 20 19 bf 4a 2f da be 64 b7 f3 be
       0.19463971 -0.5981519 -0.42614204 -0.47600853
000360 2f 62 04 bf 16 51 f5 bf 31 2f 72 3e 3d d9 47 bf
       -0.51712316 -1.916537 0.23650815 -0.78065854
000370 2c a8 d8 bf a2 cd 05 3e ed ec fd bc 60 84 48 bf
       -1.6926322 0.13066724 -0.030996764 -0.7832699
000380 ff e3 0d c0 2f 8f 19 3f ab 04 f2 bd cb 1a 78 be
       -2.2170408 0.59984106 -0.118172966 -0.2422897
000390 46 d6 75 3e 8d ac e3 3d 39 96 d2 bd c9 e2 19 be
       0.2400752 0.11116896 -0.10282559 -0.15027918
0003a0 0f d6 20 be 56 0f 63 bd 8d 1b 3b bf 9f a7 a4 be
       -0.15706657 -0.055434547 -0.73088914 -0.32159135
0003b0 bd 0a 77 be cc e5 1e bf ea cc 11 3f 38 b2 13 bf
       -0.2412519 -0.6206939 0.569533 -0.57693815
0003c0 9e ea 42 3e 31 31 6f bf 8e 45 dd bf 10 7e cd bf
       0.19034812 -0.93434435 -1.7286851 -1.6054096
0003d0 49 14 bb 3e 29 5e 58 3e 0d fe 83 bf af 21 ae bf
       0.36538914 0.21129669 -1.0311905 -1.360403
0003e0 46 89 b0 3e e3 46 7d bf ab f2 d3 be 99 f2 4b bf
       0.3447973 -0.9893629 -0.41396078 -0.7966705
0003f0 2e 14 8d bf ba 3f e3 3e e2 18 da be 97 fb d2 3d
       -1.1021783 0.44384557 -0.4259711 0.10301893

_CNNDQN__fc2.bias f4 [128]
000000 24 d2 5b 3e 82 49 a0 3e 1f 2c e8 3e 1a 7f e0 be
       0.21466881 0.31306082 0.45346162 -0.4384697
000010 db 7b b3 be 33 54 2a 3f 56 ea 97 3e 10 86 0d be
       -0.35055432 0.6653473 0.29670972 -0.13820672
000020 9c 7b 95 bd 89 0c 86 be 53 3f 9d bb d4 bd a4 bd
       -0.07298967 -0.2618144 -0.0047988086 -0.08044019
000030 d4 dc 91 bf f4 86 ef 3e 5a 27 58 3f d7 26 db 3e
       -1.1395516 0.4678265 0.84435046 0.4280307
000040 04 a0 7f bf 36 4b bb 3e 89 94 93 3e 64 6b 16 bf
       -0.9985354 0.3658082 0.2882426 -0.58757615
000050 90 28 49 be 32 3a fc 3e 69 fe 0d bf 59 f5 c0 be
       -0.1964438 0.4926315 -0.55466324 -0.37687185
000060 6b ef 06 3d 69 40 8b 3e da e4 d7 3d e1 c1 58 be
       0.03294317 0.2719758 0.10541697 -0.21167709
000070 d6 51 82 3e a8 13 74 bf 8e 57 9a 3e 56 11 bf 3e
       0.2545306 -0.95342493 0.30144924 0.37317914
000080 dd 36 21 3f b5 16 22 3c 56 7c a1 bd c6 79 fd 3d
       0.6297434 0.009893109 -0.07885043 0.12376742
000090 47 3b 58 be 5c a2 34 3e 6f 0f 26 3e b6 ff 5d 3e
       -0.21116363 0.1764006 0.16216825 0.21679577
0000a0 45 d6 8b bd 10 9a 94 3e 5f 21 c8 3d 5a 11 1a bf
       -0.06827978 0.2902379 0.0977199 -0.60182726
0000b0 30 a0 51 3e 0a 31 ac 3b 3f 08 33 be 32 31 c0 bd
       0.20471263 0.0052548693 -0.17483614 -0.09384383
0000c0 67 ee 19 3f 33 63 c5 3f da 08 f2 3e c8 4f dd be
       0.601294 1.5420898 0.47272378 -0.4322493
0000d0 12 de 06 3f d2 56 b4 3d 41 0d e7 bd 27 05 af 3e
       0.526826 0.08805622 -0.11281825 0.34183618
0000e0 0a ce 27 3f ca 72 00 3e eb 41 90 3e 01 f1 f8 bd
       0.65548766 0.12543789 0.2817529 -0.12155343
0000f0 f0 42 69 3e 57 54 a3 ba d1 61 db 3e 4f 6f 99 be
       0.22779441 -0.0012461048 0.42848065 -0.29967734
000100 43 ef 57 3f 2a 72 48 3e 08 b5 61 bc cb 30 cc be
       0.8434946 0.195748 -0.013776071 -0.39880976
000110 74 23 fe bd bd d7 85 3f de 39 d0 bd 28 18 36 3d
       -0.12409106 1.0456463 -0.10167287 0.04445663
000120 c6 e0 af 3e 5a 33 a9 bd 74 7c 1b 3e 5e 29 a3 bc
       0.34351176 -0.08261748 0.15184194 -0.019917186
000130 87 ea 6d be 5c 37 14 bf ac 7d fa 3d e0 32 16 be
       -0.23233996 -0.5789697 0.12231001 -0.14667845
000140 00 20 74 be d2 ce 4f bf e1 a1 f3 be de 72 90 3e
       -0.23840332 -0.8117496 -0.4758444 0.28212637
000150 2e 6d 48 bf fd 61 b5 3e 1e 5b 21 3f dd 46 00 bf
       -0.78291595 0.35426322 0.6302966 -0.5010813
000160 f7 cd f7 bd 1f 96 e5 be 15 b6 95 3e bc 3c 0c bd
       -0.120998316 -0.44841096 0.2924048 -0.03423761
000170 5f 61 69 bf d6 ec 97 bb 28 7d 31 be 9b 33 c7 3e
       -0.911642 -0.0046363873 -0.173329 0.3890656
000180 61 9c e9 3e 4a fe 97 be d5 83 14 bf a1 85 81 3e
       0.4562712 -0.29686195 -0.5801366 0.25297263
000190 b6 01 1f bf c2 a2 0f bf 3b 4b 2e be 89 91 bf 3d
       -0.62111986 -0.56107724 -0.17020886 0.093539305
0001a0 47 ad 64 3f 34 67 b5 be 49 fd 37 bf ca 6f 45 3f
       0.893269 -0.354303 -0.7187086 0.771237
0001b0 20 d8 26 3e 0e cf 91 3c a3 84 67 bd ad 79 38 be
       0.16293383 0.017798927 -0.056522977 -0.18015166
0001c0 7d 66 12 be e0 6f ff 3e c7 92 14 3d 17 20 b5 3f
       -0.14296909 0.4989004 0.03627279 1.4150418
0001d0 79 ae 51 3c d2 6d 89 3e 74 41 ce bc c9 08 d2 3e
       0.012797945 0.268416 -0.025177695 0.41022328
0001e0 65 21 37 be c7 9a 10 3e ff d7 9b 3e 0c 75 d7 3e
       -0.17883833 0.14121543 0.3043823 0.42081487
0001f0 16 b2 1a bf e6 24 9d 3e 13 b0 87 be 1b 4f 02 3e
       -0.6042799 0.30692214 -0.2650152 0.12725489
