code/models/DoubleDQN/model180.pth (torch, 266187 bytes, 14 tensors)

_CNNDQN__conv1.weight f4 [16, 1, 5, 5]
00000000: 131a 8ebc b40f 1abc d3d0 5ebd 2675 42bd
00000010: 4918 5fbe 46aa 87bc 965c d7bb 906d 35bc
00000020: 8185 6bb8 97a3 5c3d b562 83bc c81b f3bc
00000030: 8033 423a 00af a83c ed7a a63d 4669 69bc
00000040: 1578 b9ba 167f 8ebc e313 4f3b e8b4 5e3d
00000050: 368f f8bb b137 8abb f8a8 06bd f2ed 2a3d
00000060: 1286 0cbe a8ee a53c 153e 5fbc b232 ba39
00000070: 1db1 57bd 8d17 e4bc 84fe 5c3c dd15 053d
00000080: a761 70bd 1298 f43e b712 44be a549 713c
00000090: 08cb cb3a fa23 29bc 8b99 b9bd 31bb 1bbd
000000a0: 3d06 0bbc f5de 6d3c 2bb5 ae3c e766 97bc
000000b0: d515 173c b057 953a 1923 b23b 8874 253c
000000c0: 68c8 5ebb ea96 94bb 2a1a 43b9 4c5f 003d
000000d0: 6e1b 443a f7c1 bc3c 410a 13bc 8d50 243d
000000e0: bafc 36bc 937a c33d 7ec2 b1bd 2fd7 4d3b
000000f0: c2f2 7d3d 7d26 ab3d 239f fcbd cfda 503e
00000100: db9d dabd 8559 443d 3814 3f3d e92b 573e
00000110: ceff 4bbe 7d19 823d 96c9 363e 670f 2f3e
00000120: dd69 9d3d d6ee 893d afae 7bbd a996 08bc
00000130: 8c85 cfbb 29a4 db3c d763 2d3c f7e8 003b
00000140: a9cf 60bd 3699 90bc d185 5bbc 9846 493b
00000150: b412 903c 7f7f bdbd 8faf 4fbd 1a36 a93b
00000160: e2a6 82b9 e87a ec3b 9abe bfbe ca6d 57bc
00000170: 90d2 cabc b38e 933c e161 c73c f15e 2a3f
00000180: 565d f73c 7e64 14bc a6e6 a03b c7ed 8abc
00000190: 6220 843c 3feb d53b 2e94 573c cee7 ec3c
000001a0: fc1d a33d c059 39bc 299e 8cbb 4318 613d
000001b0: 2356 593b 01c7 313e 2f0f e7bb 9a7d fd3b
000001c0: 62f7 b83b e400 d73d 22d0 c43d ccfb 9a3b
000001d0: 0f1d 993b 9f33 713d cc19 023d 0470 463e
000001e0: f6af 203c 4a58 8f3c 962d ad3c 7b46 f53d
000001f0: ce06 3e3d 687d 733e 12d6 b6bc 40b7 c33c
00000200: e76b b1bc 01a6 0ebc e5a6 9d3d b9fe 1c3e
00000210: e972 debc 1422 303d 7602 823b ceb2 c63d
00000220: 4d33 523d 115b ad3c 96fa 843c 012c c93c
00000230: c2d9 043b 69c2 6d3d c759 31bd 0f4b c13b
00000240: 29d2 cfbc 6b4f cdbb 5660 30bb d7cb 33bc
00000250: db62 d4bc 5fa5 1a3c e643 a03c 9b0b 69ba
00000260: e0fb 2ebb efa6 a0bb 8cee e03b b168 74bb
00000270: b268 1e3c 150c 3dbb d8cc d43b 3d2c 49bb
00000280: 729e dfbb eff0 cebb 3c84 e6bc 102b 9fbb
00000290: fab3 26bb 4e03 013f f310 8dbe d566 2bbd
000002a0: b0e9 04bd 1bb9 67bb b4f0 2d3b e039 2cbb
000002b0: 8aa1 0bbd ba18 b8bb 751c a93b 8fd0 bdba
000002c0: 2ba0 453c 0b72 e539 f882 803c 3fa9 2e3f
000002d0: eb3c fbbb 59b1 fbba d15e 603c 678c 30bc
000002e0: 5b0e e0bd aa7d 33bb 75e9 b13b a373 e0bb
000002f0: fec2 8f3b f818 c2bc dd7a 24bb 9460 873b
00000300: 72c2 bd3b 4d4e bd3a ae0e 53ba 92be bfbb
00000310: 5500 5bbc 8d6a 623b 9075 3cbb 1c82 0e3c
00000320: cfd6 073f ec5f 8c3c c185 d33b e629 02bc
00000330: cc3a f73b 8855 c8be cc81 95bb 8f85 31bb
00000340: bc78 fd3c 105a f4bb a0b1 4dbd bfb3 53bd
00000350: 67a9 4cbc f233 c2ba 83a4 373c 91bc a4bc
00000360: 6970 853c 9b28 a63b 495b 91bc 7a05 54bc
00000370: cffe afbb 1cc9 ae3b 347a 593c 0ab8 5dbc
00000380: 5e6f 8b3c 94e1 9ebb 7399 ff3a be21 28bc
00000390: 837a e03a 7fd8 5cbc bb98 17bc 01d6 56bc
000003a0: eff8 4039 b4e9 afbb be4d 0d3c e897 ebbb
000003b0: 0efe 80bb 8388 5abc 2bdd 113c e468 f1b9
000003c0: dfe3 b63b b06a a1bb 02e9 c3bb ce98 a7bc
000003d0: e00d 4d3f fc81 dbbb 5e88 d539 5d8e 73bc
000003e0: b8fd 723a 9c11 453f 18ab 6a3b b431 ca3c
000003f0: 54a4 a13a 3bbc 713b 3b1e 38bb f457 933b
-0.017346418 -0.009403158 -0.05439837 -0.047475003 -0.21786608 -0.016560685 -0.0065723164 -0.011073485
-5.61527e-05 0.05386695 -0.016038278 -0.029676333 0.0007408187 0.020591259 0.08128915 -0.014246291
-0.0014150167 -0.017394584 0.0031597547 0.054371744 -0.0075854314 -0.0042180647 -0.032875985 0.04173083
-0.13723019 0.020255402 -0.013625641 0.00035514456 -0.052659143 -0.027843261 0.013488416 0.032491554
-0.05868688 0.4777227 -0.19147764 0.014727031 0.0015548179 -0.010323519 -0.09062489 -0.038020317
-0.008485374 0.014518489 0.021326622 -0.018481685 0.009221514 0.0011393931 0.005436313 0.010098584
-0.0033993963 -0.004534592 -0.00018606396 0.031340882 0.0007480894 0.023041708 -0.008974613 0.04011588
-0.011168653 0.095448636 -0.086796746 0.0031408777 0.06199909 0.083569504 -0.123350404 0.20395969
-0.1067464 0.047936935 0.04665014 0.21012844 -0.199218 0.06352518 0.17850336 0.1709572
0.076862074 0.067350075 -0.061445888 -0.008336701 -0.0063330587 0.026811676 0.010582886 0.0019670108
-0.05488554 -0.017651182 -0.013398604 0.0030712243 0.017587043 -0.092528336 -0.050704535 0.00516392
-0.0002491987 0.0072168 -0.37450105 -0.013148734 -0.024758607 0.01801238 0.024338664 0.6655112
0.030195873 -0.009057162 0.004910308 -0.016959084 0.016128723 0.0065282877 0.013157887 0.028919127
0.079647034 -0.011312902 -0.004291315 0.05495478 0.0033162914 0.1736107 -0.0070513706 0.00773592
0.0056447247 0.10498217 0.09610011 0.0047297236 0.0046726535 0.05888712 0.031762883 0.19378668
0.009807577 0.017498154 0.021139901 0.11976334 0.04639321 0.23778307 -0.022318874 0.023891091
-0.021657897 -0.008706571 0.07697848 0.15331544 -0.027154403 0.04300125 0.0039675785 0.09702073
0.051318455 0.021161588 0.01623277 0.024557116 0.0020271395 0.058046732 -0.04329851 0.0058988403
-0.025368767 -0.006265571 -0.002691289 -0.010973892 -0.025926044 0.009438842 0.019563626 -0.0008889974
-0.0026700422 -0.0049027125 0.0068643745 -0.0037293846 0.009668516 -0.0028846313 0.006494146 -0.0030696534
-0.006824308 -0.0063153426 -0.028139226 -0.0048574284 -0.0025436864 0.5039567 -0.27551994 -0.041846115
-0.032449424 -0.0035358134 0.0026541175 -0.0026279613 -0.034089603 -0.005618182 0.005160863 -0.0014481711
0.012062113 0.00043763252 0.01568745 0.68227 -0.007667174 -0.0019202634 0.013694481 -0.010775662
-0.10940238 -0.0027388134 0.0054294416 -0.0068497225 0.0043872586 -0.023693547 -0.0025097646 0.004131386
0.005791002 0.0014442891 -0.00080511987 -0.005851575 -0.013366778 0.0034548372 -0.0028756596 0.008698013
0.53062147 0.017135583 0.0064551537 -0.00794456 0.007544851 -0.39127755 -0.004562592 -0.0027087664
0.03094136 -0.0074570253 -0.050218225 -0.05168509 -0.012491561 -0.0014816506 0.011208656 -0.020109447
0.016288953 0.0050707585 -0.017743723 -0.012940759 -0.0053709517 0.0053340327 0.013273764 -0.013532648
0.017020877 -0.0048486684 0.0019500687 -0.010261951 0.0017126355 -0.013479351 -0.009252722 -0.013112546
0.00018403282 -0.0053684358 0.008624492 -0.0071897395 -0.0039365357 -0.013338211 0.008902828 -0.00046045252
0.0055813636 -0.004926048 -0.0059787044 -0.020458605 0.80099297 -0.006698845 0.00040728127 -0.014865485
0.00092693744 0.76979995 0.0035807546 0.024681903 0.0012332299 0.0036885876 -0.002809419 0.004496569

_CNNDQN__conv1.bias f4 [16]
00000000: f868 cf3d 725e 2dbe ecd8 01be becd a4be
00000010: 15a5 b0bc bb71 0fbd d55d 6fbe 2e94 76be
00000020: 2cce 6cbe 796b f5be 34bd 6ebe d6d4 90be
00000030: 8851 8bbd 7acf e7bd bfce 6cbe b40b 80be
0.10127443 -0.1693056 -0.12680405 -0.3218822 -0.021563092 -0.03502057 -0.23375638 -0.24079964
-0.23125523 -0.47933558 -0.23314363 -0.2828738 -0.0680266 -0.1131887 -0.23125742 -0.2500893

_CNNDQN__conv2.weight f4 [32, 16, 3, 3]
00000000: 45af 81be e343 833e e015 093e 7957 cfbd
00000010: 6b01 143e cd19 4bbc 0870 fabe 328d 14be
00000020: 0059 b7bd 63fb 883e be9a 023f f789 5d3e
00000030: f943 f63e 6b90 493e 8323 ac3d c0c3 0f3f
00000040: 7d63 32be 7691 293e 74af 0bbe b727 653d
00000050: 4cc6 82be 6bd4 29bb 528d 18be fa31 0abf
00000060: 5c8a 0d3e e6fe c9be 389e d4bd f4d1 dabe
00000070: 1f9b 36bf 7b7c 36bf 584c bfbf 70f4 92bf
00000080: ed1b 56bf fe48 443e fe65 f4be 4846 33be
00000090: c110 263e 9d7c eb3e a33d 29bd 09ab e8bd
000000a0: 4c00 25be 0b43 5d3d 7bd9 54be 7305 43bf
000000b0: d395 27bf 27ac 02bd 121f d1bd d9f4 b7bd
000000c0: d1b6 49bc f157 133e c231 803e 9831 df3c
000000d0: 8e5e dc3d a865 3f3e 6544 803f 9ecd 5c3f
000000e0: 0c4b 1b3f 4858 8b3f 50dc a53f 6a3b 7a3f
000000f0: a091 ed3f 6e63 c33f e6b6 c23f 7c56 04bd
00000100: 4b43 693d 3d46 6a3d f2f9 0dbd a4c6 c2bd
00000110: bf88 a33d 12bc e2bd 2d96 c53e 849a 853e
00000120: c946 cc3d 3895 6c3e 6273 343e 15d3 523e
00000130: fa5a 633e 8474 bf3e 77b8 163e 9d6c 8e3e
00000140: a8ac 953e 5bd9 3a3f 9edb 043d 56f9 753e
00000150: 317d 3bc0 7764 d4be 7c4f 09be 2654 f4be
00000160: 0277 d7bf 7db8 d0be f6a3 d63e 92a6 95be
00000170: fcd6 0f3f cf5a 943e 382c e9be 0de4 b03e
00000180: fb21 40bf b2dc 03bf 27c2 583f a4ce 80ba
00000190: c587 adbd ae51 853f 447f 783e 9531 003d
000001a0: ed34 9d3f 9436 013d c58e 743f 51b6 8d3f
000001b0: 5ca4 913e 5e10 043f 52e1 ec3e 176e c33f
000001c0: c6f2 0b3d c397 213d 7c8e 87be 3568 8c3e
000001d0: 259a 483e 290b 693d 9f52 183e 6d71 1d3e
000001e0: ac63 273d e524 97bd 4671 8d3d 878c 263e
000001f0: 2d27 8abe f7e3 8dbd 1cd5 a43f 9813 4b3f
00000200: 5574 883e f4b2 4540 256a ea3f bff8 243f
00000210: 2feb 3a3f 508a c43f c3bd 0d3f 82f6 42bd
00000220: 3d7d 18be c2cb 8ebd d3fa 98bd c45d 3bbe
00000230: 910a fe3a fed9 80be 5113 6cbe 7eb8 463e
00000240: 562c 03bd 6a84 babd b492 773d 4206 963d
00000250: 3ffb 05be 88f7 24be 16cc 1a3e ddd6 debd
00000260: 4b78 a7be 0520 c73e a936 b43e 5f1d 673e
00000270: f2af dc3e 9949 5e3e 40f8 803e 2149 183f
00000280: dc09 013f 737d 643e a71d 14be 9344 993d
00000290: 006d e7bc 7824 04be b6df 6d3d 399d 493d
000002a0: 9fc6 873d d0ea c5bc 177e 23be 545a 6bbe
000002b0: 9218 d9bc bde3 5e3d e89d 053d fe3c debc
000002c0: 3a6a 6f3d acd8 b13f f2ab b33e 41ff 063f
000002d0: d0ef ab3d fa03 403d b8bf 8bbe cbbf febd
000002e0: 3fe1 36be 4c33 e6bd 50c3 973d 7250 543e
000002f0: a4b9 9fbb 98c7 0b3e 1b4f 02bc 5443 1ebc
00000300: 6d84 1ebd deb1 a4bb 3c2b 293d 2c91 dd3d
00000310: 96c9 7abd 2343 4b3d ed78 443f 2f66 3b3f
00000320: 757f ff3e 0a54 e73e 1ba5 f13e a0d4 1f3f
00000330: 4a23 b23f 8348 ac3e 2e68 4c3e d6f9 713e
00000340: cbb5 913e 43b6 343e 502c e03d ebf1 2f3e
00000350: 8973 b33e 75fa d73d 630f 553e 4ea3 763e
00000360: 7f13 bd3e ea0b d43e 4e4b ef3e 66c6 1d3f
00000370: b6d4 e13e 5da1 903e 042a 063f 93a2 153f
00000380: 56bf 5d3e bbdc 8f3d a1d6 4f3e 58bd be3e
00000390: 9a1e e13d 23f9 743e 5f63 31bd ad5b 26be
000003a0: dfac 9cbe 96be 0c3e 25dc c23e 8db9 133e
000003b0: 27a9 1f3f 9d15 753e ca8e d03e 2b2b 2e3f
000003c0: 9b60 933f 6737 ce3e ed1f e73e 6afd 413e
000003d0: 44af cdbd 1c33 c9bc 925c 87be b5c4 053d
000003e0: 2b0f 9e3d 3dc0 1d3f b6ce 03bf 75cd fcbd
000003f0: 48a6 b93d d518 443c 02ad 483e e230 04bc
-0.25329033 0.2563773 0.13387251 -0.10124106 0.14453666 -0.012396288 -0.48913598 -0.14506987
-0.08952522 0.26754293 0.5101737 0.2163466 0.48098734 0.19683997 0.08405211 0.56158066
-0.17420764 0.16559395 -0.13641149 0.05594608 -0.25541914 -0.0025913964 -0.1489766 -0.5398251
0.13822311 -0.39452285 -0.1038174 -0.42738307 -0.71330446 -0.7128369 -1.4945173 -1.1480846
-0.8363636 0.1916847 -0.47734064 -0.17507279 0.16217329 0.4599351 -0.041318547 -0.11360747
-0.16113394 0.054019015 -0.20786087 -0.7618019 -0.6546299 -0.03190246 -0.10211004 -0.08982248
-0.012311653 0.14389016 0.25037962 0.027245328 0.107602224 0.18691123 1.0020872 0.86251247
0.6066139 1.0886316 1.2957859 0.9774691 1.8560066 1.5264719 1.5212066 -0.03230904
0.05694894 0.05719589 -0.034662195 -0.09510544 0.079850666 -0.11071028 0.38591138 0.2609445
0.09974439 0.23103797 0.1762214 0.20588334 0.22202674 0.37393582 0.14718805 0.2781724
0.2923329 0.7298791 0.032436006 0.24020895 -2.929516 -0.414829 -0.13409227 -0.4772045
-1.6833193 -0.40765753 0.41921967 -0.29228646 0.56187415 0.2897553 -0.4554155 0.3454899
-0.7505185 -0.5150863 0.8467125 -0.0009827209 -0.084731616 1.0415552 0.24267298 0.031297285
1.2281777 0.03154619 0.9553035 1.1071264 0.2844571 0.51587474 0.46265656 1.5267972
0.034167074 0.039451372 -0.26475894 0.27423254 0.19590051 0.05689541 0.14875267 0.153753
0.04086654 -0.07380084 0.06906371 0.16264544 -0.26983014 -0.069282465 1.2877536 0.7932677
0.26651254 3.0890474 1.8313643 0.64442056 0.7301511 1.535471 0.5536768 -0.04759837
-0.14891525 -0.069724575 -0.07469716 -0.18297487 0.0019381811 -0.25166315 -0.23054244 0.19406316
-0.032024704 -0.09107287 0.06044264 0.07325412 -0.13084124 -0.1611005 0.15116915 -0.10880826
-0.32708964 0.38891616 0.35197952 0.22569798 0.43102986 0.21707763 0.251894 0.59486586
0.5040567 0.2231348 -0.14464436 0.074837826 -0.028250217 -0.12904537 0.058074676 0.049222205
0.06629681 -0.024159819 -0.15966068 -0.22983676 -0.026500974 0.054416407 0.032621294 -0.027128693
0.058450915 1.3894248 0.3509212 0.52733237 0.0839535 0.046878792 -0.27294707 -0.12438925
-0.17859362 -0.11240253 0.074103 0.20733812 -0.004874425 0.13650358 -0.0079534305 -0.009659607
-0.03870051 -0.0050260862 0.041300997 0.10818705 -0.061227404 0.049624573 0.7674702 0.73202795
0.4990193 0.45181304 0.47196278 0.62433815 1.3917019 0.33649072 0.19961616 0.23630461
0.2845901 0.17647652 0.10945952 0.17182128 0.35049084 0.10545818 0.20806651 0.24085733
0.36928937 0.4141534 0.4673714 0.61630857 0.44107598 0.2824811 0.5240786 0.58451194
0.2165502 0.07024523 0.20296718 0.37253833 0.10992165 0.23923163 -0.04330766 -0.16245909
-0.3060064 0.13744578 0.38058582 0.14426251 0.6236748 0.23934026 0.4073394 0.6803462
1.1513857 0.40276644 0.45141545 0.18944326 -0.10043195 -0.024560504 -0.26437813 0.032658298
0.07717737 0.6162146 -0.5148729 -0.12343875 0.09064919 0.011968811 0.19597247 -0.008068295

_CNNDQN__conv2.bias f4 [32]
00000000: 2355 dbbd 0983 4abe b0ef d5be b59e 68be
00000010: 922c ccbd bc66 48be d083 32be 4c8f ca3c
00000020: fdef f6bf 35fa a8bc bb17 97bf 6b05 8cbe
00000030: 6f07 54be 4214 dbbd ad47 5ebd f1b5 07bf
00000040: 25d3 c2bd ddea eabd e810 3abd 10a5 30be
00000050: 8013 eebc b762 123b a0e1 d9bd e4f0 b6bd
00000060: 05da bfbe d697 a3bf 7974 16be 6beb 57be
00000070: 475b 94be 6477 8dbd 1612 d8bb 6551 4dbd
-0.10709598 -0.19776548 -0.4178443 -0.22716792 -0.099694386 -0.1957044 -0.17433095 0.024726532
-1.9291989 -0.02062712 -1.1804117 -0.27347884 -0.2070596 -0.10697223 -0.054267574 -0.53011996
-0.09512929 -0.11470578 -0.04542628 -0.17250466 -0.029062033 0.002233667 -0.10638738 -0.08932665
-0.37471023 -1.2780712 -0.14692868 -0.21085899 -0.2897589 -0.069075376 -0.006593953 -0.050126452

_CNNDQN__conv3.weight f4 [64, 32, 3, 3]
00000000: 4d86 0d3d 9cdc db3e 16c1 1e3f 2323 8abe
00000010: 9712 b23d 097d ea3d 6ac1 debe aa1a 53be
00000020: 4336 b2be c431 cb3c 3480 f23d f8d3 973e
00000030: 2f6a 123e 1e2b 01bc 9330 183e 21da 23be
00000040: 5be1 3d3d 847b 5d3d c5b1 a3bd 3ee8 373d
00000050: 72b7 9a3d 92aa 893d 81fe 673d b42b b93d
00000060: 3d06 0c3e ae27 0b3f 29b7 1e3f a5f1 7abe
00000070: 9318 81be 7551 d9be 7a66 17bf 39b6 8fbe
00000080: e77b b2be a265 43bf 83c7 00bf 2cc2 d3be
00000090: 6a69 633e f94b e43d 17d8 a63d 8db2 2f3f
000000a0: 6aa4 153f 7745 893e da5e dc3f c2f1 8a3f
000000b0: d167 f03f be91 c3be 1966 a3bd ef2e a6be
000000c0: 641f bebe 10c7 50be 5cf2 813d 9380 e0bd
000000d0: 0512 81bd 7e49 bd3d eb24 f8bd bab0 ca3d
000000e0: 71f3 f1bd d621 82be ab0c 2dbe 82e4 7ebe
000000f0: c7ab 8dbf 48f7 b4bf af77 a8bf 30f7 083f
00000100: c214 853e 1889 b4be 1182 073f ae9b 923e
00000110: 470f e83d 2e5a 803f 43dd 3e3f 68a2 353f
00000120: f5f3 1dbe 98a4 e2bc 3bde 273d 2081 1bbe
00000130: 52b4 0c3e 64c3 d33d e40e f33e 6b45 2e3d
00000140: 2873 34be 1fe1 febe ac59 0d3d 948b 3d3f
00000150: 9258 88be 4bc5 2c3e 79cd 663e d536 2fbf
00000160: 9f54 80be a674 cd3c db4a f43e 9654 6dbc
00000170: e08d f3bd 7509 853e c45f 0b3e 2e48 94bd
00000180: e072 b33e 5562 1f3f a0ce bc3e 2815 b63e
00000190: 610a d5bd d642 8ebd 0f80 883e 712d 09bc
000001a0: 0532 9fbd 4970 6d3e 64e0 463e 6544 a83d
000001b0: fac1 913d ff96 283d f369 a93c 419d 0abf
000001c0: 6f1d 4cbe 1c30 87be d4e3 66bf cb01 41bf
000001d0: e395 24bf 7eb2 a2be 3b02 24be 94f5 93be
000001e0: 19df 46be 1a0a 9dbc 6fe2 4ebe b7bb 92be
000001f0: a6c2 a2be e6c9 d7be e84b b2be cd31 ccbe
00000200: 3332 58be ab45 63be ba99 eebe eadf 91be
00000210: e094 67be dae5 46bd dac2 dabd a1cb f33e
00000220: 9262 a63e ab53 93bd f986 2c3f 0ce6 bb3e
00000230: f9a3 0a3e bb2f 823f 5729 5d3f 1cfe c93e
00000240: 1a15 6e3c e8e8 38be c3e2 0abe b4aa c83e
00000250: c205 b13e 2ebf da3e d3dd 743f cf5c 443f
00000260: 89cf 823f 0abd fbbe fc9a 00bf dd48 c6be
00000270: 0f7d 0ebf a30e 63be 1880 5bbe 472d 21bf
00000280: c450 903d a76d 363e 1c51 15bd b317 12be
00000290: 5abb efbe b869 fcbd 7c1b 95be 81b3 2abe
000002a0: 7a36 c9be bb38 4ebf d980 24bf f8f4 58be
000002b0: d4f5 96bd ab46 083e a054 82bd b4bf 4bbc
000002c0: 7b7f ac3d a27c b8be e034 9bbe b2f2 97be
000002d0: 9e7d 18be e840 dc3c e187 183e eeac 3ebe
000002e0: 8e33 4abe 83cc c7be 3e75 c6be 6173 cbbe
000002f0: 4d1c ebbe 4363 c8be e3b6 1dbe 64a9 193d
00000300: 6fed 11bd 24bc 00be 6edf 40be f94e 9bbd
00000310: 2e0e 5f3d 9dcc babd 2a74 31be 3f77 b33e
00000320: 887a a93e 9262 c4ba 6090 503c a5ea 953e
00000330: 526c a53d ebc8 843e ec6f c73e 2264 42be
00000340: ee23 d4be 825f 27be 1af5 52be bc48 86bd
00000350: fa44 213e 5ce5 1d3f 19af 8e3e ead5 063e
00000360: 7c3a d5be 0c2c debe 0544 92be 41bf 50bf
00000370: 0045 2cbf 6482 22bf ff0f 3bbe 9587 81bd
00000380: e1b9 34bf fc9d 153e 7c1d c6bd deb5 7b3c
00000390: ebc7 22bc 2a24 433c ebd3 773e c218 7dbe
000003a0: 7ebd 5bbc 85b8 2ebe 0170 bd3e f4ce 63be
000003b0: 37a1 9b3e a3cd e7be ede4 02bf 5f9e 8d3d
000003c0: 5098 2d3d 2ee4 943e 7326 3d3e 5ae7 bdbe
000003d0: 764b 0abe e808 2dbf 0d8f d7be 9892 31be
000003e0: 33d7 a0be ac44 31bf ade3 f2be 9121 2dbf
000003f0: f547 c33d 752e 093e d68e 263b 87a3 1d3d
0.034551907 0.4294175 0.62013376 -0.26979932 0.08694952 0.1144963 -0.43506938 -0.2061564
-0.34807023 0.024804004 0.11840859 0.29653907 0.14298318 -0.007883815 0.1486228 -0.16001178
0.046357494 0.05407287 -0.07992891 0.044899218 0.07554521 0.06721987 0.0566392 0.09041539
0.13674255 0.5435742 0.6199823 -0.24506243 -0.2521406 -0.4244496 -0.5914074 -0.28068712
-0.34860155 -0.76326954 -0.5030443 -0.4135908 0.22208181 0.11147303 0.081466846 0.6863182
0.58454 0.2681081 1.7216446 1.0855029 1.8781682 -0.3819713 -0.07978458 -0.32457682
-0.37133324 -0.20388436 0.063450545 -0.109620236 -0.06302265 0.09242533 -0.121164165 0.09896989
-0.11814011 -0.2541644 -0.16899364 -0.24891856 -1.1068047 -1.4137964 -1.3161525 0.5350218
0.259924 -0.35260844 0.5293284 0.286344 0.11331039 1.0027521 0.7455637 0.7095094
-0.15425093 -0.027666375 0.04098342 -0.15185976 0.13740662 0.10340002 0.47472298 0.04254667
-0.17622054 -0.4978113 0.034509346 0.74041104 -0.26630074 0.16872136 0.22539319 -0.6844304
-0.2506456 0.025080036 0.4771336 -0.014485499 -0.11892295 0.25983778 0.1361075 -0.0724033
0.3504858 0.6225942 0.36876392 0.35563016 -0.1040237 -0.06946342 0.266602 -0.0083726505
-0.07773212 0.23187365 0.19421536 0.0821617 0.07117076 0.041159626 0.020680403 -0.541462
-0.19933103 -0.26403892 -0.9019139 -0.7539336 -0.6429121 -0.31776804 -0.16016476 -0.288983
-0.19421043 -0.019169856 -0.20203565 -0.2865884 -0.3178913 -0.42146224 -0.34823537 -0.39881745
-0.211129 -0.22194545 -0.4660166 -0.28491145 -0.22615385 -0.048559047 -0.10681696 0.47616294
0.32497078 -0.07193693 0.6739345 0.3669895 0.13539113 1.0170816 0.86391205 0.39451683
0.014531398 -0.18057597 -0.13563065 0.39192736 0.34574705 0.42723984 0.95650977 0.76704115
1.0219585 -0.49167663 -0.5023649 -0.38727465 -0.55659574 -0.22173552 -0.21435583 -0.6295971
0.07046655 0.17815267 -0.036454305 -0.14266853 -0.46822625 -0.12324852 -0.2912253 -0.16670038
-0.39299375 -0.80555314 -0.64259106 -0.21187198 -0.07371107 0.13308208 -0.06363797 -0.012435842
0.084227525 -0.36032587 -0.30313778 -0.2967735 -0.14891669 0.026886418 0.14895584 -0.18620655
-0.19746229 -0.39023218 -0.38761324 -0.39736465 -0.4592003 -0.3913823 -0.15401797 0.03751506
-0.035626825 -0.1257177 -0.18835232 -0.07583422 0.054456882 -0.09121058 -0.1732947 0.35051915
0.33101296 -0.001498299 0.012729734 0.29280582 0.08077301 0.25934538 0.38952577 -0.1898351
-0.41433662 -0.16345027 -0.20601311 -0.06556842 0.15748969 0.616781 0.27867964 0.13167539
-0.41646183 -0.4339298 -0.2856752 -0.8154183 -0.67292786 -0.6348021 -0.18267821 -0.06324688
-0.7059613 0.14611048 -0.096735924 0.015363185 -0.0099353595 0.011910478 0.24201934 -0.24716476
-0.013411878 -0.17062576 0.36999515 -0.22246915 0.30396435 -0.45274076 -0.51130563 0.069149725
0.042381585 0.29080337 0.18471698 -0.3709057 -0.13505349 -0.67591715 -0.42101327 -0.17341077
-0.31414184 -0.6924541 -0.47439328 -0.67629343 0.09535209 0.13396628 0.0025414727 0.03848603

_CNNDQN__conv3.bias f4 [64]
00000000: ff24 b33e 0a19 babf 511f f1be 6853 0cc0
00000010: 5792 23be 01cb 34be 6ef3 c2bf c336 fdbf
00000020: 3587 273f eb7f 34c0 5b0c cebf ee0c 0040
00000030: 09ca adbd 4631 2f3f ac30 38bf 8c3c 0fc0
00000040: 1463 36bf 6fc0 93bf 44fd 2ac0 f359 ff3f
00000050: dcf4 50be 806b 28c0 fff2 51bf e907 27bf
00000060: 5c55 8440 82ff 43be c614 8cbf b483 a8bf
00000070: 198f 95be 5ac1 543d c672 7cbf bd45 6ebf
00000080: 3575 b2bf 6b0d a43f e622 e3bd 1bef d9be
00000090: 7b2a c7bf a0c8 c9be be02 c03d 1e73 a5bd
000000a0: 2836 b9be 39f3 bebe 3cd9 89c0 77bb f2be
000000b0: 8e3d cd3f e0c7 413d a50b 1b3f 0bec 71bf
000000c0: 5482 143e 2de2 cabd bcc6 87bf 06a2 863d
000000d0: d8c7 9abf 37d9 bdbe 0f0a 16bf 8618 fd3d
000000e0: 7218 f93e 4ada 8abf f06d 4abf e827 20c0
000000f0: c08c 7fbf 065d 59bf 57d9 4dbd 328f 393e
0.34989163 -1.4538891 -0.47094205 -2.1925907 -0.15973793 -0.17655565 -1.5230539 -1.9782337
0.65440685 -2.8203075 -1.609752 2.0007892 -0.08485801 0.6843456 -0.7194927 -2.2380705
-0.7124493 -1.1543101 -2.671708 1.9949325 -0.20405906 -2.6315613 -0.8201141 -0.65246445
4.13542 -0.19140437 -1.094384 -1.3165193 -0.29210737 0.051942207 -0.9861263 -0.9307516
-1.3942019 1.2816595 -0.11090641 -0.42565235 -1.5559839 -0.39410877 0.09375523 -0.080785975
-0.3617413 -0.3729494 -4.307768 -0.4740865 1.603441 0.047309756 0.60564643 -0.945008
0.14502841 -0.09906421 -1.0607524 0.06573872 -1.2092237 -0.37079784 -0.586091 0.12358193
0.48651463 -1.0847867 -0.79074 -2.5024357 -0.9982414 -0.8490757 -0.0502561 0.18121031

_CNNDQN__fc1.weight f4 [128, 64]
00000000: 464d c8be 2d04 9abe 70ab 70be 69c8 ae3c
00000010: 591f bbbe d2dd e7bd 5aae fb3e 3827 37bd
00000020: 9697 2f3e a1a3 a4bd 5b04 e3bd 4db1 ae3e
00000030: f4a3 0ebe 508d 1dbf e5e6 903c 863e 533c
00000040: eadd 36be c264 28be c6d6 183e 1406 eabe
00000050: 8c5a c4bf e48e 633d 395c 993e 861f 323e
00000060: 9e95 0d3d c553 703f 0ef5 993e 0952 f03e
00000070: 7c83 da3e 2838 013f 134a b43f 5561 a5be
00000080: 52ef 503d 437f cbbd 08ca 0c3f 6075 883d
00000090: 1e33 043e 1525 283e 7326 61be fc23 a53e
000000a0: 638b a9be 2a76 043f 3179 b53e 6b67 18bf
000000b0: accf 83be 0fa9 40be ae94 01bf 6141 363d
000000c0: 32d3 673e ef0c 69bf b31a ac3c c5ba 23bf
000000d0: 69db 403d cf41 d4bd 0371 b43e 45b1 19be
000000e0: aacd bc3d 44d6 f5be 488c e2be 497c 033f
000000f0: 29b1 46be 9d48 e03e ca54 ca3d 2bea 053f
00000100: 3dda 753e cc90 863e 668b cd3d ed98 0b3e
00000110: 90d2 953f c755 583c 730e 883e e281 89be
00000120: 749d 5c3d bd6b 0e3f a8e8 61be c2aa bdbd
00000130: affa 373e ec11 523e c296 513f bc9d cd3e
00000140: c1f2 923e 9301 ee3e 8e99 68bd 1dd4 6cbe
00000150: 54b3 573f fd60 0fbc 2c81 a7be 2819 0e3f
00000160: 13b1 f6bd 6319 723e 3b28 fdbe 662f 453d
00000170: da05 8f3d d00c 23be 40e8 873e a1cb ee3e
00000180: 1534 0e3f 15e1 123e 13d1 013e 5adf c3bd
00000190: ac0f 243f e3c4 50bf eb79 30bf 5af7 bb3e
000001a0: 9e8a b73e 7421 fe3e 1e37 873e 243a 79bd
000001b0: fe58 bd3e bcfa 0a3f 8f83 f63e 4e78 57bf
000001c0: f961 303e ca65 0b3e 8e64 403c d6d6 3e3e
000001d0: d93c 95be e850 0ebf d34a da3e b9dc b8bf
000001e0: d339 243f 0792 9fbd 81db 4abf a752 07bd
000001f0: 2a3f 26be 0c37 863e 2d5d 2ebe f8d2 31be
00000200: ab75 ee3f 8dd0 783f 6899 39bf 95fe be3f
00000210: bbf2 9b3e 3eac 5f3f 80a7 f63f 1bdc ed3e
00000220: 62ae 393f 9ea3 103f 41e6 603f deed 42bf
00000230: 4700 b93f 6c71 a83f 3c01 e03f a548 0e3f
00000240: 0f53 3640 fecb 9c3e eec9 1e3f e6e1 debe
00000250: 60eb 6c40 314c e83e 6313 54bf d1b4 353f
00000260: 600d d0bf 665e cc3f 8439 a8bf bad1 e73f
00000270: ecf4 1b3f d2c0 fd3e 1c6c 3f3e 973f ca3e
00000280: 20a8 4c3f ab67 143e f0a8 74bf 56f9 e8be
00000290: 624e 1640 7dcc 963f 3cb6 1240 620a a03f
000002a0: ef0b 913f c46e 2540 0c0e a2be feb9 e1bd
000002b0: 7240 82bd 2b77 b3bd 43f3 763f cdfe f53f
000002c0: 4548 3d3f a7c1 113f 9609 863f 2758 1140
000002d0: 8e0f 8c3f 7c5a c43f 979a 7d40 8d3c e23f
000002e0: eb33 c93e 0fae 9a3f b7af e23f 705c 123f
000002f0: 8409 e53e acc9 a83f b4ff 1940 cb82 3940
00000300: 5730 d23e 878f ea3d a453 87be 6dc2 8b3f
00000310: 5fa3 a0be 0fbe 8bbd 7b65 afbd 8ba3 793e
00000320: 3923 493e 2484 3c3f d6fd 8d3f dd0d eabe
00000330: 0db4 c73e e335 22bf 4631 303f 5cfa c7be
00000340: 892c 6dbe 0f95 4cbe da7b 283e a14f 4bbd
00000350: 0fb1 453f fb11 ccbc d229 813e 4c61 5b3e
00000360: f692 423d 03ec 3abe ee41 48be 26f1 5e3d
00000370: 8e95 11be 1ff4 5dbe dce1 51be 8e31 583e
00000380: 1615 de3d 5001 553e 089e b63d ab5e 5f3e
00000390: 33aa b6be e3ae 6a3f 7df1 063e 2783 3abe
000003a0: 0d99 883e 4a0c 5b3b 32c7 c4bd 0dc4 ae3e
000003b0: 1fd6 903e a47a 91be cb71 723e cabc 903f
000003c0: b032 12bf 5e4d 06bd 7163 80be fb37 c23c
000003d0: 907e 6f3f eb28 78be fd84 b03c 8a21 673f
000003e0: bd2d adbe 670e 8ebd 6d0e f9be 2d9f 483f
000003f0: 0e1a 113d 6ab2 a9be 1e74 d13e f042 3b3e
-0.39121455 -0.3008131 -0.23502898 0.021335797 -0.36547354 -0.11321606 0.49156457 -0.044715136
0.17147669 -0.08039022 -0.11084815 0.34119645 -0.1392973 -0.6154375 0.017688224 0.012893325
-0.17858091 -0.16444686 0.1492568 -0.45707762 -1.5340133 0.055556193 0.29953173 0.17394838
0.034566514 0.9387782 0.30069774 0.46937588 0.4267844 0.5047631 1.4085106 -0.3230082
0.051009484 -0.099363826 0.54995775 0.066630125 0.12910125 0.16420396 -0.21987323 0.32254016
-0.33114156 0.51742804 0.35444024 -0.59532803 -0.2574438 -0.1881449 -0.5061749 0.044495944
0.22639158 -0.9103536 0.021008825 -0.6395686 0.047084246 -0.103641145 0.3524247 -0.15009029
0.09218915 -0.48015034 -0.4424765 0.5136152 -0.19403519 0.438054 0.098794535 0.52310437
0.24009033 0.26282346 0.10036354 0.13632555 1.1704884 0.013204045 0.26573524 -0.26856905
0.053861097 0.55633146 -0.22061408 -0.09261085 0.17966722 0.20514649 0.81870663 0.40159404
0.28700832 0.46485576 -0.056787066 -0.2312779 0.8425801 -0.008751151 -0.32715738 0.55507135
-0.12045493 0.23642497 -0.49444756 0.048140906 0.06983538 -0.15922856 0.2654438 0.46639732
0.5554822 0.14343674 0.12677412 -0.09564085 0.64086413 -0.81550425 -0.6893603 0.36712152
0.35847944 0.49634898 0.2640924 -0.060846463 0.36981958 0.5428884 0.48147246 -0.84167945
0.17224874 0.13613048 0.011742724 0.18636641 -0.29147986 -0.55592203 0.4263521 -1.4442359
0.6415073 -0.077915244 -0.79241186 -0.033037808 -0.16235033 0.26213872 -0.17027731 -0.17365634
1.862966 0.97193223 -0.72499704 1.4921442 0.30458626 0.87372196 1.9269867 0.4645699
0.7253171 0.5649966 0.8785134 -0.76144207 1.445321 1.3159614 1.7500377 0.55579597
2.8488195 0.30624384 0.6202687 -0.43531722 3.7018661 0.4537063 -0.8284208 0.7097903
-1.6254082 1.5966308 -1.3142552 1.8110878 0.60920596 0.49561173 0.18693584 0.3950164
0.7994404 0.14492671 -0.9557028 -0.45502728 2.348534 1.1781155 2.2923727 1.2503169
1.1331767 2.5848856 -0.31651342 -0.11021803 -0.06359948 -0.08762964 0.9646494 1.9218384
0.739384 0.56936115 1.0471675 2.2710054 1.0942247 1.5340114 3.9625604 1.7674729
0.39297423 1.2084368 1.7709874 0.571723 0.44733822 1.3186545 2.4062319 2.898608
0.41052505 0.11453157 -0.26431 1.0918709 -0.31374642 -0.0682336 -0.08564278 0.24378793
0.19642343 0.7363913 1.109309 -0.45713702 0.39004555 -0.63363475 0.68825185 -0.39058197
-0.2316152 -0.19978736 0.16453496 -0.049636487 0.77223295 -0.024910918 0.2522722 0.21423835
0.047503434 -0.18254094 -0.195564 0.054429196 -0.14217207 -0.21675156 -0.20496315 0.21112654
0.108438656 0.20801282 0.08916861 0.21813457 -0.35676727 0.91673106 0.13178058 -0.18214093
0.26679268 0.0033424073 -0.09608306 0.3413395 0.2828836 -0.2841388 0.23676221 1.1307614
-0.57108593 -0.032788627 -0.25075868 0.023708334 0.93552494 -0.24234359 0.021547789 0.9028555
-0.33823958 -0.06936341 -0.48643818 0.7836788 0.03542524 -0.33143932 0.40908903 0.18287253

_CNNDQN__fc1.bias f4 [128]
00000000: 7feb 983e 61c6 92be 0570 84be f302 0bbf
00000010: 8eb7 21be a6c0 7d3e 5faf ac3e 2854 6b3f
00000020: 0959 9e3f 8e50 433f b6ef 5f3f fbe6 d5be
00000030: 2818 ef3d 934f 6ebf 8d16 9d3e b1c9 fbbd
00000040: 87c0 d73e b9b9 ddbe 440e 343f e2c4 953d
00000050: ae52 2fbf e082 d73d 434b c6bd a7b5 bb3d
00000060: 43bd 5abe e3b8 b1be 740f 14bf e97f bebd
00000070: 81d5 87bf 9e21 6bbd 536d a63f 3adb c8be
00000080: c051 143f 2e5e 0a3f ae1c 963e 5fa4 4ebe
00000090: df11 5f3d f484 473e 8a4e 2ebf c321 b6be
000000a0: 1645 3abf afdb 10bc 29d2 8a3d ca27 833e
000000b0: 2522 233e 60dd d23b 65df 01bf f944 913e
000000c0: f999 32be d8aa 8cbd 2944 8bbe 618d e63d
000000d0: f784 ff3e 135a 0a3d dac0 633e 00ad a5be
000000e0: 914c 4f3f eb0a 04bf 57fc cdbd 8288 b73e
000000f0: d1c0 48bf 6ef7 5abc bba2 cc3d bb26 8fbc
00000100: 1f28 ca3f 425b 053f 7dba 313f 3c76 a3be
00000110: 85e2 c6be 056b 3d3e 0d3a 24bf d497 8f3e
00000120: 2bd8 30bf 1fa4 24bf eb98 5bbb 9c44 babf
00000130: 23de 50be e2f8 1ebf 44bc 37be d806 06bf
00000140: e47e 973e 97c6 523f 0507 863e 5bf2 bdbe
00000150: 7ca2 e63d 3265 adbe 2c60 b4bf dad0 553f
00000160: 3927 0abf fae4 d23e 8b63 413d 3283 9fbb
00000170: 2970 f2be afc7 b6be f34c c33e 01ad 1ebf
00000180: 5408 c7b9 ea7a abbe bff5 32be 1c25 1d3e
00000190: 423e 5abf 0451 643e ca30 783f 0216 17bd
000001a0: 767d 19bf f435 14bd 4785 c6bd 58da 113c
000001b0: 5778 ef3e 7a8b 86bf f719 963e 9f3f 073f
000001c0: 32ea 80be e369 30bf 453a aabe eb17 22bf
000001d0: 74da 703e 2da3 2abf 3a38 7c3c ce94 aabd
000001e0: 21d3 a03e 63cd 243d 8dfc 4cbc ab05 013f
000001f0: 2059 d9bd ebc8 b43f 3de9 5cbf 86ba 42be
0.2986717 -0.28666976 -0.25866714 -0.54301375 -0.15792677 0.24780521 0.33727548 0.9192529
1.2370921 0.7629479 0.87475145 -0.41777787 0.11674529 -0.9309017 0.30681267 -0.12294329
0.42139074 -0.43305758 0.7033427 0.07312943 -0.68485534 0.10523009 -0.09682324 0.09165507
-0.2136126 -0.3471137 -0.5783608 -0.09301741 -1.0612031 -0.057405107 1.3002113 -0.39229757
0.5793724 0.54049957 0.29318756 -0.2017989 0.054460403 0.19484311 -0.6808859 -0.35572633
-0.72761667 -0.008841439 0.06778366 0.25616294 0.15930994 0.0064350814 -0.507315 0.28372934
-0.17441548 -0.06868523 -0.2720044 0.11257435 0.49906132 0.033777308 0.22241536 -0.3235855
0.80976206 -0.5157916 -0.10057896 0.35846335 -0.78419214 -0.013364656 0.09991976 -0.017474523
1.5793494 0.52092373 0.69425184 -0.31926143 -0.38844696 0.18497856 -0.6415108 0.28045523
-0.69079846 -0.6431293 -0.0033507894 -1.4552188 -0.20397238 -0.62098515 -0.17942911 -0.5235419
0.29588997 0.82334274 0.2617723 -0.37098965 0.1126146 -0.33866268 -1.4091849 0.8352181
-0.539661 0.4119032 0.047214072 -0.0048679346 -0.47351196 -0.35699221 0.38144645 -0.61982733
-0.00037962443 -0.33492213 -0.17476557 0.15346187 -0.8525125 0.2229653 0.96949446 -0.036886223
-0.59957063 -0.036184266 -0.096933894 0.008902155 0.467715 -1.0511315 0.29316685 0.52831453
-0.25178677 -0.6891157 -0.3324758 -0.63317746 0.23520833 -0.66655236 0.015394265 -0.083291635
0.3141108 0.040234935 -0.012511385 0.50399274 -0.10612702 1.4123815 -0.86293393 -0.19016466

_CNNDQN__fc2.weight f4 [128, 128]
00000000: fb0b 1fbf 8b36 06bf 1454 60bf ee11 10bd
00000010: a0ea 97be bd26 cbbf c19b 95bf 10ae c13e
00000020: 30ff a93d e7a4 f6be 3b7a 2bbd 6a6a 04bf
00000030: 638a bfbc 58a2 c8bd ffd5 51bf 65ef 03bf
00000040: 5bf9 11bd fb50 c8be 8e7a 583e cf90 acbf
00000050: 1c16 b4bf c1af a93d 34c5 9abd 40c9 963e
00000060: dc30 17be 939e 70bf c737 fa3d f384 b3bf
00000070: 3e4c b0bd 13a3 2bbe df6f cdbb 5eff c0bf
00000080: e674 6c3e 7dbe 95bf d6a7 063f 3328 e03e
00000090: 9c51 5ebf a81a f73e 29a0 c0be 4802 2bbf
000000a0: cb48 35bf a699 94bf 9c9b d5be 15cf 78be
000000b0: d606 4bbf 88b6 d3bc cea5 f33e c5c7 0cbf
000000c0: 997e f3be 1e9a a9be 8216 0c3f a0df 99be
000000d0: 7ec2 29bf 6f69 91be 4094 29bf 65df 53be
000000e0: dd19 483f 6671 15bf 9998 95be 1f9b 52be
000000f0: 4fec 0dbe c18c 11bf 793e 813d 1dce febe
00000100: ccd1 00bf 7c7e 4cbf 9fba cb3e bb6e 0fbf
00000110: 5da7 00be 50f2 45bf 6ca8 8fbe 4d59 45bb
00000120: 22e0 febe 5c37 bebe 13e2 8e3d bb36 55bf
00000130: cf87 123f 5bd1 f4be 404e aabe a4c1 9abf
00000140: f453 993e 9890 dabe 0f6d bebe 71d6 53bf
00000150: ff26 7dbe 59c4 8b3f 50f0 763e d752 1fbf
00000160: bb8d 75be b197 09c0 f2e2 4f3e 9788 2ebf
00000170: 7695 8a3e fba7 8e3e 10aa 0bbd a9ff d5be
00000180: 60ad 233f 86c1 84bd a9e4 1ebf 7416 d83e
00000190: 89a3 f3be 6ff3 42bd 515d babe 70f8 1dbf
000001a0: d10c c03d 0e74 d93e e4d3 1dbe c02f 1fbe
000001b0: f9dc 7fbf 19a3 3cbe a102 6b3d 3047 08bf
000001c0: 4b36 0ebf 09f3 6ebf d4d9 063e 89d1 c13e
000001d0: 199b 9a3d 1d7c 26be 7605 8bbe c2a3 5ebe
000001e0: 936d 2b3f af94 e3bf 9e05 9fbf 3fc9 92be
000001f0: ccf8 04bf 6462 053f 0b1f 2cbf 013b e1bd
00000200: 7deb 85bf e315 eabf bd46 16bf a80e 40bf
00000210: 0510 bcbf 0686 56bf 4170 8fbe a28c ac3f
00000220: 16b5 8a3f 1d1c f4bf 2af7 d7be 88f3 25c0
00000230: b7ba 69bf b4f0 afbe 4a2a aebd 1b82 a4bf
00000240: 802e c6bf 29f3 423e 3921 e1bb 128a 20bf
00000250: 6c1f cdbe aad0 2abd 0d29 b13d d885 d4bf
00000260: 8735 04c0 84bf 99bf cf79 69bf 8448 593f
00000270: 554c 97bf d698 663f d7b8 07bf c874 0fc0
00000280: 672f 133f dab1 36bf c8ee 57bf 5dc0 aebf
00000290: 0a1b a7be 4fdb babe f6ec 17c0 210f 8abf
000002a0: 5f4c 5abf b1e1 f13d a257 89bf bebf 81bf
000002b0: 4151 703e 36fc 86bf 0609 d0be 97c8 493e
000002c0: 32b7 c0bf 2b30 0cc0 c2d9 c7bf 6c92 1bc0
000002d0: 5ac0 8bbf 203f 4a3f 578f 41be 4781 17bf
000002e0: 513c 08c0 3124 81bf 6cd5 61bf 2f5c 67bf
000002f0: e008 fbbf 3e87 eabf d37b edbf c0cb c1bf
00000300: c1ce bdbf d86a a5bf e555 2bbe cb28 0cbf
00000310: 41dd a3be e579 b2bd fe32 5cbf 4152 0fbf
00000320: 5f38 6f3e 2e0b b73d 826a 95be d10d e5be
00000330: f054 c0bf b670 c8bf 88a1 82be 9e3f eebf
00000340: 901e 67be 2e8b a93d ba24 783d 12a4 6dbf
00000350: ddb7 d33e 97d5 6bbf 2dfa d8be c1bb 98be
00000360: 8617 9abf f8de 15c0 f17e 1d3e f29e 8dbf
00000370: 729c eebf 2037 f7bd 5ed5 f5bd 692f 62bf
00000380: deec 3cc0 d7f4 81bd bd2b 3d3d 48dd 74bf
00000390: e44e 61bd d4a9 683f 575d d1bd 5964 8d3d
000003a0: 4f93 86be 356b b1bf 01d8 f5be 5f46 29bf
000003b0: c429 50bd 810a 5dbf 3701 9a3f 3f2a e5be
000003c0: 1267 113f 8c76 a1bf b841 c8bf 5286 13c0
000003d0: 2501 28bd 9f34 2fbf 4064 93bf 6843 b0bf
000003e0: 5fa7 90be e1d0 8cbf ce81 03bf 7413 01bf
000003f0: 1356 0ec0 18c9 093f 547e 35bf d332 873e
-0.62127656 -0.52426976 -0.87628293 -0.03517335 -0.29671192 -1.5871197 -1.1688157 0.37828112
0.08300626 -0.48172686 -0.041864615 -0.51724875 -0.023381418 -0.097965896 -0.8196716 -0.5153716
-0.035638195 -0.39124283 0.21140501 -1.3481692 -1.4069247 0.082854755 -0.07557145 0.29450417
-0.14764732 -0.93991965 0.1221767 -1.4024948 -0.08608292 -0.16761427 -0.0062694396 -1.5077932
0.23091468 -1.1698757 0.5259985 0.4378067 -0.86843276 0.48262525 -0.37622193 -0.66800356
-0.708142 -1.160939 -0.41720283 -0.24297746 -0.79307306 -0.025843874 0.47587436 -0.54992324
-0.47557524 -0.33125395 0.54721844 -0.30053425 -0.66312397 -0.28400752 -0.66241837 -0.20690687
0.78164464 -0.5837616 -0.29217985 -0.20566987 -0.13859676 -0.568554 0.06310744 -0.49766627
-0.50320125 -0.798805 0.39790818 -0.56028336 -0.12563844 -0.77322865 -0.28058183 -0.0030113042
-0.49780375 -0.3715161 0.06976714 -0.8328664 0.5723848 -0.47815976 -0.33262825 -1.2090344
0.29946864 -0.4268844 -0.3719258 -0.82749087 -0.24721907 1.0919296 0.2411511 -0.6223578
-0.23979847 -2.1498835 0.20301417 -0.6817717 0.27067155 0.27862534 -0.03409773 -0.41796616
0.63936424 -0.06482224 -0.6206766 0.4220463 -0.47585705 -0.047595438 -0.3639932 -0.6170721
0.093774445 0.42471355 -0.15412861 -0.15545559 -0.9994655 -0.18421592 0.057375554 -0.53233624
-0.55551594 -0.9333959 0.13169032 0.37855175 0.07549114 -0.16258283 -0.27152604 -0.21742156
0.6696407 -1.777975 -1.2423589 -0.28669164 -0.51942134 0.5210326 -0.6723487 -0.10997582
-1.046249 -1.8287929 -0.5870169 -0.75022364 -1.4692389 -0.83798254 -0.2801533 1.3480418
1.0836513 -1.907108 -0.4218076 -2.592989 -0.9130053 -0.3436333 -0.0850416 -1.2852205
-1.5482941 0.1903807 -0.0068704155 -0.6271068 -0.40063035 -0.041702904 0.08650408 -1.6603346
-2.065767 -1.2011571 -0.9120149 0.84876275 -1.182017 0.9007696 -0.5301642 -2.2415028
0.57494205 -0.7136513 -0.84348726 -1.3652455 -0.32637817 -0.36495444 -2.373838 -1.0785867
-0.85272783 0.11810625 -1.0729868 -1.013664 0.23468496 -1.0545719 -0.40631884 0.19705425
-1.5055907 -2.19044 -1.561333 -2.430812 -1.0918076 0.7900257 -0.18902336 -0.59181637
-2.1286814 -1.008917 -0.8821628 -0.90375036 -1.9612083 -1.8322523 -1.8553413 -1.5140305
-1.4828721 -1.2923231 -0.16731985 -0.54749745 -0.3200474 -0.08714656 -0.8601531 -0.55984885
0.23361348 0.08937679 -0.29182822 -0.44737104 -1.5025921 -1.5659397 -0.25513864 -1.8613164
-0.22570252 0.082784995 0.0605819 -0.92828476 0.41351214 -0.9212279 -0.4237837 -0.29830745
-1.2038429 -2.341734 0.15380456 -1.1064131 -1.8641493 -0.12071061 -0.12003587 -0.8835359
-2.9519572 -0.063455276 0.04618429 -0.9565015 -0.055006877 0.9088414 -0.10222881 0.069039054
-0.26284263 -1.3860842 -0.4801636 -0.66123 -0.05082108 -0.8634415 1.2031621 -0.44758794
0.567979 -1.2614303 -1.5645056 -2.3050733 -0.041016717 -0.6843967 -1.1514969 -1.3770571
-0.28252694 -1.1001245 -0.5136994 -0.5042031 -2.2240036 0.5382247 -0.70895886 0.26405963

_CNNDQN__fc2.bias f4 [128]
00000000: 6192 283e f363 433f e62a c43e 6f6b 36bf
00000010: 1b6b 03bf 73e6 4c3f ed5c 483e fad9 09bf
00000020: e051 b83d 5cd1 9dbe 0776 7dbe be7f 3abe
00000030: 7dea 9fbf 478b 103f 50cd 773f a41a 2e3f
00000040: 47ea bbbf e381 073f 6232 963e cce2 fdbe
00000050: 6f57 c33e c1b5 373f a580 8bbe 4643 cdbe
00000060: 0723 04be 511a dfbe 9201 763e 09a0 98be
00000070: 821e 153f c566 a5bf 6e31 aa3e c2b5 fe3e
00000080: d902 213f bf8f b3bd 59f7 36bd f27d fc3e
00000090: 8386 fabd f7a4 923e 7df0 873e 4779 28be
000000a0: 5556 ddbd b482 073f 2f37 3c3e fc3d f4be
000000b0: bff3 ad3d 6255 05be bbd4 80be 85d5 82be
000000c0: 748e 403f 3352 1540 9e13 203f 139b 2cbf
000000d0: 3fdf 2a3f 53dc 943d 77d3 8cbd d27f e13e
000000e0: 9d20 3a3f 8611 fbbd b783 063f e3cf b9be
000000f0: 33b9 0cbd 2302 613e 83a5 8dbc 31bc a0be
00000100: 07df 7e3f 1936 253f 7f10 0f3f 195e 1fbf
00000110: e379 d23c 4dda 9d3f 7de8 2bbe 04ca 9e3e
00000120: 8952 d53e 43b2 553e f291 853e bfa1 97bd
00000130: bb92 6cbe 66ca 19bf e085 bb3e 1469 dabc
00000140: 0a58 3dbe 5ccd 85bf de59 5dbf 005d 653e
00000150: 7ac3 59bf f3ae 073f db2b 963f 1216 15bf
00000160: 547e 6cbe dfa8 b3be 7af1 fc3e 8e57 d9bd
00000170: e210 69bf 4b44 a63d 649b 70bd f602 c53e
00000180: 889d d83e ccf2 01bf 9b4d 47bf 2ece e03e
00000190: b40f 54bf 86ea 90bf 1233 86be f86b 153e
000001a0: 026a 973f 9976 e8be 3abb d9be 7281 523f
000001b0: 0a51 383e c110 e53c 5886 a9be 6433 b6bc
000001c0: 753e 033d af7f 183f 5e30 1f3e 9612 0340
000001d0: 9c0c 1d3e 3b44 b63e 164f d3bd d829 2a3f
000001e0: f73e 80be 4b5f 7e3e b03e ee3e 8399 003f
000001f0: 7ea6 8fbf 5f60 913e 06ae 59be 7a8a b53e
0.16462089 0.76324385 0.3831398 -0.7125768 -0.51335305 0.8003914 0.19566698 -0.5384823
0.089999914 -0.3082379 -0.24752055 -0.18212792 -1.2493435 0.5646252 0.96797657 0.680094
-1.4680871 0.52932566 0.29335314 -0.49587095 0.38152644 0.7176171 -0.27246585 -0.40090388
-0.12903987 -0.43574765 0.24024037 -0.29809597 0.58249676 -1.2921988 0.33240837 0.49748045
0.6289497 -0.08767652 -0.044669483 0.4931484 -0.12232687 0.28641483 0.26550665 -0.16452514
-0.10807482 0.5293381 0.18380426 -0.4770354 0.084937565 -0.13020852 -0.251623 -0.25553527
0.75217366 2.333142 0.62529933 -0.67424124 0.66746897 0.07268586 -0.06876271 0.44042832
0.72706014 -0.12259202 0.5254473 -0.36291417 -0.034356307 0.21973471 -0.017290836 -0.3139358
0.9955906 0.6453567 0.55884546 -0.62252957 0.025692886 1.2332245 -0.16787906 0.310135
0.41664532 0.20868783 0.2608791 -0.074038975 -0.23102848 -0.6007446 0.36625576 -0.026661433
-0.18490615 -1.0453296 -0.8646525 0.22398758 -0.850639 0.53001326 1.1732134 -0.582368
-0.23095065 -0.35089776 0.49402982 -0.10612403 -0.91041386 0.081184946 -0.058741942 0.38478822
0.42307687 -0.50761104 -0.7785279 0.43907303 -0.8283646 -1.1321571 -0.2621084 0.14591968
1.1829226 -0.45402983 -0.42525655 0.8222877 0.17999664 0.02796209 -0.3311031 -0.022241302
0.032041986 0.5956983 0.15545794 2.0480094 0.15336841 0.3559893 -0.10317819 0.664701
-0.25048038 0.24841039 0.46532202 0.5023424 -1.1222684 0.28393838 -0.21257791 0.35457212

_CNNDQN__fc3.weight f4 [128, 128]
00000000: 8ee4 4d3f d8c2 033f 3cf1 f93e b891 39bd
00000010: e0d3 5abd b167 133f 1596 01be 3981 0e3d
00000020: ed1c 83bd 30dc bcbe 59b5 a33d 0d41 4f3e
00000030: f6cc a8be 5602 33bd bdb7 7f3d 0039 c33e
00000040: db1a 0cbe b7e8 bd3d c08a de3e af74 a73e
00000050: d58a e33c e93a f3bd b0ba bfbe f282 943e
00000060: 6a4a 993e 1e1d 9bbe 67db 16bf fb56 92bd
00000070: 81bc b23d 6c1b 9f3e 9a7d 613e adc3 363e
00000080: af13 883e 346f c13e 3cc5 c7be 96e8 82be
00000090: fd9b 563d 501c 19bc 86fd f03c e772 97bf
000000a0: 1fd6 ce3d 563e 07be ec7b 8a3e 985d 833e
000000b0: 7f45 2d3c 61e5 cbbc cc60 1dbf ccc6 cdbe
000000c0: 15f0 7cbe 9285 42bd a4f3 03bf b7d6 02be
000000d0: ae57 9d3e 3971 a2be b881 413e 87d7 1abf
000000e0: 6de8 0abe 07f7 8fbc e522 6f3e 389c 163e
000000f0: fbd8 c5be b8d3 89bc 92fa 0bbe 2792 a4bc
00000100: 08e0 7f3e 1327 53be c40a 4fbd 099d 223e
00000110: fad0 193c 6050 1d3e 8aed d3bd a9c6 67be
00000120: 8fca 03bf 0e37 453e 9432 563e 0895 d13c
00000130: 2b54 e7bd 8276 95be f523 a13e a844 ae3e
00000140: fc9a 21be 338a 5e3e 4a96 06bf 6238 81bd
00000150: 2aad b0bd 6d02 80be 2d36 b83b dbfa 27be
00000160: a499 033f 3232 6c3e 794e 03be 6914 193d
00000170: 3e92 c8bd bcc8 353e 5395 ea3e 99da f0be
00000180: 58b9 a0bd bf16 59be 29b5 473e 95a3 f03d
00000190: 5415 0a3f 924f 68bd 383a d73e 9570 9fbe
000001a0: 2e90 0cbb b774 20be 8e83 e73c 196f 843c
000001b0: 7bb9 93be 4e9b 3b3f d2eb febe 3c06 4b3d
000001c0: a8f4 a33d 95d5 043e 9836 18bf 6cc8 ea3d
000001d0: fd79 21bf 3ce4 143d a2fd 643e ad13 fcbe
000001e0: 75ff c9be 3d21 80be 63f3 a1bd 8eaa 3a3d
000001f0: c592 1cbf f232 63be 9716 583d 0809 12bf
00000200: cb75 1e3f a8b8 983e 79b5 203f b166 80bf
00000210: 2f23 803e 19a3 c03e 5c5c 15be 8238 92be
00000220: 1acc d73e 18c0 f6be a167 47be 565e 243f
00000230: e1d2 88be cbbb 13bd 0cd1 7cbb 0348 d73b
00000240: b889 1fbf 8c26 a33e cfbb b6bd 7764 5bbd
00000250: 6d1d 8dbf 1724 223e 3ff4 40bf 61a1 d5be
00000260: 99db b1bd 23d7 0cbe 976e 9cbf ab59 d4be
00000270: 97ae a7be 8c44 093e 602f 223d cfb9 303e
00000280: eb0e 193f 33c4 97be 6704 e0bd 65d7 0dbe
00000290: 823f b4bf 02be 9ebe a934 313d ed73 a93e
000002a0: 76b3 f1be ea21 fc3d a04e 93be 6648 cd3b
000002b0: 8f95 edbe 6f3c 16bf 1e10 44be fd38 dbbd
000002c0: c314 d23e 35b9 4d3e 28fb 28bf 6828 41be
000002d0: 175f 443e ce75 1bbe 4c58 fd3d 94d5 dbbe
000002e0: 5541 893d 8c0a 27bf 30e5 88bf 0a33 f8be
000002f0: 77df b1be a850 b0be 588b 4a3d 6eb0 fc3d
00000300: 2e90 c53d 126f de3d d8d8 81bf a913 0ebf
00000310: 0214 f13d 475c 9cbe ed2c bbbe a192 f5be
00000320: b34b d83d 6a06 473c d598 ef3e 7c94 8abd
00000330: 5109 dabd 2156 24bf 7fe1 ca3e 5000 8d3e
00000340: 4350 0dbe 4884 463f 9dff ff3c e496 2cbd
00000350: ba9d 5fbf 7b42 c63d 9da1 aebe e471 48be
00000360: edb2 8abe bf66 f1be 2e33 223f f18f 8ebe
00000370: f79f 7abf de1f 99be c807 9abe 9f72 913d
00000380: 9855 9bbe 5be2 59bf 4bd5 21be 42d9 f8be
00000390: c6da d5be 45ca ddbe a08a 503e 4ccc 9d3e
000003a0: b397 89be 5a79 a33d c31f f8be 8a41 d03d
000003b0: 6175 03be 2247 36bf eb06 bebe f000 b0be
000003c0: 9f06 2f3f 6822 543f 15e3 8ebe d303 61be
000003d0: 68f5 73be 8706 95be bfeb 35be 50d9 923d
000003e0: d0e6 5dbf 6417 d6be 3b9c 343c 1785 e73e
000003f0: 9f2c f33b ce38 14bf 1b26 81bf f540 2d3e
0.8042687 0.5146918 0.4881686 -0.045304984 -0.053424716 0.57580096 -0.12654908 0.034791205
-0.064020015 -0.3688674 0.07993574 0.20239659 -0.32968873 -0.0437034 0.062431086 0.38129425
-0.1368212 0.092729025 0.43465233 0.3270621 0.027776161 -0.118764706 -0.3744712 0.29006153
0.29939586 -0.30295652 -0.5892853 -0.071454965 0.087273605 0.3107561 0.2202057 0.17848082
0.26577517 0.37780154 -0.39017665 -0.25568074 0.052394856 -0.009345129 0.029417764 -1.183194
0.10099434 -0.13207373 0.2704767 0.25657344 0.010575651 -0.02488965 -0.61475825 -0.40190732
-0.24700959 -0.047490664 -0.5154364 -0.1277722 0.30730957 -0.31727007 0.1889714 -0.6048512
-0.13565226 -0.017573847 0.23353155 0.1470803 -0.38642105 -0.016824588 -0.13669804 -0.020089222
0.24987805 -0.20620374 -0.050547376 0.15880217 0.009388203 0.15362692 -0.10348041 -0.22634377
-0.51480955 0.19259283 0.20917732 0.025583759 -0.11295351 -0.29191977 0.31472746 0.34036756
-0.15781778 0.21732406 -0.5257307 -0.06309582 -0.086267784 -0.2500185 0.0056216926 -0.16404288
0.5140631 0.23066023 -0.12822904 0.03737298 -0.097935185 0.17752355 0.4581705 -0.47041777
-0.078478515 -0.21200083 0.19502701 0.11749951 0.53938794 -0.05671651 0.42036605 -0.3114058
-0.0021448242 -0.15669523 0.028260972 0.016166257 -0.28852448 0.7328385 -0.49789292 0.049566492
0.08005649 0.129721 -0.59458303 0.11464009 -0.63076764 0.036350474 0.22362378 -0.4923376
-0.3945271 -0.2502536 -0.079077505 0.04557281 -0.6116145 -0.22187403 0.05275592 -0.5704503
0.6189849 0.29828382 0.62776905 -1.0031339 0.25026843 0.37624434 -0.14586014 -0.28558737
0.42147905 -0.4819343 -0.19473125 0.64206445 -0.26723388 -0.036067765 -0.003857675 0.0065698638
-0.6231952 0.31865346 -0.089225404 -0.053562608 -1.1024605 0.1583408 -0.7537269 -0.41724685
-0.08684463 -0.13753943 -1.2221249 -0.4147466 -0.3275039 0.13405055 0.03959596 0.1725838
0.5978839 -0.29641876 -0.1093834 -0.13851698 -1.4081881 -0.3100434 0.04326311 0.33096257
-0.4720723 0.12311156 -0.28770924 0.006264734 -0.46403167 -0.58685964 -0.19146773 -0.10704229
0.41031465 0.20090182 -0.66008234 -0.1886307 0.19176899 -0.15181658 0.12370357 -0.42936385
0.06701914 -0.6525047 -1.0694942 -0.4847644 -0.34740803 -0.34436536 0.049449295 0.12338339
0.09646641 0.10861029 -1.01443 -0.5549875 0.11771394 -0.30539152 -0.36557713 -0.4796343
0.105613135 0.012147525 0.4679629 -0.067666024 -0.10646308 -0.6419392 0.39625165 0.275393
-0.13800149 0.77545595 0.031249816 -0.042136088 -0.87350047 0.09680649 -0.34107676 -0.19574696
-0.27089635 -0.47148702 0.63359344 -0.27844194 -0.97900337 -0.29907125 -0.30084062 0.0710194
-0.3033874 -0.85111016 -0.15804021 -0.48603255 -0.41768473 -0.43318382 0.20365381 0.3081993
-0.2687355 0.0798213 -0.48461732 0.101687506 -0.12837745 -0.7120229 -0.37114653 -0.34375715
0.6836948 0.82865 -0.27907625 -0.21974115 -0.23824084 -0.29106542 -0.17765711 0.07170355
-0.86680317 -0.4181472 0.011023576 0.45218727 0.0074210907 -0.5789918 -1.0089754 0.1691931

_CNNDQN__fc3.bias f4 [128]
00000000: 9dee c53e c0c9 bbbe 9cc0 103e 45cd 42bf
00000010: e034 04c0 3751 0c3f 9fe0 a53c 275b c83e
00000020: a882 353f 2581 113f aa0e 9f3e d5ff 13bd
00000030: a0fa 043f e54f 1abe f381 7f3f 1723 e13e
00000040: 2e65 13bf 96ec 2e3f 2f47 74be 3127 29be
00000050: 58ed 343f 89b2 073e fb0f 39bf 53bf 1abe
00000060: 07ba 113f 76b6 42bf bd03 203f c869 cf3e
00000070: 608a be3f 37d5 1dbf 263a 55c0 7f8c 2340
00000080: e945 6f3f f7ae 073f f357 6a3d 2a67 edbe
00000090: c48a 603f 2ff6 453e 8a7b 603e 24a1 a73e
000000a0: 4c68 943f d727 6fbf ac7e f5be 35c1 5e3f
000000b0: e3c4 b2bf 23a5 293e 515c 713e 5b67 de3e
000000c0: c09a cd3e 3b37 0b3f 6922 5fbe 7321 563f
000000d0: e111 cebd 39db 24be b7fb 2440 5747 483f
000000e0: 8d67 253d 1764 4abe c91a 083e 6601 573d
000000f0: 1a50 21bf 8980 8a3e ac73 923f 32f5 f83e
00000100: c5ba 0b3f 8623 c1bd 74f7 813e 4c5e 963f
00000110: fada 4e3e bd27 f8bf d90f 323f 8de2 593e
00000120: f179 3e3d 3cd4 da3b 26e5 203f 2edb 3d3e
00000130: 2ba0 b33f 9232 0c3f b225 cbbe a336 86be
00000140: ca58 7bbe 8ff7 47be b4cb 8bbe 0840 4f3f
00000150: d022 8d3e f729 113e fcb3 db3e 9ad8 693f
00000160: c0e4 adbf 0fc8 87be 197e f9be 9022 08bf
00000170: 7ce7 adbd 69b0 7d3e 414b 1940 dd71 cb3e
00000180: 4997 f2bc 8cca 45bc b7fb 28bf f137 dabd
00000190: 9ff9 d63e 653a 753e c76f 263f b72a 113f
000001a0: 03f0 0140 de25 2dbe 8678 ad3e 2965 483c
000001b0: 3d5d 1c3e 3177 0c3e 0258 0e3f 5756 50bf
000001c0: 06e1 76bf 49a3 e73e 76ae 25c0 58fe 1b3e
000001d0: 9933 373d 1260 ffbe 5caa 003f e3d8 a73d
000001e0: af70 b9bc f9c7 1bbf a547 7dc0 9969 0540
000001f0: e00f 84be abb3 843f d930 0dbe 9b7c 463e
0.3865861 -0.3667736 0.14135975 -0.76094466 -2.0657272 0.54811424 0.02024871 0.39132044
0.7090249 0.56837684 0.31065875 -0.036132652 0.51944923 -0.1506954 0.9980766 0.43972084
-0.5757626 0.6832975 -0.2385528 -0.16518857 0.7067466 0.132517 -0.7229001 -0.15112047
0.5692448 -0.76059663 0.62505704 0.40510392 1.4885979 -0.61653465 -3.331674 2.5554502
0.9346605 0.5300135 0.05721278 -0.4636777 0.8771174 0.19332193 0.21922126 0.32740128
1.1594329 -0.93420166 -0.47948205 0.8701356 -1.3966335 0.16566901 0.23570372 0.4343823
0.40157127 0.5438115 -0.2179047 0.8364479 -0.10062004 -0.16099252 2.5778635 0.78233856
0.040381957 -0.19764744 0.13291468 0.052491568 -0.6301285 0.2705119 1.144155 0.4862457
0.5458186 -0.09430604 0.25384104 1.1747527 0.2020072 -1.9387127 0.6955543 0.21277829
0.04650301 0.0066781323 0.6284965 0.18540642 1.4033254 0.54764664 -0.39677197 -0.2621356
-0.24545589 -0.1952803 -0.2730385 0.8095708 0.27565622 0.14176165 0.42910755 0.9134613
-1.3585434 -0.2651982 -0.48729017 -0.5317774 -0.08491418 0.24774326 2.3952181 0.39735308
-0.029613154 -0.012072217 -0.66009086 -0.10655201 0.4198732 0.23948057 0.6501431 0.567058
2.0302742 -0.16908976 0.33881015 0.01223115 0.15269943 0.13717343 0.5560304 -0.81381744
-0.9643711 0.45241764 -2.5887733 0.15233743 0.04472694 -0.49877983 0.5025995 0.08195665
-0.02263674 -0.6085201 -3.9574978 2.0845702 -0.25793362 1.036733 -0.13788165 0.1938347
